project/ckpt/actor_0.ckpt (torch, 731951 bytes, 24 tensors)

map_encoder.block.0.weight f4 [32, 1, 8, 8]
0.12011653 0.07420263 0.0076024383 -0.09361245 0.1062015 0.097769305 0.0056148022 0.040211692
-0.06328051 -0.014519453 -0.08437204 -0.043587923 -0.07731806 -0.11271553 -0.044484198 0.04550515
-0.122469276 0.069638535 0.045021564 -0.04663387 -0.11310138 -0.10146949 0.05142589 0.0560617
0.08024776 0.081027746 -0.014123693 -0.028584942 -0.1024736 -0.05007264 -0.05131267 0.12014869
0.12430923 -0.090929285 -0.022208542 0.053896964 -0.09517084 -0.10487251 0.030852184 -0.018537536
-0.044624373 0.03872308 -0.12145612 -0.013672456 -0.11298038 -0.013691068 -0.11208151 -0.12298687
0.033577725 -0.117444724 -0.066711366 0.04478447 0.119871154 0.0493038 -0.03839262 0.0027976185
0.03465934 -0.12406048 -0.05756411 0.04424405 0.0074571967 -0.084969506 -0.042457342 -0.12351678
-0.09410475 0.011937395 -0.019101292 -0.07445581 -0.025334656 -0.014445528 0.03055732 0.042603016
-0.034255415 -0.08315098 0.007869095 0.1191356 0.06593248 0.050604135 -0.0032335818 -0.109984234
0.06750746 -0.010196716 -0.031415477 0.10618845 -0.08545099 0.043453336 0.055300668 0.014344424
0.034574047 -0.014037073 -0.037859753 0.119824946 -0.043169454 0.073205724 -0.06619838 -0.04483971
-0.0655801 -0.0073907822 -0.041476518 -0.10931571 0.065763995 0.107859865 0.027544543 -0.0049690455
-0.040841803 0.024495646 -0.042038545 0.0016914606 -0.022314236 0.12076083 -0.095934466 -0.035009667
0.021399274 0.055667385 -0.05611618 -0.010947451 -0.098526955 0.0232625 -0.07547273 -0.043084398
0.12440595 -0.04540409 -0.018300802 0.12000938 -0.1142312 0.04242313 -0.05612442 -0.03595391
0.0031625926 -0.06191434 -0.076980636 -0.10132973 0.07941075 -0.07817365 0.046755508 0.11144748
0.10675399 0.03347893 -0.002374366 -0.029898927 -0.06778681 0.013806626 0.067243144 0.09581867
0.02441959 0.09859294 -0.002674967 0.12474723 -0.02067618 -0.060882613 0.05809532 0.037861943
0.08600776 0.10533327 -0.069288164 0.07907146 -0.07521708 -0.008645013 0.121669605 -0.09065069
0.1159668 0.07177009 -0.05808845 -0.010645911 -0.050861582 -0.09205492 0.053131327 -0.07775934
-0.115155146 0.08103436 -0.12346132 -0.09845671 0.062528506 -0.10536246 0.112562284 -0.00079385936
-0.06821555 -0.12058596 -0.091915086 -0.12383835 -0.085758224 0.09250565 -0.067245215 -0.10135588
-0.07358688 -0.012050226 -0.014015585 0.043283626 0.07680601 0.042094737 0.083866894 -0.08748396
-0.05321315 -0.036694616 0.06912954 0.0056420267 -0.06327227 0.0546391 -0.052186638 0.114031464
0.112574145 -0.12194073 -0.052343726 -0.025779366 -0.06330803 -0.08938664 0.07215321 0.0833036
0.08453047 0.11201972 0.11353354 0.10563022 -0.06541121 -0.05166635 -0.0024184585 0.08747317
-0.08988148 -0.0022498071 -0.07338171 0.040797204 0.10556716 0.02043891 0.008388385 0.044716835
-0.048810795 -0.059826612 0.10497466 0.02787003 0.08480236 0.0432107 0.10523327 0.08669324
-0.032055765 0.106139064 0.07594882 0.0766345 0.013128579 0.027562916 0.06086786 0.10717559
-0.015861452 0.08378409 0.00069354475 -0.113226175 -0.09556407 0.10212274 -0.091045484 -0.03788635
0.105599105 -0.017906278 0.08464621 0.10439959 -0.10168061 0.07657841 -0.054367155 -0.034884512
00000000: a8ff f53d 8cf7 973d e01d f93b e2b7 bfbd
00000010: 2c80 d93d 463b c83d 60fc b73b 04b5 243d
00000020: 3699 81bd 00e3 6dbc 40cb acbd 4089 32bd
00000030: ee58 9ebd 66d7 e6bd 1035 36bd 9c63 3a3d
00000040: 2cd1 fabd a69e 8e3d 8868 383d 2803 3fbd
00000050: b2a1 e7bd 3ccf cfbd f4a3 523d f4a0 653d
00000060: f058 a43d e0f1 a53d 1067 67bc f82a eabc
00000070: aedd d1bd f818 4dbd 3c2d 52bd 8410 f63d
00000080: d695 fe3d 2239 babd b0ee b5bc 10c3 5c3d
00000090: eee8 c2bd 66c7 d6bd b8bd fc3c 08dc 97bc
000000a0: 0cc8 36bd 189c 1e3d fcbd f8bd 7002 60bc
000000b0: 4262 e7bd 8050 60bc fe8a e5bd 8ae0 fbbd
000000c0: cc88 093d dc86 f0bd f89f 88bd ec6f 373d
000000d0: 027f f53d c8f2 493d 9441 1dbd 4058 373b
000000e0: f4f6 0d3d 6c13 febd 58c8 6bbd 4039 353d
000000f0: 805b f43b 7e04 aebd c0e7 2dbd 5ef6 fcbd
00000100: feb9 c0bd 1095 433c 507a 9cbc 4a7c 98bd
00000110: a08a cfbc f0ac 6cbc 5853 fa3c 8080 2e3d
00000120: 684f 0cbd 104b aabd 60ed 003c 5efd f33d
00000130: 9c07 873d 4846 4f3d 80ea 53bb 6a3f e1bd
00000140: 5a41 8a3d 2010 27bc 84ad 00bd 5479 d93d
00000150: ee00 afbd 20fc 313d f482 623d e004 6b3c
00000160: 849d 0d3d c0fb 65bc d412 1bbd c866 f53d
00000170: 74d2 30bd e2ec 953d 0493 87bd d8a9 37bd
00000180: dc4e 86bd 602e f2bb 48e3 29bd eae0 dfbd
00000190: 46af 863d a2e5 dc3d 18a5 e13c 60d3 a2bb
000001a0: bc49 27bd 18ab c83c 9c30 2cbd 00b4 dd3a
000001b0: 58cc b6bc 7451 f73d 4a79 c4bd 4c66 0fbd
000001c0: 884d af3c 7c03 643d 14da 65bd f05c 33bc
000001d0: 80c8 c9bd 0091 be3c 7291 9abd 4479 30bd
000001e0: 8cc8 fe3d a4f9 39bd 90eb 95bc 7ac7 f53d
000001f0: 0cf2 e9bd e0c3 2d3d b8e2 65bd 6844 13bd
00000200: 8043 4f3b e499 7dbd 06a8 9dbd f685 cfbd
00000210: 1aa2 a23d 8219 a0bd b482 3f3d 943e e43d
00000220: d6a1 da3d 3421 093d 409b 1bbb 98ee f4bc
00000230: d0d3 8abd 3035 623c c6b6 893d 943c c43d
00000240: 980b c83c 18eb c93d 804e 2fbb 7a7b ff3d
00000250: 1861 a9bc 0c60 79bd 5cf5 6d3d 2015 1b3d
00000260: d624 b03d f8b8 d73d f4e6 8dbd 38f0 a13d
00000270: 6a0b 9abd d0a3 0dbc ea2d f93d 12a7 b9bd
00000280: 0080 ed3d 32fc 923d 28ee 6dbd 306c 2ebc
00000290: 3c54 50bd 4a87 bcbd 3ca0 593d 4a40 9fbd
000002a0: 76d6 ebbd 58f5 a53d 4ad9 fcbd aca3 c9bd
000002b0: f20e 803d 46c8 d7bd 0e87 e63d 001b 50ba
000002c0: 98b4 8bbd c6f5 f6bd fa3d bcbd f69e fdbd
000002d0: 02a2 afbd 9a73 bd3d dcb7 89bd ac93 cfbd
000002e0: b8b4 96bd 506e 45bc a0a1 65bc 2c4a 313d
000002f0: 784c 9d3d 886b 2c3d 68c2 ab3d ca2a b3bd
00000300: 08f6 59bd 184d 16bd ca93 8d3d c0e0 b83b
00000310: e494 81bd 40cd 5f3d a8c1 55bd 5489 e93d
00000320: 468d e63d 10bc f9bd 6066 56bd 402f d3bc
00000330: a4a7 81bd 5810 b7bd 10c5 933d 149b aa3d
00000340: 501e ad3d 986a e53d 4684 e83d a854 d83d
00000350: 50f6 85bd 18a0 53bd 007f 1ebb 2225 b33d
00000360: c813 b8bd 8071 13bb 2649 96bd f81a 273d
00000370: 9833 d83d 806f a73c 706f 093c 0029 373d
00000380: d4ed 47bd c00c 75bd f4fc d63d b04f e43c
00000390: dcac ad3d b4fd 303d 8a84 d73d 3a8c b13d
000003a0: e84c 03bd 705f d93d 0e8b 9b3d 8cf2 9c3d
000003b0: 4019 573c a0cb e13c 9450 793d e07e db3d
000003c0: e0ef 81bc fe96 ab3d 00cf 353a 20e3 e7bd
000003d0: 18b7 c3bd ba25 d13d 0e76 babd b82e 1bbd
000003e0: 5844 d83d 30b0 92bc fe5a ad3d 74cf d53d
000003f0: ec3d d0bd 24d5 9c3d 18b0 5ebd 10e3 0ebd

map_encoder.block.0.bias f4 [32]
0.04440902 -0.09952283 0.06923355 0.010679662 -0.017880306 -0.12233414 0.005043879 0.0748653
0.06195487 -0.06202945 -0.04819542 -0.07266487 0.050982535 0.02776803 0.03187582 0.028368711
0.113405496 -0.026935294 -0.0076265484 -0.1223079 0.101345375 0.057621032 -0.05413723 -0.10393384
0.09504193 -0.0026393682 -0.12404014 0.08839972 0.060245782 0.049692363 -0.08720884 0.10711546
00000000: 3ce6 353d a0d2 cbbd 52ca 8d3d c0f9 2e3c
00000010: b879 92bc 528a fabd 2047 a53b fa52 993d
00000020: 64c4 7d3d 9812 7ebd 9068 45bd 52d1 94bd
00000030: 10d3 503d c879 e33c 3890 023d 8065 e83c
00000040: 2441 e83d 68a7 dcbc 20e8 f9bb 907c fabd
00000050: 2a8e cf3d 0804 6c3d 00bf 5dbd 44db d4bd
00000060: 58a5 c23d 40f9 2cbb c208 febd ea0a b53d
00000070: 48c4 763d 388a 4b3d 8c9a b2bd 5a5f db3d

map_encoder.block.2.weight f4 [64, 32, 4, 4]
-0.017359238 -0.0041130967 0.015940264 0.010889042 0.021952104 0.029153462 -0.003825985 -0.008617993
-0.03522046 -0.036103923 -0.016357603 0.010995563 -0.021012954 0.030411985 -0.0031271912 0.012689352
0.017292615 -0.009103287 0.034239758 0.02749962 0.01167395 0.03560553 -0.038495902 0.03586292
0.01804227 -0.019152492 -0.031241573 0.011656247 0.040660378 -0.02958498 -0.033488214 -0.0013750978
0.019095752 -0.03151558 -0.003296569 -0.020656427 0.034483057 0.0037369728 0.017179396 -0.03258505
0.04045551 -0.034139484 0.029897053 0.028636795 -0.034065943 0.011752497 0.029007178 0.02790055
0.013872836 0.009454124 -0.0019556135 0.025370117 -0.0099581815 0.034067523 -0.026392013 0.012661967
-0.02890937 0.033732127 -0.018709498 -0.04396053 -0.022279488 0.035709564 -0.017750187 0.012400255
0.026081469 -0.011762422 -0.011536151 0.022496086 -0.0045942664 -0.032868937 -0.04135354 0.016512375
-0.03911643 -0.027156748 0.03322183 -0.040179145 -0.011610076 0.0037647374 0.019913126 -0.03773494
-0.03658431 0.01721755 -0.023178596 -0.02651875 0.029951978 0.017638925 -0.028482825 -0.025468154
0.041056108 -0.04072218 -0.008430481 -0.023937091 0.030589197 -0.009012077 -0.041923158 0.0007545389
-0.033866845 0.024976756 0.021051172 -0.016437782 0.011513256 -0.00692299 0.0321103 0.04013112
-0.029182646 0.029679481 -0.036525976 0.0007440336 0.014032271 -0.022954512 0.031001512 -0.033689898
-0.043370992 0.022042494 0.016600985 0.002279982 0.024771813 -0.03313493 0.014320478 0.031050231
-0.020137664 -0.0048944727 0.0074281767 -0.042594563 -0.017572828 0.039176587 0.0062918514 -0.016837617
0.011235714 0.02853069 -0.01993096 0.021371093 -0.020263113 -0.00940156 -0.011139102 -0.013286289
0.0054455325 -0.014697144 0.03216398 -0.011619326 0.023229066 -0.041846015 0.0055580735 -0.02737559
0.0051243715 -0.028440014 -0.026729535 0.01742208 -0.0025359057 -0.03182876 0.021115888 -0.00331752
-0.0048030056 0.0011715069 -0.027056774 -0.012684129 0.03696877 -0.018599298 0.011398673 -0.034337685
0.03305215 0.037082974 0.027429145 0.04136264 0.008023694 -0.03357363 0.0064728707 -0.027799824
-0.0166123 -0.0136170145 0.03673708 -0.017946607 0.040451627 0.0029086396 0.008010976 -0.042310804
0.008546092 -0.03164446 -0.036700815 -0.01088497 -0.0027361885 -0.04348124 0.04024974 0.026717301
-0.029307928 -0.022617785 -0.025306674 -0.03725746 0.038837966 0.0053742714 0.032019142 0.029806975
-0.0063224733 -0.03806475 -0.03243606 -0.011100262 0.02458508 0.0019749217 -0.04219953 0.029079948
-0.022927584 0.016763572 -0.025184022 0.04376429 0.00755075 0.0012667254 -0.030653972 0.005860988
0.032149654 -0.0005508289 0.024964508 -0.04205528 0.0050149895 -0.011437926 -0.00852358 0.007488098
-0.027029933 -0.023624046 -0.02306344 0.0059911385 -0.0012651756 0.001566425 0.042429972 -0.022647023
-0.013911689 0.0042626113 0.04320382 0.011647403 -0.012345403 0.0020189248 -0.013404448 -0.039569072
-0.042666808 0.004468903 -0.011909559 -0.023593226 0.035359565 -0.0039947405 -0.0014005043 0.034170974
-0.038372636 -0.0131817795 0.03552739 0.037966322 -0.0071800984 0.0003758967 -0.009947643 0.0066257752
0.0234632 -0.012350265 -0.012586396 0.018808093 0.024971772 0.00023479387 0.03346863 0.017824054
00000000: f634 8ebc 28c7 86bb 2895 823c f467 323c
00000010: e6d4 b33c 3ed3 ee3c 60bd 7abb 7c32 0dbc
00000020: 5443 10bd b5e1 13bd 6100 86bc bc26 343c
00000030: 5c23 acbc 8e22 f93c 90f1 4cbb 00e7 4f3c
00000040: 3ea9 8d3c f425 15bc fd3e 0c3d e246 e13c
00000050: 1844 3f3c 1bd7 113d e1ad 1dbd ffe4 123d
00000060: 62cd 933c b0e5 9cbc 54ee ffbc d8f9 3e3c
00000070: 7f8b 263d 335c f2bc f02a 09bd a03c b4ba
00000080: b26e 9c3c 7b16 01bd 400b 58bb ab37 a9bc
00000090: 1b3e 0d3d 00e8 743b cebb 8c3c e777 05bd
000000a0: adb4 253d d8d5 0bbd aaea f43c b697 ea3c
000000b0: bb88 0bbd 8c8d 403c 76a0 ed3c b28f e43c
000000c0: e44a 633c 78e5 1a3c c029 00bb fed4 cf3c
000000d0: a427 23bc 638a 0b3d 1034 d8bc 2474 4f3c
000000e0: 58d3 ecbc b32a 0a3d a944 99bc f50f 34bd
000000f0: 7983 b6bc 3144 123d d768 91bc 702a 4b3c
00000100: cea8 d53c 2cb7 40bc 2002 3dbc b649 b83c
00000110: 808b 96bb 94a1 06bd 5462 29bd f644 873c
00000120: 8d38 20bd d477 debc 9d13 083d e392 24bd
00000130: 3038 3ebc d0b9 763b da20 a33c f48f 1abd
00000140: 6ed9 15bd d20b 8d3c 0ae1 bdbc d93d d9bc
00000150: da5d f53c 827f 903c d054 e9bc 97a2 d0bc
00000160: 732a 283d 4dcc 26bd 0020 0abc b817 c4bc
00000170: 3296 fa3c 64a7 13bc 9eb7 2bbd 40cc 453a
00000180: f6b7 0abd 0e9c cc3c 8273 ac3c 87a8 86bc
00000190: 18a2 3c3c 40da e2bb 1786 033d 8760 243d
000001a0: 7210 efbc 6222 f33c 439c 15bd 400b 433a
000001b0: 9ce7 653c 1a0b bcbc e2f6 fd3c 6bfe 09bd
000001c0: c8a5 31bd 7692 b43c cafe 873c c06b 153b
000001d0: 42ee ca3c 7eb8 07bd 70a0 6a3c 0e5d fe3c
000001e0: bef7 a4bc d061 a0bb 1068 f33b a377 2ebd
000001f0: e4f4 8fbc a177 203d e02b ce3b 0bef 89bc
00000200: 0016 383c 32b9 e93c 4146 a3bc 6e12 af3c
00000210: d4fe a5bc 0009 1abc c880 36bc bcae 59bc
00000220: 7070 b23b 4acc 70bc 61be 033d fc5e 3ebc
00000230: e24a be3c ba66 2bbd 8020 b63b c642 e0bc
00000240: 58ea a73b 08fb e8bc e6f7 dabc c0b8 8e3c
00000250: 7031 26bb e05e 02bd 3afb ac3c c06a 59bb
00000260: 8862 9dbb 408d 993a 2ba6 ddbc 18d1 4fbc
00000270: 916c 173d 8e5d 98bc 80c1 3a3c aca5 0cbd
00000280: b161 073d 51e4 173d 16b3 e03c df6b 293d
00000290: d075 033c 8184 09bd 601a d43b 75bc e3bc
000002a0: 8516 88bc e619 5fbc 9f79 163d c304 93bc
000002b0: 9bb0 253d e09e 3e3b 7840 033c 184e 2dbd
000002c0: e804 0c3c 9f9d 01bd 9853 16bd e056 32bc
000002d0: a051 33bb 6219 32bd e9dc 243d 3ede da3c
000002e0: 2e17 f0bc ef48 b9bc f14f cfbc 479b 18bd
000002f0: 8f14 1f3d a81a b03b 8126 033d c22d f43c
00000300: c02c cfbb c9e9 1bbd addb 04bd e0dd 35bc
00000310: a666 c93c b06d 013b 6ad9 2cbd 1239 ee3c
00000320: a1d2 bbbc c253 893c b94e cebc 2f42 333d
00000330: 486c f73b 4008 a63a 0a1e fbbc 880d c03b
00000340: 5baf 033d 8065 10ba 5e82 cc3c 2842 2cbd
00000350: c854 a43b 2466 3bbc 7ca6 0bbc b85e f53b
00000360: e16d ddbc 3787 c1bc 8aef bcbc 5051 c43b
00000370: 40d4 a5ba 8050 cd3a 0dcb 2d3d 4086 b9bc
00000380: daed 63bc 60ad 8b3b 7df6 303d c0d4 3e3c
00000390: 6044 4abc f04f 043b 549e 5bbc 2e13 22bd
000003a0: 64c3 2ebd e06f 923b 5020 43bc 9546 c1bc
000003b0: 31d5 103d 50e6 82bb 2091 b7ba ddf6 0b3d
000003c0: a02c 1dbd 64f8 57bc 2b85 113d 9382 1b3d
000003d0: 0847 ebbb 0014 c539 70fb 22bc 081d d93b
000003e0: e635 c03c c458 4abc 2c37 4ebc 6e13 9a3c
000003f0: 9a91 cc3c 0033 7639 6716 093d c003 923c

map_encoder.block.2.bias f4 [64]
0.022189911 -0.016044151 0.03731714 0.02244116 0.021680895 -0.0341475 -0.020700013 0.03610449
0.03169633 -0.042864863 0.037528317 0.024323862 -0.030651204 0.005404845 0.0034626052 -0.021472408
-0.032694377 -0.01145548 0.02373119 -0.02037661 -0.0121756345 0.018834163 0.03453291 -0.012766719
0.041316073 -0.008333903 0.04102036 0.022046763 0.027458701 0.041640412 -0.028804906 -0.0041089132
0.007415246 0.03447326 -0.021607893 0.006623853 0.0133204125 0.02419239 0.009378448 0.0033274293
0.022649612 -0.02815176 0.014295615 -0.036817078 -0.0033519007 0.031662095 -0.022260373 -0.0341388
0.00403744 -0.023311168 -0.020699002 -0.03608852 0.011040583 0.008543957 -0.01971352 -0.041071404
-0.0056620985 0.036815654 -0.043399103 0.036806945 0.00402984 0.03455608 0.038925726 0.02482031
00000000: 9ec7 b53c 066f 83bc dbd9 183d 86d6 b73c
00000010: 229c b13c 40de 0bbd 1393 a9bc 4de2 133d
00000020: 03d4 013d 1193 2fbd 4bb7 193d d642 c73c
00000030: 3c18 fbbc 201b b13b e0ec 623b e7e6 afbc
00000040: 8aea 05bd c4af 3bbc ea67 c23c d9ec a6bc
00000050: 507c 47bc 1a4a 9a3c 6172 0d3d 802b 51bc
00000060: 0b3b 293d ec8a 08bc f704 283d 6a9b b43c
00000070: 12f1 e03c 238f 2a3d 44f8 ebbc 10a4 86bb
00000080: 98fb f23b d533 0d3d 0903 b1bc e80c d93b
00000090: dc3d 5a3c 1e2f c63c 10a8 193c 0011 5a3b
000000a0: ae8b b93c 859e e6bc 2838 6a3c 81cd 16bd
000000b0: 90ab 5bbb 1db0 013d 635b b6bc 20d5 0bbd
000000c0: 804c 843b 10f7 bebc f490 a9bc 8ed1 13bd
000000d0: 90e3 343c f4fb 0b3c 3f7e a1bc 7d3a 28bd
000000e0: 2089 b9bb 03cc 163d 42c3 31bd e1c2 163d
000000f0: c00c 843b ad8a 0d3d 9570 1f3d f653 cb3c

map_encoder.block.4.weight f4 [32, 64, 3, 3]
-0.04059417 0.021206986 -0.0016152523 -0.00857297 0.0098971985 0.02098814 0.031119112 -0.0030616112
-0.028706118 -0.013461327 -0.023254465 0.03199025 -0.04109347 0.038522232 0.037055943 0.016542684
0.029511545 -0.010917153 -0.003950756 0.028815586 -0.016458835 -0.040150397 -0.033593696 -0.040526893
0.014532659 -0.0413462 -0.021445861 -0.0029792488 -0.008076761 -0.03359106 -0.03827795 -0.0063290186
0.010489073 -0.020846903 0.01951548 -0.026307315 -0.012432342 0.009757344 0.0064494573 -0.027717456
-0.02891015 0.030763287 -0.0364723 0.012580816 -0.013764795 0.038183663 -0.024849176 -0.009895071
0.009662047 0.035027567 -0.029118821 -0.014278239 0.0013500899 0.012887839 0.03418627 0.032804284
-0.009552151 0.029436309 0.032350276 -0.02272379 0.010208663 0.011440743 -0.030292183 -0.040315714
0.03833094 -0.0012177788 -0.041110225 -0.0063590445 -0.0012666844 -0.001998663 -0.013756096 -0.031982496
0.01969358 -0.026871046 0.023620058 -0.011183348 -0.019711941 -0.023657244 -0.03635949 0.008784939
0.030393478 0.024487529 0.009242725 0.0041208006 0.014192384 -0.013660809 -0.0010918491 -0.023900693
0.024613839 -0.01644302 0.025599543 -0.013232967 0.019991327 -0.02372039 0.009620175 0.0071483515
-0.028979605 -0.013616905 -0.017391687 0.018104222 0.0032129698 0.0020356886 0.035785783 0.014473204
0.029545832 -0.035842218 -0.012242299 0.014543369 0.007353306 0.013550486 -0.018554052 -0.004742507
0.014871467 -0.0014165603 0.024961468 0.036955643 0.033862177 0.033345897 -0.036539093 -0.03081131
0.029352803 -0.032971814 -0.0028186701 -0.01703996 0.02042526 -0.02948692 0.035818223 0.038759794
0.0055190027 -0.019456413 0.0006013699 -0.03455974 0.01197676 0.0039172955 0.025426593 -0.019843325
-0.026409741 0.021413375 -0.007647112 0.019199897 0.02727465 0.005992517 0.012505967 0.020660866
0.0039869845 -0.036836606 -0.03573233 0.014934879 0.01320209 0.02931695 -0.03560668 0.009500045
0.02474666 -0.0031667016 -0.012191951 0.015549224 0.02229068 0.021089498 -0.012983456 -0.0040656067
-0.0222783 -0.02882269 0.015322205 0.013305783 -0.007910624 -0.035020586 -0.027165797 0.024239171
-0.014475908 0.016793799 -0.009962205 0.027831767 -0.01629976 0.012556691 0.0048493557 0.040298697
-0.034199975 -0.039936274 -0.0058362223 -0.024982989 0.021600138 0.0049076118 0.0148448385 -0.021625733
0.008521337 -0.023944706 0.023354191 -0.022681957 -0.02219597 0.034651745 0.02103069 0.02935217
0.041112643 0.037180398 -0.036404245 -0.002706468 0.021870758 -0.016478991 0.025855828 -0.036848895
-0.03654712 -0.019165223 -0.012885397 0.03223591 -0.014976924 0.0020652115 0.018375367 -0.038113974
-0.0039347894 0.03445596 0.0049322806 0.0058713257 0.032884028 -0.011181161 0.0023011602 0.017655548
-0.010796001 0.036936883 -0.037626043 0.0046533644 0.03637446 -0.04117179 0.0021006763 0.015515346
-0.0031945556 -0.01323469 0.038288165 0.024737332 -0.018364027 0.002857495 -0.031135842 -0.0368963
-0.013758566 -0.011095956 0.028629664 0.019652784 -0.023768967 0.020922262 -0.024643749 -0.029498538
0.036131766 0.01778179 0.003707394 -0.01599523 -0.020452436 -0.030799847 -0.03667804 0.0010051578
-0.011762168 0.03411791 0.021664996 -0.006024819 0.035001416 -0.016083475 0.0019523948 -0.0016010404
00000000: 1346 26bd 46ba ad3c e0b6 d3ba a475 0cbc
00000010: dc27 223c 52ef ab3c 82ed fe3c 50a5 48bb
00000020: 1829 ebbc e68c 5cbc 2680 bebc 3508 033d
00000030: a051 28bd 7dc9 1d3d f9c7 173d 8684 873c
00000040: 32c2 f13c dcdd 32bc 5875 81bb aa0e ec3c
00000050: aed4 86bc be74 24bd 8b99 09bd 87ff 25bd
00000060: 641a 6e3c a25a 29bd 3baf afbc 803f 43bb
00000070: 6454 04bc c896 09bd 57c9 1cbd a863 cfbb
00000080: 5cda 2b3c 20c7 aabc eede 9f3c 7082 d7bc
00000090: 06b1 4bbc 44dd 1f3c f855 d33b b80f e3bc
000000a0: fbd4 ecbc 4a03 fc3c fa63 15bd c41f 4e3c
000000b0: bc85 61bc 7966 1c3d 8090 cbbc f01e 22bc
000000c0: 904d 1e3c 1179 0f3d 988a eebc 46ef 69bc
000000d0: 80f5 b03a 8427 533c e706 0c3d c95d 063d
000000e0: a080 1cbc 6a24 f13c b981 043d 3e27 babc
000000f0: 3c42 273c f471 3b3c 5027 f8bc 1722 25bd
00000100: e700 1d3d e09d 9fba 3263 28bd 885f d0bb
00000110: e006 a6ba 00fc 02bb 4061 61bc 1400 03bd
00000120: 6e54 a13c ab20 dcbc da7e c13c 5c3a 37bc
00000130: f07a a1bc d6cc c1bc b0ed 14bd b4ee 0f3c
00000140: befb f83c 129a c83c cc6e 173c c807 873b
00000150: 2c87 683c 96d1 5fbc 601c 8fba 63cb c3bc
00000160: f6a2 c93c 83b3 86bc 22b6 d13c 16cf 58bc
00000170: dac4 a33c 4351 c2bc f09d 1d3c b83c ea3b
00000180: a366 edbc 7019 5fbc 0379 8ebc 4e4f 943c
00000190: b090 523b 3069 053b 1d94 123d 0421 6d3c
000001a0: 1a0a f23c 4acf 12bd ec93 48bc 5047 6e3c
000001b0: 00f4 f03b dc02 5e3c abfe 97bc 0867 9bbb
000001c0: 74a7 733c e0ab b9ba fe7b cc3c cd5e 173d
000001d0: 11b3 0a3d b595 083d 04aa 15bd 0068 fcbc
000001e0: 4a75 f03c 740d 07bd 70b9 38bb 6397 8bbc
000001f0: e052 a73c 8e8e f1bc 21b6 123d 97c2 1e3d
00000200: c0d8 b43b 0e63 9fbc 40a5 1d3a 848e 0dbd
00000210: 2c3a 443c a85c 803b 6e4b d03c 788e a2bc
00000220: 3e59 d8bc 1a6b af3c a094 fabb 1a49 9d3c
00000230: 166f df3c e05c c43b d4e5 4c3c fa40 a93c
00000240: 40a5 823b fbe1 16bd 105c 12bd 6cb1 743c
00000250: 944d 583c 1a2a f03c 4fd8 11bd 14a6 1b3c
00000260: 82b9 ca3c 7088 4fbb c0c0 47bc 2cc2 7e3c
00000270: f29a b63c e2c3 ac3c 90b8 54bc c838 85bb
00000280: fb80 b6bc 901d ecbc fc09 7b3c 8000 5a3c
00000290: 909b 01bc bf71 0fbd ce8a debc 3a91 c63c
000002a0: 5c2c 6dbc 2693 893c 8438 23bc 72ff e33c
000002b0: 1387 85bc 94ba 4d3c 58e7 9e3b 3f10 253d
000002c0: 4615 0cbd 3894 23bd c83d bfbb 20a9 ccbc
000002d0: c6f2 b03c 08d0 a03b c437 733c 7328 b1bc
000002e0: 149d 0b3c b027 c4bc 4a51 bf3c 83cf b9bc
000002f0: 53d4 b5bc fdee 0d3d 8e48 ac3c f673 f03c
00000300: bb65 283d 794a 183d 9e1c 15bd 005f 31bb
00000310: 4e2a b33c f3fe 86bc 9acf d33c deee 16bd
00000320: 6fb2 15bd 6300 9dbc 461d 53bc cd09 043d
00000330: c661 75bc 8058 073b f087 963c 661d 1cbd
00000340: 68ef 80bb b121 0d3d f89e a13b 4064 c03b
00000350: 67b1 063d 3031 37bc 10cf 163b 5ea2 903c
00000360: b6e1 30bc 214b 173d c41d 1abd 407b 983b
00000370: 63fd 143d c0a3 28bd 80ab 093b 1434 7e3c
00000380: c05b 51bb 50d6 58bc 0dd4 1c3d f2a5 ca3c
00000390: 2870 96bc d044 3b3b 9810 ffbc 9320 17bd
000003a0: 9c6b 61bc d0cb 35bc c288 ea3c e0fe a03c
000003b0: 23b7 c2bc 2a65 ab3c b0e1 c9bc eba6 f1bc
000003c0: e7fe 133d 1eab 913c c0f7 723b 6e08 83bc
000003d0: de8b a7bc f64f fcbc b63b 16bd 80bf 833a
000003e0: 1cb6 40bc 39bf 0b3d ca7a b13c d86b c5bb
000003f0: a55d 0f3d 7ec1 83bc 80e7 ff3a 00da d1ba

map_encoder.block.4.bias f4 [32]
0.03286719 0.018536583 0.029536743 -0.03525676 -0.034458023 0.037497427 0.01199232 -0.0356989
0.03985938 -0.014682835 -0.008815587 -0.01724792 -0.023198228 -0.010382254 -0.002061475 0.04021788
-0.016980752 0.008521017 0.0029493868 0.0128492415 0.027128804 -0.020039087 0.016199093 -0.03730127
0.014300916 0.00683612 0.014610842 -0.014274623 -0.007429242 0.006987229 0.015542183 -0.003883183
00000000: bf9f 063d 08da 973c 0af7 f13c 6469 10bd
00000010: db23 0dbd e796 193d 707b 443c 0339 12bd
00000020: 9743 233d 4690 70bc 406f 10bc 834b 8dbc
00000030: 360a bebc 541a 2abc d019 07bb 81bb 243d
00000040: 381b 8bbc bc9b 0b3c 804a 413b a085 523c
00000050: 3a3d de3c 0329 a4bc f6b3 843c 37c9 18bd
00000060: 644e 6a3c 8801 e03b 5062 6f3c 1ce0 69bc
00000070: 0071 f3bb 20f5 e43b a4a4 7e3c 007d 7ebb

goal_map_encoder.block.0.weight f4 [32, 1, 8, 8]
-0.06807998 -0.01662314 0.030647099 0.09061204 0.09414677 0.0114085525 0.018391177 0.0727586
0.052750573 -0.037376687 0.033836007 0.12438843 -0.037698478 0.069919586 -0.026950225 0.00031523407
0.069137245 -0.018526033 -0.06668131 0.04998049 -0.06171608 0.07938951 -0.055428684 -0.06818056
-0.08353509 0.021444634 0.11828418 0.10048415 -0.044903934 -0.032385096 -0.077103436 0.022385225
0.10355969 0.10355118 -0.04583767 0.031197011 -0.118176 0.08512893 -0.053407803 -0.02289635
-0.061045483 -0.123418316 -0.09103158 0.11832143 0.029762283 0.06303254 -0.04444605 0.007511258
-0.12433122 -0.08425906 0.052951545 -0.039934084 0.057545826 0.10108526 0.038829878 -0.10663237
-0.09808408 -0.090108454 0.039932877 -0.028271481 0.10411975 0.072034925 0.115204945 0.07414758
0.10654041 -0.04115513 -0.03351809 0.024359867 -0.038964108 0.09206776 0.08389473 0.043079033
-0.013435185 -0.02121991 0.085971415 -0.06935565 -0.026877075 -0.06912759 -0.028428614 0.11593525
0.0964219 -0.08571851 0.08362129 0.11108017 0.07464649 0.12310937 0.096165895 0.08591525
0.0016141981 0.12242715 0.092122465 -0.062149823 0.053129166 0.0639818 -0.035912693 0.059738725
0.092886195 -0.09111121 0.043657094 -0.089916065 0.094355196 0.10913271 -0.08775765 0.10342306
-0.09199643 -0.02834171 0.04135683 0.11779164 -0.061939836 0.12043314 -0.07686415 -0.036284894
0.0217866 -0.12207638 -0.015806004 -0.010250345 -0.024652377 0.024378866 0.046033204 -0.00079229474
-0.03154911 0.06647019 -0.09447765 0.049865723 -0.03125608 0.11088145 -0.11687136 -0.07460295
0.11636396 -0.02351804 0.0710403 0.035201117 -0.050231606 -0.10903998 0.06866521 0.09783366
-0.071495146 0.00073093176 -0.09027785 0.087389424 0.066627935 0.058154717 -0.015069649 0.051293448
0.0712374 -0.0542814 -0.0065830946 -0.0023055673 0.028777689 -0.06232381 0.10364281 0.06660308
0.111813635 -0.019817904 0.008620217 -0.076557904 0.03715411 -0.034556866 0.049390152 0.031147227
-0.059120834 -0.04471442 -0.12324907 0.11995688 0.08247484 -0.010184675 0.09526153 0.10088675
-0.07873583 -0.05550939 0.104903504 -0.12272066 -0.054963276 -0.010637283 -0.06160973 0.08461979
0.036970615 0.09085013 0.0025208741 0.117912635 -0.045338973 0.10451846 0.022274762 -0.0020740628
0.014282718 0.11841017 0.06415881 0.039824545 0.00032934546 -0.010710493 -0.043069407 0.04190655
0.036219552 -0.12060256 0.06270912 -0.12230441 -0.09321223 0.08851051 0.03316118 -0.085002065
-0.11827114 0.07737042 0.07326731 -0.028578639 -0.08243844 0.03350623 0.075680986 -0.037594765
0.055729926 -0.0060231984 0.09566085 -0.0029216707 -0.012196988 -0.0117727965 0.05190657 0.06165041
-0.04170488 0.11194734 -0.033499643 0.0015993118 0.03048563 0.010187373 0.10642886 0.086912364
0.11085607 -0.09549689 0.07183996 -0.075238064 0.017625093 0.031339005 0.018456548 -0.0447412
-0.013692573 -0.07496059 -0.11284503 -0.049230456 0.044122875 0.04180433 0.041325197 -0.094773725
-0.04872872 -0.1049449 0.07738453 -0.053402275 -0.052321628 -0.007029712 -0.029175296 0.102592826
-0.065584615 -0.110560626 0.08580129 -0.058277816 0.10200696 0.1165342 0.06735957 0.0985852
00000000: 846d 8bbd 402d 88bc a00f fb3c ce92 b93d
00000010: 06d0 c03d f0ea 3a3c 18a9 963c 7602 953d
00000020: fc10 583d 4c18 19bd a097 0a3d 5cbf fe3d
00000030: b869 1abd 0032 8f3d b8c6 dcbc 0046 a539
00000040: d497 8d3d e8c3 97bc 3690 88bd 58b8 4c3d
00000050: 00ca 7cbd f896 a23d 3009 63bd 40a2 8bbd
00000060: 7214 abbd a8ac af3c fa3e f23d a2ca cd3d
00000070: 30ed 37bd 3ca6 04bd 68e8 9dbd 3861 b73c
00000080: 1a17 d43d a412 d43d 48c0 3bbd e090 ff3c
00000090: 4206 f2bd 1458 ae3d 24c2 5abd 2091 bbbc
000000a0: d40a 7abd bec2 fcbd c46e babd 8252 f23d
000000b0: 08d0 f33c 3417 813d 100d 36bd 0021 f63b
000000c0: 5ea1 febd 0490 acbd b8e3 583d ec91 23bd
000000d0: 2cb5 6b3d ca05 cf3d 140c 1f3d 1262 dabd
000000e0: 4ee0 c8bd c88a b8bd a890 233d 9899 e7bc
000000f0: bc3c d53d 0c87 933d 92f0 eb3d b0da 973d
00000100: dc31 da3d 4892 28bd 444a 09bd 588e c73c
00000110: d498 1fbd 068e bc3d 00d1 ab3d a473 303d
00000120: 401f 5cbc 60d5 adbc c811 b03d 560a 8ebd
00000130: 502d dcbc c492 8dbd 20e3 e8bc 766f ed3d
00000140: d878 c53d 308d afbd a441 ab3d 007e e33d
00000150: 42e0 983d c420 fc3d a0f2 c43d 56f4 af3d
00000160: 8093 d33a 16bb fa3d b4aa bc3d d090 7ebd
00000170: f89d 593d e408 833d 3019 13bd 98b0 743d
00000180: 1e3b be3d 8498 babd c8d1 323d ea25 b8bd
00000190: 4c3d c13d f880 df3d 48ba b3bd 78cf d33d
000001a0: a068 bcbd e02c e8bc c865 293d be3c f13d
000001b0: a0b4 7dbd a6a5 f63d f46a 9dbd 789f 14bd
000001c0: d079 b23c 2e03 fabd 987b 81bc 10f1 27bc
000001d0: c8f3 c9bc 30b6 c73c 508d 3c3d 00b2 4fba
000001e0: a439 01bd 8621 883d 807d c1bd 0040 4c3d
000001f0: 6006 00bd d015 e33d 405a efbd 6ec9 98bd
00000200: 3a50 ee3d e8a8 c0bc 947d 913d 0c2f 103d
00000210: a8bf 4dbd 5a50 dfbd 58a0 8c3d 045d c83d
00000220: 0c6c 92bd 009c 3f3a 98e3 b8bd 3af9 b23d
00000230: 3a74 883d a433 6e3d b0e6 76bc 1419 523d
00000240: eae4 913d 2c56 5ebd 00b7 d7bb 0019 17bb
00000250: 30bf eb3c 4047 7fbd ae42 d43d 3267 883d
00000260: 8cfe e43d 2859 a2bc d03b 0d3c 64ca 9cbd
00000270: e82e 183d 808b 0dbd 544d 4a3d 7828 ff3c
00000280: b028 72bd 7826 37bd 026a fcbd f4ab f53d
00000290: 92e8 a83d a0dd 26bc 7a18 c33d b69d ce3d
000002a0: 4040 a1bd d05d 63bd a6d7 d63d f854 fbbd
000002b0: 2c21 61bd 0048 2ebc 7c5a 7cbd 244d ad3d
000002c0: 806e 173d a20f ba3d 4035 253b 2e7c f13d
000002d0: 5cb5 39bd c60d d63d 9079 b63c 00ed 07bb
000002e0: 1002 6a3c 0881 f23d b265 833d 101f 233d
000002f0: 00ac ac39 107b 2fbc 8c69 30bd 34a6 2b3d
00000300: f45a 143d 7afe f6bd a46d 803d bc7a fabd
00000310: 0ee6 bebd 0045 b53d 04d4 073d 9015 aebd
00000320: 2438 f2bd 6274 9e3d 2c0d 963d c01d eabc
00000330: 7cd5 a8bd d43d 093d a2fe 9a3d f8fc 19bd
00000340: 1045 643d 405e c5bb d6e9 c33d 8079 3fbb
00000350: e0d5 47bc b0e2 40bc fc9b 543d 2485 7c3d
00000360: bcd2 2abd a644 e53d ec36 09bd 00a0 d13a
00000370: 00bd f93c f0e8 263c 60f7 d93d 1cff b13d
00000380: 8208 e33d e093 c3bd d420 933d 6a16 9abd
00000390: 8062 903c 545d 003d 3032 973c 8c42 37bd
000003a0: d056 60bc f084 99bd 4c1b e7bd e0a5 49bd
000003b0: 30ba 343d 043b 2b3d 9c44 293d ba18 c2bd
000003c0: c497 47bd 5aed d6bd c87b 9e3d 58bc 5abd
000003d0: 344f 56bd 8059 e6bb 0801 efbc 301c d23d
000003e0: 3a51 86bd 9c6d e2bd 96b8 af3d b8b4 6ebd
000003f0: 06e9 d03d 7ca9 ee3d d0f3 893d 0ae7 c93d

goal_map_encoder.block.0.bias f4 [32]
-0.044503167 0.124490365 0.122224316 -0.0053514093 -0.11520733 0.05242899 -0.022817016 -0.052905664
0.09640542 0.11814439 -0.017221063 0.07202211 -0.09131034 -0.06674634 0.019536763 0.041509435
0.013064235 0.08308233 -0.037375167 -0.041623905 -0.00078867376 -0.044961393 -0.040039316 -0.06615828
-0.012756869 0.010824427 -0.024822518 -0.0065084696 0.0019267797 0.025275618 -0.01982598 0.05250612
00000000: f448 36bd cef4 fe3d be50 fa3d e05a afbb
00000010: d2f1 ebbd c8bf 563d c0ea babc 9cb3 58bd
00000020: 3470 c53d b0f5 f13d 3013 8dbc 5480 933d
00000030: ea00 bbbd 4eb2 88bd 900b a03c cc05 2a3d
00000040: 600b 563c 1227 aa3d b416 19bd d47d 2abd
00000050: 00bf 4eba 7029 38bd 4400 24bd fe7d 87bd
00000060: 3002 51bc f058 313c 9858 cbbc 0045 d5bb
00000070: 008c fc3a d00e cf3c 186a a2bc a810 573d

goal_map_encoder.block.2.weight f4 [64, 32, 4, 4]
0.036262196 0.035370428 0.00040240213 -0.04135251 -0.020679161 0.034741808 0.025495034 -0.012101099
0.014907308 -0.043037932 -0.027456231 0.030208979 -0.03274177 0.037089888 -0.026392588 0.038331028
-0.035120167 0.0013432428 -0.009282257 0.024072457 0.043308903 -0.0096144825 0.03217205 0.040960234
0.026277859 0.04209738 0.00069765747 0.017638762 -0.025753878 -0.040544294 0.0044413134 -0.039056625
-1.4889985e-05 -0.019731574 -0.0120029785 -0.04146635 0.04398494 -0.029071137 -0.022265537 -0.030057658
0.0020541996 -0.007944461 0.008977219 0.007782627 -0.015511895 0.014427908 -0.0066338293 -0.00029468164
-0.011772584 -0.00154664 0.0007730052 0.03605653 -0.009614628 0.028135758 -0.020141574 0.0324491
0.005866714 0.019127902 0.038147826 -0.031993292 0.034542885 0.028423313 -0.018618634 0.041506376
0.023836743 -0.015805189 0.042494822 0.02751718 -0.021543304 0.010178853 0.0002405271 -0.042651363
0.0414238 -0.026916705 0.025891554 0.008096658 -0.013150001 0.026628483 -0.04376623 0.008806907
0.021246884 -0.03386616 -0.015459733 -0.03728414 0.023249108 0.042275082 0.019569937 0.03362224
-0.01904722 -0.025626443 0.010839876 0.036620107 -0.024509456 0.04379755 0.01679615 0.016076855
-0.008910086 -0.032718208 -0.042061523 -0.037839677 0.031106468 0.003408432 -0.018742599 -0.028033929
-0.04157219 0.016072161 -0.034571175 -0.0057437234 -0.00805768 0.008038856 -0.035029247 -0.023783024
0.024320591 0.0041308776 -0.0039843507 -0.019490514 0.034122463 0.037937377 -0.021120338 -0.014901776
-0.008737184 -0.004206486 -0.035464127 0.010160219 0.0130202845 -0.029511634 -0.042676866 -0.024834557
-0.021113137 -0.04175333 -0.03952097 0.0044839755 0.0015403628 0.014743891 0.0045302697 -0.031107266
-0.01934378 -0.0051050223 -0.032701623 -0.031667534 0.020328615 -0.042606138 -0.04188678 -0.002885811
-0.003088627 0.027393583 -0.024693105 0.01939075 0.032931145 0.025442932 0.041865963 0.039801244
-0.024920266 -0.036193963 0.031568144 0.041048523 0.017717876 -0.018595885 -0.035121337 -0.004475616
0.019454207 -0.042222977 -0.03376136 -0.010142911 -0.021273864 -0.04376275 -0.005167339 -0.040366355
-0.0061427876 0.008619927 -0.03752496 -0.009355683 -0.02813053 0.03646044 0.042345155 0.014385924
-0.030376293 0.026405219 0.042082865 0.01885293 0.014639813 -0.020044893 -0.014209863 0.014871851
-0.011159137 -0.03711366 -0.018289467 -0.009903986 0.01220198 0.027691882 -0.043729216 0.028294306
0.022024188 -0.0021848716 0.021833207 -0.018436048 -0.041996278 -0.023256177 -0.0013810508 -0.019281808
-0.028162071 0.031584185 -0.031598277 -0.023668163 0.0357416 0.030469026 -0.021892669 0.007453479
0.01942202 0.00969163 0.040652197 -0.0071652383 -0.028550439 -0.011004478 -0.012308881 -0.022346517
-0.04371354 -0.042292755 -0.01922674 0.033864047 0.039587658 0.0066225715 0.002392523 0.01776046
-0.020271348 0.0071161725 0.02147397 0.031719852 -0.023624547 0.014496207 -0.009612612 0.01729045
0.03672951 -0.043959573 0.022314679 -0.025221823 0.040307704 -0.010551825 0.027040701 0.003023982
0.039316077 -0.001370959 -0.0023352206 -0.0137715675 0.016301975 0.009715229 0.022472318 -0.025718607
0.04204276 0.03606313 0.007102728 -0.005475249 -0.013138806 -0.0019480065 0.01252922 0.00650046
00000000: ab87 143d 95e0 103d 80f9 d239 4061 29bd
00000010: 5867 a9bc 6d4d 0e3d f6da d03c b043 46bc
00000020: c83d 743c 8b48 30bd e4eb e0bc d278 f73c
00000030: 3c1c 06bd 91eb 173d 4535 d8bc ff00 1d3d
00000040: 2ada 0fbd c00f b03a 9c14 18bc 9a33 c53c
00000050: ad64 313d 1086 1dbc d7c6 033d ebc5 273d
00000060: aa44 d73c 4d6e 2c3d 00e3 363a 2a7f 903c
00000070: ccf9 d2bc c611 26bd 7088 913b d7f9 1fbd
00000080: 00d0 79b7 1ca4 a1bc 24a8 44bc 9fd8 29bd
00000090: 8d29 343d 9826 eebc 3766 b6bc 7a3b f6bc
000000a0: c09f 063b 7c29 02bc 3015 133c 6805 ff3b
000000b0: 9a25 7ebc 0863 6c3c 9860 d9bb 807f 9ab9
000000c0: cce1 40bc a0b8 caba 80a3 4a3a 03b0 133d
000000d0: ac86 1dbc f67c e63c f1ff a4bc 59e9 043d
000000e0: 903d c03b 1eb2 9c3c e540 1c3d 660b 03bd
000000f0: d77c 0d3d 02d8 e83c 1b86 98bc 9702 2a3d
00000100: 4645 c33c e279 81bc 0d0f 2e3d b66b e13c
00000110: 957b b0bc 34c5 263c 0036 7c39 32b3 2ebd
00000120: 01ac 293d 6c80 dcbc 861a d43c d8a7 043c
00000130: 1a73 57bc fa23 da3c 3844 33bd d84a 103c
00000140: f20d ae3c 3eb7 0abd d24a 7dbc 41b7 18bd
00000150: ea74 be3c a328 2d3d 2251 a03c 79b7 093d
00000160: ea08 9cbc 8cee d1bc bc99 313c f7fe 153d
00000170: 0ec8 c8bc 0f65 333d 1498 893c 9cb3 833c
00000180: 9cfb 11bc 8703 06bd b448 2cbd c7fd 1abd
00000190: fed2 fe3c 0060 5f3b 148a 99bc 69a7 e5bc
000001a0: 9a47 2abd c4a9 833c 819a 0dbd d835 bcbb
000001b0: 5c04 04bc 68b5 033c d47a 0fbd 9ed4 c2bc
000001c0: fa3b c73c 505c 873b 288f 82bb 92aa 9fbc
000001d0: ffc3 0b3d 3964 1b3d 8f04 adbc 9426 74bc
000001e0: 6826 0fbc 90d6 89bb d542 11bd 0c77 263c
000001f0: 0853 553c 62c2 f1bc f0cd 2ebd d771 cbbc
00000200: 75f5 acbc 8a05 2bbd bee0 21bd 50ee 923b
00000210: 00e6 c93a 5c90 713c a872 943b aad4 febc
00000220: d976 9ebc 0848 a7bb 23f2 05bd d1b5 01bd
00000230: 3288 a63c c683 2ebd 7991 2bbd e01f 3dbb
00000240: 906a 4abb 8268 e03c 3249 cabc 5ad9 9e3c
00000250: cfe2 063d b26d d03c a57b 2b3d a106 233d
00000260: 9625 ccbc 1f40 14bd 994d 013d 7f22 283d
00000270: 1425 913c 6656 98bc 64db 0fbd 30a8 92bb
00000280: 6e5e 9f3c 00f2 2cbd 5a49 0abd 742e 26bc
00000290: 8746 aebc 9240 33bd c852 a9bb 3157 25bd
000002a0: 7049 c9bb 983a 0d3c c6b3 19bd 9448 19bc
000002b0: ff71 e6bc 8b57 153d 1d72 2d3d f0b2 6b3c
000002c0: b4d7 f8bc c24f d83c 155f 2c3d 7671 9a3c
000002d0: d4db 6f3c 3035 a4bc 7cd0 68bc 10a9 733c
000002e0: d0d4 36bc 7e04 18bd cbd3 95bc 5444 22bc
000002f0: d0ea 473c 16da e23c 681d 33bd 76c9 e73c
00000300: 126c b43c 1030 0fbb 8edb b23c 3207 97bc
00000310: 4a04 2cbd bd83 bebc 6004 b5ba e2f4 9dbc
00000320: 25b4 e6bc 6b5e 013d 326d 01bd bce3 c1bc
00000330: c965 123d 2e9a f93c 4158 b3bc 503c f43b
00000340: ee1a 9f3c a4c9 1e3c eb82 263d 60ca eabb
00000350: 9ce2 e9bc 204c 34bc 30ab 49bc 0b10 b7bc
00000360: f80c 33bd 2b3b 2dbd 6581 9dbc 07b5 0a3d
00000370: ab26 223d 2802 d93b e0cb 1c3b 627e 913c
00000380: 1910 a6bc c82e e93b 2eea af3c adec 013d
00000390: 4488 c1bc 8081 6d3c 387e 1dbc b4a4 8d3c
000003a0: af71 163d f40e 34bd 46cd b63c ff9d cebc
000003b0: b119 253d 90e1 2cbc 7684 dd3c 002e 463b
000003c0: e509 213d c0b1 b3ba 800a 19bb 24a2 61bc
000003d0: b88b 853c a02c 1f3c de17 b83c d4af d2bc
000003e0: 0735 2c3d efb6 133d 00be e83b b869 b3bb
000003f0: 2644 57bc 4054 ffba 5c47 4d3c d001 d53b

goal_map_encoder.block.2.bias f4 [64]
0.014736582 0.019549046 0.010668114 0.024484683 0.008453105 0.008810036 -0.04116573 0.0280266
0.0023933314 -0.013022091 -0.012615699 0.007211346 -0.03178194 -0.021705749 0.02385113 0.019133944
0.029566627 0.0017665289 0.0095127635 -0.00041065738 -0.006981995 0.022752706 -0.02311731 0.019446041
0.041217428 0.025659483 -0.016736213 0.013743307 0.041942786 0.03760769 0.016298056 0.042710874
0.026991043 0.0049063526 -0.017145965 0.011890531 -0.018737072 0.043495145 0.007653516 0.018770892
0.03231335 -0.022803167 0.040755954 -0.0044872016 0.023245368 0.017965712 -0.02583884 0.035534006
-0.017926982 -0.04271931 0.029387344 0.03455619 0.03539266 0.008094646 -0.015055075 -0.0048484094
0.0197022 -0.00773393 -0.015249683 0.033415165 -0.03547529 -0.031875364 0.030843224 9.926781e-05
00000000: b471 713c 5225 a03c 50c9 2e3c 1a94 c83c
00000010: e47e 0a3c f857 103c 669d 28bd 0a98 e53c
00000020: 70d9 1c3b 9c5a 55bc 14b2 4ebc 284d ec3b
00000030: c82d 02bd 41d0 b1bc 7263 c33c cabe 9c3c
00000040: b635 f23c e08a e73a 6cdb 1b3c 804d d7b9
00000050: 38c9 e4bb e263 ba3c 8360 bdbc 4e4d 9f3c
00000060: 9bd3 283d d633 d23c 621a 89bc 9c2b 613c
00000070: 33cc 2b3d 850a 1a3d 8083 853c 99f1 2e3d
00000080: 521c dd3c 78c5 a03b b275 8cbc 80d0 423c
00000090: 7d7e 99bc f727 323d 58ca fa3b 6ac5 993c
000000a0: 015b 043d b5cd babc b7ef 263d 6009 93bb
000000b0: 126d be3c d42c 933c faab d3bc 1b8c 113d
000000c0: 9bdb 92bc 71fa 2ebd babd f03c cb8a 0d3d
000000d0: e5f7 103d 689f 043c 90a9 76bc 68df 9ebb
000000e0: 8266 a13c e86c fdbb ced9 79bc 57de 083d
000000f0: 8a4e 11bd be8f 02bd eeaa fc3c 002e d038

goal_map_encoder.block.4.weight f4 [32, 64, 3, 3]
-0.014745569 0.022656951 0.021721538 0.02939913 0.03684466 -0.031395387 0.037613038 0.034864906
-0.010517031 0.026961062 0.007839691 0.011053275 -0.020568755 -0.038429122 0.017404694 -0.012291074
-0.03755311 0.018585801 -0.01854606 0.016539361 0.030306328 -0.011559203 -0.005620688 -0.03310488
-0.027147165 0.009434942 -0.002345737 -0.039465427 0.003061127 0.03939138 0.028987791 -0.021757137
0.017848313 -0.02712988 -0.025898721 0.03229094 0.001868099 -0.022437077 0.01721907 -0.022469547
0.027128186 0.030865002 0.0028417222 0.030822214 -0.040210854 -0.01060326 -0.027095791 -0.030446505
0.0281442 -0.0051797777 0.0052906387 -0.038051527 0.0047386177 -0.033976384 0.032158364 -0.009469133
-0.015145099 -0.04089692 0.030943688 0.037169326 -0.030302277 -0.0009674728 -6.5907836e-05 -0.035510473
0.011274103 -0.031393714 -0.020934448 0.04058439 -0.040492352 -0.012087261 -0.0057853796 0.030755002
0.016626637 -0.004393261 0.0076910406 -0.022325054 -0.017389461 0.011181209 -0.03346341 0.004024323
0.005137522 -0.0065386333 -0.040318213 0.014340743 -0.0107448995 -0.03975396 0.017223459 -0.0013962127
0.018779144 0.0069130957 0.020205077 0.040468138 -0.035597008 -0.014233571 -0.010304447 -0.030171832
0.035327595 0.0056264997 -0.04093487 0.026179586 -0.02733407 -0.026040744 -0.016358709 0.007057857
-0.031555112 -0.04037539 -0.004600212 -0.03791375 0.013473783 -0.026445102 0.016377334 0.03980318
-0.0030819438 0.040147234 0.022731919 -0.011819672 0.01066548 -0.020559877 0.011913668 0.017848745
-0.016336277 0.034652334 0.031698357 -0.013534894 0.0306882 0.039612267 0.015553888 -0.03986607
0.00016231835 -0.00920948 0.004742611 -0.003211517 0.021389786 -0.0030439235 0.03237873 -0.030356621
-0.013314625 -0.038833514 0.03699329 0.02086543 0.036591146 -0.031921923 0.003213387 0.033577207
0.020786244 -0.029149985 -0.015280992 0.03973232 0.032430027 0.03663144 -0.023713192 0.01648822
-0.033384122 -0.011816144 0.030379858 -0.021040922 -0.018454414 -0.00801073 -0.004452914 0.036992405
-0.039548278 0.03393129 -0.013224542 -0.008747254 -0.008994669 0.010065764 -0.03328159 0.035179656
0.01097022 0.025091667 0.040390108 0.033072833 0.011837196 -0.010658573 0.035607997 0.013355043
-0.023514118 0.034711976 -0.03817364 -0.0040947944 0.010774579 0.0038076937 0.0380787 0.005247887
-0.008427411 0.017363548 0.035176124 -0.0010879822 0.016824722 -0.00045992061 -0.018430382 0.02824444
-0.01892443 0.017605048 0.0073164217 -0.018837875 0.041358273 0.03925318 0.032468583 0.02563304
0.014509615 -0.033274807 0.02684233 0.039731953 0.0318255 -0.027065625 0.0045814626 0.020928163
0.0026056804 0.01945439 -0.03419177 0.006928783 0.00014193356 0.023917813 0.031118426 0.012143228
0.0010186918 0.027849827 0.019220632 -0.032463714 0.013057742 0.034373175 -0.038014784 -0.025385424
-0.034799777 -0.029921468 -0.03444904 -0.021975622 0.0004012473 -0.028040212 0.0073363073 -0.0086963475
0.030624364 0.01933764 0.014052212 -0.011184027 0.040142644 0.028401744 0.03821109 0.037813786
-0.020363465 -0.036747243 0.017170012 0.03316122 0.02171949 0.0022841059 0.00095394254 0.0005206503
0.021334518 0.02786674 -0.027827233 0.014120117 0.037913572 0.0075636096 0.0055304915 0.03704236
00000000: 6697 71bc 129b b93c 5ef1 b13c 72d6 f03c
00000010: 6dea 163d 7398 00bd 2110 1a3d 81ce 0e3d
00000020: a04f 2cbc 72dd dc3c 0c72 003c cc18 353c
00000030: ce7f a8bc db67 1dbd 4a94 8e3c 8060 49bc
00000040: 4ad1 19bd 4041 983c e8ed 97bc 8e7d 873c
00000050: fa44 f83c d062 3dbc c02d b8bb fc98 07bd
00000060: bb63 debc 0495 1a3c f0ba 19bb 80a6 21bd
00000070: 309d 483b db58 213d ce77 ed3c 063c b2bc
00000080: a036 923c 7b3f debc 8e29 d4bc 8143 043d
00000090: 00db f43a f6cd b7bc 020f 8d3c 0e12 b8bc
000000a0: ee3b de3c 9ad8 fc3c 303c 3a3b de7e fc3c
000000b0: 23b4 24bd 4cb9 2dbc fef7 ddbc f36a f9bc
000000c0: aa8e e63c 20bb a9bb 185d ad3b ebdb 1bbd
000000d0: 6846 9b3b d22a 0bbd 7db8 033d 6c24 1bbc
000000e0: 2623 78bc 8783 27bd 9e7d fd3c dd3e 183d
000000f0: 7b3c f8bc 009e 7dba 0038 8ab8 6e73 11bd
00000100: 04b7 383c b296 00bd b87e abbc d13b 263d
00000110: 4fdb 25bd a609 46bc 4893 bdbb eaf1 fb3c
00000120: 9634 883c 58f5 8fbb 2005 fc3b 08e3 b6bc
00000130: 5874 8ebc 6431 373c ee10 09bd 78de 833b
00000140: a858 a83b 0842 d6bb b624 25bd 70f5 6a3c
00000150: 600b 30bc 0cd5 22bd 3618 8d3c 2001 b7ba
00000160: b8d6 993c 4087 e23b 1e85 a53c ebc1 253d
00000170: 2bce 11bd ec33 69bc fcd3 28bc eb2a f7bc
00000180: abb3 103d 805e b83b 52ab 27bd 9276 d63c
00000190: b3eb dfbc 6653 d5bc b302 86bc 9845 e73b
000001a0: ef3f 01bd aa60 25bd 60bd 96bb 734b 1bbd
000001b0: 24c1 5c3c 66a3 d8bc c229 863c a908 233d
000001c0: 70fa 49bb 6d71 243d 4a38 ba3c 4ca7 41bc
000001d0: 44be 2e3c 306d a8bc 8c31 433c 8837 923c
000001e0: a8d3 85bc 9bef 0d3d 23d6 013d 76c1 5dbc
000001f0: d265 fb3c 7940 223d bcd5 7e3c 9b4a 23bd
00000200: 0034 2a39 5ce3 16bc e867 9b3b 5078 52bb
00000210: a239 af3c 907c 47bb 8f9f 043d 73ae f8bc
00000220: 9625 5abc e40f 1fbd 4786 173d faed aa3c
00000230: 99e0 153d 90c0 02bd b097 523b 4188 093d
00000240: ea47 aa3c f3cb eebc 205d 7abc 5bbe 223d
00000250: 59d5 043d d90a 163d 2b42 c2bc 4e12 873c
00000260: cabd 08bd 8098 41bc 2edf f83c 035e acbc
00000270: b62d 97bc 703f 03bc c0e9 91bb 5985 173d
00000280: 60fd 21bd 89fb 0a3d c0ab 58bc a450 0fbc
00000290: 605e 13bc e0ea 243c 4752 08bd 8b18 103d
000002a0: 70bc 333c 0a8d cd3c 1970 253d 6177 073d
000002b0: ccf0 413c 4ca1 2ebc b1d9 113d 1ccf 5a3c
000002c0: aea0 c0bc 252e 0e3d f65b 1cbd a02d 86bb
000002d0: dc87 303c 808a 793b 69f8 1b3d 78f6 ab3b
000002e0: 2013 0abc 003e 8e3c d714 103d a09a 8eba
000002f0: 00d4 893c 8021 f1b9 50fb 96bc e260 e73c
00000300: 6807 9bbc 7638 903c 98be ef3b e351 9abc
00000310: 4b67 293d f1c7 203d c7fd 043d 62fc d13c
00000320: bcb9 6d3c 2a4b 08bd 72e4 db3c f9bd 223d
00000330: 755b 023d bbb8 ddbc 1820 963b 8a71 ab3c
00000340: 10c4 2a3b d05e 9f3c ab0c 0cbd d80a e33b
00000350: 00d4 1439 4aef c33c 12ec fe3c 64f4 463c
00000360: a085 853a 5225 e43c 9674 9d3c acf8 04bd
00000370: 24f0 553c e3ca 0c3d 64b5 1bbd 18f5 cfbc
00000380: 368a 0ebd de1d f5bc 701a 0dbd 3806 b4bc
00000390: 805e d239 96b4 e5bc 6865 f03b 207b 0ebc
000003a0: f2df fa3c f869 9e3c 403b 663c 363d 37bc
000003b0: 9d6c 243d c6aa e83c 3b83 1c3d a1e2 1a3d
000003c0: 48d1 a6bc 4784 16bd 20a8 8c3c 0fd4 073d
000003d0: 12ed b13c f0b0 153b 0012 7a3a 407c 083a
000003e0: bac5 ae3c ca48 e43c f0f5 e3bc 1058 673c
000003f0: 434b 1b3d 28d8 f73b 2039 b53b bbb9 173d

goal_map_encoder.block.4.bias f4 [32]
-0.021576911 0.03353152 0.028301109 -0.0073268153 -0.007916365 -0.014683813 -0.00019345805 0.036339093
-0.015480211 -0.012794187 0.034190718 -0.011332151 -0.003048852 -0.040473994 0.008267526 -0.0071354248
-0.026413992 0.0018731169 0.040426377 -0.039542254 0.025817852 0.032689597 0.024394583 0.02812368
0.014935583 -0.021075439 -0.0089521 -0.008121688 0.040085595 -0.015041908 -0.03418253 -0.01951777
00000000: 10c2 b0bc 5958 093d bad7 e73c c815 f0bb
00000010: a4b3 01bc 6094 70bc 00db 4ab9 4dd8 143d
00000020: b6a0 7dbc b69e 51bc 910b 0c3d 7caa 39bc
00000030: 40cf 47bb 0fc8 25bd 8474 073c 48d0 e9bb
00000040: 2862 d8bc 6083 f53a 2196 253d 0ff7 21bd
00000050: f67f d33c 87e5 053d 26d7 c73c a263 e63c
00000060: 60b4 743c 66a6 acbc d4ab 12bc d410 05bc
00000070: cb30 243d 5672 76bc fb02 0cbd bbe3 9fbc
