project/ckpt/actor_0.ckpt (torch, 798655 bytes, 26 tensors)

map_encoder.block.0.weight f4 [32, 1, 8, 8]
00000000: d078 34bd f493 00bd 68b2 3abd 22e1 f1bd
00000010: 6a14 9ebd ccf8 373d 5046 ee3d 6022 aabd
00000020: a876 fdbc 9ae7 b83d 6c16 bdbd d467 7b3d
00000030: 3805 f43c 9453 a03d f00a 16bd 8087 3cbb
00000040: 0091 e03d 8406 033d 0068 cfb8 8ca8 4bbd
00000050: 2a82 e8bd 58a7 ab3c 88d0 96bc a2b2 cdbd
00000060: 263e d0bd 4465 32bd 923c 8b3d b48e b9bd
00000070: 483c f13c 3256 c63d 2c43 febd b49e 5ebd
00000080: 4825 ffbd 200c 93bc 3024 78bd 4c49 d1bd
00000090: 0823 023d 50ea 6c3d ce67 8a3d ec17 fbbd
000000a0: dc81 6ebd 6009 e33c 808a c43c 241a 93bd
000000b0: 7476 d93d a230 8c3d 3048 dd3c f847 b6bd
000000c0: a046 d23b 98a3 93bd ec49 e93d dc7c b2bd
000000d0: a06c 6ebc 3c2a 51bd 8ee9 c1bd f020 d53c
000000e0: c887 423d d2ba f13d 6417 1f3d f4db 63bd
000000f0: c274 f8bd c04c e53c 1c14 23bd 80e2 e2ba
00000100: 0031 82bc 2863 ecbd 1e05 9e3d 40db e4bb
00000110: fc61 c1bd 0806 01bd f022 abbc 805b 83bc
00000120: 8010 48bd a6cc c9bd 7813 cd3d 6e7b d03d
00000130: 72e1 f6bd c028 0cbb 5655 aa3d 5c92 7d3d
00000140: 0013 483b 60bd 8f3b b851 9d3c 24ff c53d
00000150: 06a9 963d 36d0 d7bd e621 c93d 0a7f f6bd
00000160: 8030 b53c 9c21 4b3d c02d a5bd e8b0 5bbd
00000170: 9e52 e03d 4028 303c d66f 9f3d 0064 b33c
00000180: 14e4 3d3d 38ef 783d a029 e93b 18ac 1e3d
00000190: 600b e5bd eeb3 a53d 2e9c cebd f6b3 883d
000001a0: 2005 cfbd 7839 7e3d 94f8 c3bd 048b 67bd
000001b0: d0bb 1a3c 949c 24bd b014 56bd 2c95 cc3d
000001c0: 1801 1ebd 1e27 b3bd 50c4 d1bd 9076 08bc
000001d0: 80ac 54bd 987f 83bc 404d 30bd 589d cb3c
000001e0: 7eef ad3d 486e edbd 5e40 d93d 3eb6 98bd
000001f0: d0cd 04bc aea0 e7bd 40d8 d4bd e8a7 b03c
00000200: 3087 a9bd 70c9 58bc 684d 85bd 405f 22bd
00000210: 48bc b93c 4036 6abb 5c12 0bbd f80a 423d
00000220: 3062 1bbd 4060 7c3d 94c5 633d baac 823d
00000230: fc36 abbd 907b 76bd 0c90 25bd f6ae 853d
00000240: e09a 203c 467c aa3d a48d 0dbd 40ae 55bc
00000250: c8f7 6d3d 8ea0 e13d 7aa4 c1bd c80e dc3d
00000260: feeb c2bd 6c28 1cbd 22b6 eebd e42c e93d
00000270: 44fe 953d b85c 2f3d 7027 8d3c 4cf0 723d
00000280: 7e56 cc3d 1ef9 a0bd c0c3 e03c f089 093c
00000290: 68d4 55bd f418 c33d 56e7 a3bd cc84 ae3d
000002a0: c2ab debd 20d4 783d 3c6f e9bd a88e cdbc
000002b0: 58ac 0b3d 40dd 2f3d 009a 7dbd d80a a63d
000002c0: 3022 28bc 0055 283b da2e b43d 081c 9e3d
000002d0: b6c3 8d3d 7482 d33d 2c26 54bd dc70 7dbd
000002e0: 8e9d b33d 40bc 5b3b 3019 03bd 903d 1a3d
000002f0: d4c8 a5bd c8c7 523d 56ec d0bd 886f 3b3d
00000300: e4b8 77bd fc34 ce3d 0ecd fd3d ac80 443d
00000310: cab9 ce3d 1018 b9bc f094 eb3d 0052 feba
00000320: cc75 bdbd 00cd a53c 80bd bdba 108e 383c
00000330: ea75 c9bd 16b0 eebd 1222 e4bd 2ef5 8abd
00000340: 549f ffbd 5c86 a23d 507b e63d 2c60 2c3d
00000350: c63b cebd 343d 7a3d d622 a03d 3053 5cbc
00000360: c4c2 363d b09c 8dbd 4462 38bd 9448 dcbd
00000370: 906a e13c 98e6 793d 7437 7a3d 023c 9c3d
00000380: d44e afbd 16a6 98bd 12e9 dcbd 28a1 f6bc
00000390: aeb5 90bd 806f ca3d 803d 07bb ee61 8dbd
000003a0: e067 61bd 200a b93c e090 7d3c f4cf 35bd
000003b0: fa41 b73d 70d1 65bd cc62 7dbd c84f 603d
000003c0: 24b3 fd3d 5c06 9a3d 486c e0bc 8692 febd
000003d0: e29e d03d 1e85 813d 2821 e7bc e80c 9ebc
000003e0: 0ad8 f13d c6b3 9dbd e043 183d 9ec1 9a3d
000003f0: b609 c4bd 6eda b73d 80fa b5ba 00c0 a639
-0.04406053 -0.0313911 -0.045580298 -0.11810519 -0.077187374 0.044915006 0.11634505 -0.08307338
-0.030940369 0.090285495 -0.09232792 0.061378315 0.029787645 0.07828441 -0.036631525 -0.0028767288
0.109651566 0.031988636 -9.889901e-05 -0.049721286 -0.11352952 0.02095382 -0.018409982 -0.10043837
-0.10168104 -0.043553606 0.06798662 -0.090604216 0.02944769 0.09684409 -0.12415156 -0.05435057
-0.12458283 -0.017950118 -0.060581386 -0.102190584 0.03177169 0.057840645 0.067580804 -0.12260422
-0.058229312 0.027714431 0.023991823 -0.0718272 0.10618296 0.068452135 0.02701196 -0.08900446
0.0064171106 -0.072089374 0.113910526 -0.08715221 -0.014552265 -0.05106567 -0.09468375 0.026016682
0.047492772 0.11803211 0.038840666 -0.055629686 -0.12131645 0.027990699 -0.0398141 -0.0017309934
-0.015892506 -0.1154235 0.0771582 -0.0069841444 -0.09442517 -0.031499892 -0.020890683 -0.016034842
-0.04884386 -0.09853487 0.10013479 0.10179792 -0.12054719 -0.0021386594 0.08317058 0.061907157
0.0030528903 0.004386589 0.019204006 0.09667805 0.073564574 -0.1053776 0.09820919 -0.120359495
0.022117853 0.0495926 -0.08065367 -0.053635508 0.10953258 0.010751784 0.07785003 0.02189827
0.04636009 0.06077501 0.007115558 0.03873834 -0.1118381 0.080909595 -0.10088383 0.0667495
-0.101083994 0.062066525 -0.09568897 -0.05652906 0.009444192 -0.040188387 -0.052265823 0.0998939
-0.03857526 -0.087476954 -0.10242522 -0.008329049 -0.05192232 -0.016052052 -0.04304242 0.0248553
0.08492945 -0.115933 0.1060798 -0.07456635 -0.00810571 -0.11309944 -0.10392809 0.021564439
-0.08277738 -0.01323162 -0.06508905 -0.03964162 0.022672787 -0.0035737902 -0.033953056 0.047373742
-0.037935436 0.06161523 0.055608347 0.06380601 -0.08360097 -0.060176432 -0.040420577 0.06527512
0.00980255 0.083244845 -0.034558907 -0.013042033 0.05809763 0.110169515 -0.094551995 0.10745007
-0.09517668 -0.038124487 -0.11655833 0.11385515 0.07323888 0.042813033 0.01723072 0.059311196
0.099774346 -0.07860015 0.02743709 0.008394703 -0.05220452 0.09526244 -0.08003108 0.08521423
-0.10872604 0.060749173 -0.113981694 -0.025092438 0.034099907 0.04293561 -0.061914444 0.08107537
-0.010262057 0.002568543 0.08797999 0.0772019 0.069220945 0.10327616 -0.051794216 -0.06187521
0.087702855 0.0033528954 -0.032006443 0.037656367 -0.080949455 0.051460057 -0.102013275 0.04576066
-0.06047906 0.100687 0.12392627 0.047974274 0.1009403 -0.022594482 0.11503017 -0.00194031
-0.092509836 0.020239353 -0.0014476031 0.011264339 -0.098369434 -0.116546795 -0.11139311 -0.067850456
-0.12481561 0.07935783 0.11253989 0.042083904 -0.10069995 0.061093524 0.078191444 -0.013447568
0.044619337 -0.069146514 -0.04501559 -0.10756031 0.027516633 0.061010927 0.06108804 0.07628633
-0.08559957 -0.074535534 -0.10786642 -0.030106142 -0.07065903 0.09884548 -0.0020636022 -0.06903444
-0.055030704 0.022587836 0.015476435 -0.044387773 0.08948131 -0.05610794 -0.0618618 0.054763585
0.12387684 0.07520744 -0.027395383 -0.12430291 0.101865545 0.06324218 -0.028214052 -0.019293264
0.11808784 -0.07700305 0.037174106 0.07556461 -0.09572165 0.08977209 -0.0013883859 0.00031805038

map_encoder.block.0.bias f4 [32]
00000000: cac9 f9bd c8c7 c4bc b44c e03d bc9a d73d
00000010: 50cd 9f3d 1035 563d d8ee 9a3d d89e babc
00000020: 98a5 c73c 008f 74bc e075 713d cc32 7cbd
00000030: c859 a73c b026 7ebd 964b ec3d 04d6 243d
00000040: 40a7 f8bc 405e b3bc e89c f03d d499 b3bd
00000050: 084d e73c ac09 59bd 00e1 873b ac1b 133d
00000060: b4d6 2e3d c606 e0bd 1807 ccbd 7ce9 713d
00000070: cac7 80bd 6cc7 21bd 2685 90bd 32ed bbbd
-0.12196691 -0.024021044 0.1095213 0.1052756 0.07802832 0.052296698 0.07565087 -0.02278082
0.024370953 -0.014926672 0.058950305 -0.06157188 0.020428553 -0.062048614 0.115378544 0.040243164
-0.030353189 -0.021895528 0.117486775 -0.08769575 0.028234974 -0.05298774 0.004146695 0.03591506
0.042685226 -0.10938792 -0.099622905 0.05906056 -0.06288107 -0.039496824 -0.07056646 -0.09176101

map_encoder.block.2.weight f4 [64, 32, 4, 4]
00000000: c054 053b c0ff cfba 349e 5a3c b97a 1b3d
00000010: 42f3 ab3c 29c3 9ebc 58b3 21bd c2c3 dd3c
00000020: d567 133d 6279 b4bc a6b6 d03c 1df4 21bd
00000030: b624 fc3c 2af4 7abc 6eff b73c b07c 29bb
00000040: c4e5 563c 464d 913c 2018 60bb b3a9 033d
00000050: c67f 2cbd 0030 2bb9 b654 7abc a8f6 193c
00000060: 9765 d7bc 625d f13c b457 68bc b656 f23c
00000070: dde0 dcbc 1018 c0bc 5a5b ad3c 1cc5 62bc
00000080: bcaf 17bd 0821 2e3c ab8c 1d3d 40b3 07bc
00000090: c887 ea3b 44e4 8abc 524d f8bc 26d1 9b3c
000000a0: 1836 28bc de1c 7fbc c1d1 183d 287a 1fbc
000000b0: f4e9 11bc 80b5 42bc d703 1b3d b8d8 883b
000000c0: 0a97 babc 15cb 163d e0a3 653b 3d22 1ebd
000000d0: 145d 2fbd 40dd febc 3af6 09bd dc2a 10bd
000000e0: 8805 443c fdc0 dabc f5fa 0fbd ce2a ea3c
000000f0: b8f6 a43b 68bc 48bc 675a 29bd bfed 0e3d
00000100: 34c0 01bc a0a1 7d3b 749d 6d3c 01c0 02bd
00000110: 1067 cd3b dd0d 17bd 160a ddbc 2e03 e73c
00000120: b91e 0d3d 9ebd 11bd 82ba ae3c f065 78bb
00000130: 4807 fabc 26bc ea3c 5f08 123d 034f 213d
00000140: d005 5a3b c4c1 503c 7ad4 97bc 217f e0bc
00000150: 840a 78bc da65 02bd 71af b9bc 4a75 0ebd
00000160: 1020 3ebc ffb8 8bbc 3852 04bc 6836 8cbc
00000170: f0f0 6ebc df5f 0c3d 438d e0bc 2337 a3bc
00000180: dab6 d13c 2085 373b 283d 87bb da00 c8bc
00000190: f24d 2fbd 7ad9 b43c 6692 df3c 2817 dcbb
000001a0: 0825 18bd e9d7 2c3d 5c21 a3bc 0cae 20bd
000001b0: 9497 273c 5318 c9bc b0fc e4bc c708 debc
000001c0: d75c 143d 8654 e63c 5efd a53c a92e 063d
000001d0: 00fc 23bc 96a3 9a3c 7ccb 09bc 30d0 3a3c
000001e0: fb98 1f3d 6214 1cbd 3e2b 64bc fc88 623c
000001f0: 78e1 08bc 7899 f6bb 8029 823c a97d 90bc
00000200: f4f4 23bd 386d 91bb 7236 64bc 30e2 823c
00000210: 0033 21b9 aaf4 c23c b023 a93b bedf d9bc
00000220: b046 1cbd 1045 dc3b 3fc6 bdbc 2d58 023d
00000230: 5e5c fa3c d34a 2c3d f844 913b b6fb 93bc
00000240: d0b3 eabc 7dc8 99bc c052 10ba cc80 42bc
00000250: 1ac1 c63c b1f5 2a3d 25df 0b3d ec01 00bd
00000260: 30ed 32bd e8db 933b 860d cc3c 862e a13c
00000270: aca8 463c 7e44 f2bc 9a67 6abc a694 863c
00000280: 39c1 a5bc dc51 51bc 9590 a0bc 86b9 963c
00000290: 1c0c 80bc 7046 b2bb 200f f7ba 1407 17bc
000002a0: d2ca c63c 1a62 d63c 6115 9cbc 009e e33a
000002b0: c083 85bc 9069 b13b e147 1f3d b970 12bd
000002c0: 9016 bf3b 0060 90b7 80c7 e139 b4d3 3e3c
000002d0: 9cbe 23bd 0aca ee3c a803 11bd edb3 093d
000002e0: 682d 98bc 607a 4e3c 5034 483b c0a4 ddba
000002f0: 5078 30bd 00fd 3e3b 37f6 19bd d6fa e63c
00000300: c20f 2cbd 9d2c 1d3d 149f 1f3c 0eaa fa3c
00000310: 2075 863a 9940 123d a4d6 083c 4eb6 f03c
00000320: a69b ef3c 1037 30bc 803d d03a 6c29 683c
00000330: e939 86bc 7138 8abc 4aa2 b03c 0eb5 f1bc
00000340: 41f9 293d 74b2 8e3c 07d7 12bd 32f6 a33c
00000350: 808e 0fbd a562 29bd 08e3 343c 54ec 30bc
00000360: 5090 dbbb d8e0 84bb 4000 e63a 00d7 9abb
00000370: 1759 1d3d 242a f0bc 80ec 3a3c b63d c83c
00000380: 704f 11bd 0c2c b8bc 90a6 0f3b da6d 7fbc
00000390: 4c6d 40bc 4c9c 0abd b8ae 1c3c 28d6 923b
000003a0: 3220 9d3c 2316 163d 0a38 8bbc a425 853c
000003b0: 7530 2d3d 965b ec3c 96b8 b5bc 48bb 32bd
000003c0: f461 943c 9fe4 213d 8c6d d2bc fbb8 8ebc
000003d0: 28bc 39bc f8e4 3dbc 069e e33c 4758 0cbd
000003e0: 5abb f73c 5256 0cbd 5896 b03b de22 b53c
000003f0: 3ef5 9d3c b0b0 b3bc 7262 56bc 1675 f23c
0.0020344704 -0.0015869066 0.013343383 0.037958834 0.020990018 -0.019380169 -0.039477676 0.027070884
0.035987694 -0.022030536 0.025477719 -0.039539445 0.030779224 -0.015317002 0.022460666 -0.0025861673
0.013116304 0.017737042 -0.0034194067 0.03214426 -0.04211404 -0.00016325712 -0.015278986 0.009397186
-0.026293559 0.029463474 -0.014181066 0.029582363 -0.026962692 -0.023448974 0.021161724 -0.01384094
-0.037032828 0.010627992 0.03846423 -0.008282483 0.0071572997 -0.016954549 -0.030310307 0.019020628
-0.010266803 -0.015570847 0.037309412 -0.009733714 -0.008905876 -0.011884093 0.03784546 0.0041762255
-0.0227771 0.036814768 0.0035040304 -0.03860687 -0.042813376 -0.03111136 -0.033682086 -0.035197124
0.011964209 -0.026703352 -0.03515144 0.028584864 0.005034294 -0.012251951 -0.04134598 0.0348947
-0.00791936 0.0038701072 0.014502872 -0.03192139 0.0062683895 -0.036878455 -0.026982348 0.028199758
0.034453128 -0.035581224 0.021329168 -0.0037902556 -0.03052105 0.02865417 0.035652515 0.039381992
0.0033267625 0.01274151 -0.018533934 -0.02740437 -0.015139226 -0.031835414 -0.022666665 -0.034779824
-0.011604324 -0.017055986 -0.008076243 -0.017115787 -0.014583811 0.034271117 -0.027411109 -0.019923752
0.025599886 0.0028002933 -0.0041271634 -0.024414469 -0.042798944 0.022076357 0.027291488 -0.0067166276
-0.03714469 0.042198095 -0.019913368 -0.039228484 0.01022901 -0.024547732 -0.027952522 -0.027103795
0.03622135 0.028116476 0.020262416 0.032759342 -0.010008812 0.018876832 -0.008410331 0.011402175
0.038964253 -0.038105376 -0.013926325 0.013826605 -0.008354537 -0.007525619 0.01588893 -0.017638044
-0.040028527 -0.0044380687 -0.013928996 0.015976995 -0.00015373155 0.023798306 0.005161725 -0.026595946
-0.03815335 0.0067221 -0.02316582 0.031822372 0.030561622 0.042063545 0.0044332705 -0.018064361
-0.028650194 -0.018772358 -0.0005505495 -0.011871528 0.024262 0.041738216 0.034148354 -0.031251833
-0.04368323 0.004512299 0.024908792 0.019675504 0.012125175 -0.029573675 -0.014306927 0.016428303
-0.020233737 -0.012775864 -0.019600192 0.018399011 -0.015630774 -0.0054405257 -0.0018849112 -0.009217996
0.024266634 0.026169825 -0.019053163 0.0017365813 -0.016298175 0.0054141954 0.03888691 -0.035752032
0.005831547 -1.7210841e-05 0.00043063983 0.011647154 -0.0399767 0.029149074 -0.035403877 0.033618856
-0.018576339 0.012602419 0.0030548759 -0.0016910061 -0.04308349 0.00291425 -0.037588324 0.02819578
-0.042007215 0.038372625 0.009742517 0.030598667 0.0010258295 0.035706136 0.008351956 0.029383805
0.029249024 -0.010755315 0.0015887469 0.014170032 -0.016385036 -0.016872616 0.02156176 -0.029505279
0.041497473 0.017419077 -0.035849597 0.020014856 -0.035048008 -0.04135384 0.011040457 -0.0107985325
-0.006700553 -0.004055124 0.0017547682 -0.004725337 0.03841504 -0.02931697 0.011408925 0.024443489
-0.035476148 -0.02248194 0.0021919347 -0.0155901555 -0.011744808 -0.033840463 0.009563141 0.004481096
0.019180391 0.036642205 -0.016994495 0.0162533 0.04228254 0.028852265 -0.022182744 -0.043635637
0.018113114 0.03952467 -0.025687002 -0.01742219 -0.011336364 -0.011590235 0.027785312 -0.034263875
0.030240703 -0.03426201 0.005389016 0.022111353 0.01928198 -0.021934837 -0.013084995 0.029596847

map_encoder.block.2.bias f4 [64]
00000000: 6456 31bc 15af d3bc 3211 c43c 7c1b 06bc
00000010: fbb0 2b3d 7a3f 33bd 3fbd bebc 495a 0d3d
00000020: e5cb 30bd 522a af3c 7ed3 2cbd ec07 91bc
00000030: 0c8f 503c 6035 eeba f5cf 053d f037 14bb
00000040: 1e50 cdbc 550f cfbc a35b 183d e9b9 adbc
00000050: 3d90 c4bc 8032 55ba 5c6d 843c 401e b63b
00000060: a078 ba3a 3c5b 2d3c 0055 9a3a 20fd 33bb
00000070: 2c2a 0a3c a06a eebc 7bef 34bd 5ce5 5b3c
00000080: e8f0 b0bb 537a 2d3d e807 bd3b 2c5f 30bd
00000090: f039 1dbc 3875 bcbb f80d bd3b 0535 0d3d
000000a0: 3632 c23c 107c 9abc 0983 1dbd 22df c13c
000000b0: 381d 19bd 60f5 b03b d6af ff3c ffee 293d
000000c0: b678 33bd 33f7 093d f069 20bc 4876 9e3b
000000d0: eee8 af3c 6621 853c a873 b33b c502 15bd
000000e0: bcc5 443c d889 83bb e0e1 63bc 7090 713b
000000f0: 303b e7bb fab6 ee3c 3091 ef3b 7935 1a3d
-0.01082382 -0.025840322 0.02393398 -0.008185264 0.04191683 -0.043761708 -0.023283599 0.03450993
-0.0431632 0.021382485 -0.042193882 -0.017703973 0.0127294175 -0.0018173866 0.032669026 -0.002261635
-0.025062617 -0.025275866 0.037196767 -0.021206813 -0.02399456 -0.000813283 0.016165428 0.0055578053
0.0014226623 0.010580834 0.00117746 -0.0027464107 0.008432906 -0.029103577 -0.0441737 0.013421383
-0.005399812 0.042352986 0.0057687648 -0.043059513 -0.009596333 -0.0057512783 0.0057694875 0.03447439
0.023705583 -0.018857986 -0.038455043 0.023665968 -0.03738138 0.0054003447 0.031211775 0.04148769
-0.04381629 0.033683013 -0.0097908825 0.0048358776 0.021473374 0.016251277 0.005476434 -0.036379594
0.012010034 -0.004014235 -0.013908833 0.0036859773 -0.0070566162 0.029139984 0.007311009 0.03764865

map_encoder.block.4.weight f4 [32, 64, 3, 3]
00000000: 5a1a a83c b020 26bb 10b8 01bb ffe9 16bd
00000010: c83b 8f3c ddc6 203d 6b15 80bc 40a7 093b
00000020: 0b63 033d 0367 fabc 7617 f2bc a335 aabc
00000030: 38f6 aabc 107c 7ebc 09b5 0f3d 178a 22bd
00000040: c09b 4d3c 263f 93bc c823 85bc dc5c 413c
00000050: 1340 1cbd d4e4 7d3c 9f13 043d 90c4 0a3c
00000060: 7c36 19bc 6a9b 24bd 8774 2a3d b8fe 91bb
00000070: 804c c63a d78d 04bd 00c9 1abc c09c 01bc
00000080: 775a 0b3d 6e1b 9e3c 000a a13b 3556 043d
00000090: 21b0 1f3d 5082 20bc c6f2 25bd 51ff 113d
000000a0: 7808 8fbb 6ae0 db3c 0131 193d e68e f93c
000000b0: 1157 293d a01a cfbc db3f 05bd d689 9e3c
000000c0: e496 483c cee5 da3c 6086 c73b 9bdf 29bd
000000d0: ec12 5abc a08a 903c 1707 00bd 148f 103c
000000e0: 78e0 943b 29fa 073d f2a7 ff3c f685 f83c
000000f0: 602f 9a3c 72b8 b53c c0d2 633b 4071 13bd
00000100: ab9c 9cbc c09e 42ba 703e 3ebc 50d7 14bb
00000110: 2010 f0bc 241d 4e3c 6fa3 12bd ab2b 073d
00000120: 0320 c5bc bd88 033d 5cd5 02bc 6be6 91bc
00000130: aba5 0fbd 0ef9 20bd 906e b0bc b054 67bc
00000140: 7f1b 02bd 5e39 953c 10cb 5abc cdb0 0d3d
00000150: a990 073d 6974 033d c077 e33b 2bce a3bc
00000160: 56b9 963c c43c 643c 3398 92bc 005d 7cbc
00000170: b214 05bd c04d 76bb 46c3 0bbd 58f4 b9bb
00000180: 1f22 0fbd c61a 6dbc 6c93 50bc c04e 3cbc
00000190: 8831 ab3b 399e 083d 10a6 38bb 0b95 27bd
000001a0: d6c4 f83c 2c75 1bbc ac2c 2d3c 3281 be3c
000001b0: f39f 12bd da2f e13c 7cba 25bd 1090 14bc
000001c0: c44d 2f3c 461e 05bd 89ee 213d 70ff 2c3c
000001d0: dbe5 d4bc d08a 933c 20f9 5ebc 9ed6 e83c
000001e0: d278 b83c ec0b 1dbd f8c9 0abd e4a3 3d3c
000001f0: d7eb 28bd 20ee 173c 50ed 86bc 6355 95bc
00000200: e8c9 fbbc 7616 d93c 7480 24bc 0267 c43c
00000210: 20cc 963c c6b4 fcbc 885d 813b 4876 8d3c
00000220: 78d5 d53b f0bc 40bb 02fa 05bd 66ba cc3c
00000230: e5e4 213d 3001 4dbc 863a d0bc f66f 0fbd
00000240: b8bd 903c c447 18bd b610 fd3c 0c45 2cbc
00000250: 18d5 ea3b 7acb ad3c 5c38 50bc f900 0e3d
00000260: 636e 07bd 80dd e1b9 f29e a73c 0674 b1bc
00000270: 1bd5 043d 40a3 7b3a c047 1f3b 368c 6cbc
00000280: 42c9 d53c f6a8 87bc 9616 fa3c 7cb6 00bc
00000290: e270 b83c 80bf a739 90fb 24bb 805e b0b9
000002a0: edc4 233d 68ef fdbc 8a0f e83c 101a 0e3c
000002b0: 7a26 de3c 0cba 20bd 2035 b5bb 7881 89bb
000002c0: 8e1b 8e3c c73b 113d 60dc 713c 58de 12bd
000002d0: b850 e83b 76e6 6bbc 7662 e4bc 50b0 9d3c
000002e0: 36e3 5bbc 28a7 fabb 4080 1bbd 7a40 11bd
000002f0: 46dc cabc 86ce c43c 731f e0bc 20b2 f1ba
00000300: 03d6 92bc 628f f83c ee10 e03c 6625 abbc
00000310: 1656 c33c f0e8 783b ccf6 5c3c 480a fd3b
00000320: 10e3 543c 208f 8c3c 3e08 a0bc 882e 81bc
00000330: 408b 71bc f009 48bc 13de e4bc 6e02 acbc
00000340: 829e d43c 3052 1f3b 312b 213d 9ef9 863c
00000350: 9b1e 153d 7e5a 8c3c 303b ddbc c3f8 d9bc
00000360: 0017 103c 987a d5bb 918a 103d ec52 59bc
00000370: f6f9 9d3c 4e97 f93c defb d43c 13e6 1ebd
00000380: c0f7 d8bb d0a7 373b 78b8 9abc 8693 5cbc
00000390: 52d7 f73c ce90 cfbc c03e 223a bbbb 04bd
000003a0: 802e a33a 089e 8abc 90c6 4abb d051 54bb
000003b0: 302b 4cbb 3ade 863c b02b 653c 3b7b dabc
000003c0: ab01 bfbc 0095 103a a6b0 ce3c 3f10 14bd
000003d0: 9ef3 fdbc b463 763c e864 eb3b d5d4 233d
000003e0: 3586 223d f08d 79bb c338 91bc d484 21bc
000003f0: b205 c43c e23b b03c aaa9 f53c 8073 9a3b
0.020520378 -0.0025349073 -0.0019793548 -0.03684425 0.01748456 0.03925215 -0.015635213 0.002100423
0.032076877 -0.030566698 -0.029552203 -0.02077753 -0.02086936 -0.0155325085 0.035084758 -0.039682474
0.012549341 -0.017974447 -0.016252413 0.011801925 -0.038147043 0.015496451 0.032245275 0.008469716
-0.009351369 -0.040187277 0.041615035 -0.0044554137 0.0015129 -0.03236183 -0.009447336 -0.007910907
0.03402182 0.019300189 0.004914522 0.032308776 0.03898633 -0.009796694 -0.04051473 0.03564388
-0.004365023 0.026840407 0.03740025 0.030463647 0.0413428 -0.02528125 -0.0325316 0.019352835
0.012243006 0.026720908 0.006089017 -0.041473012 -0.013310175 0.017644227 -0.03125676 0.008823175
0.0045433603 0.033197556 0.031208012 0.030337315 0.018821418 0.022182677 0.0034763068 -0.035996675
-0.019117674 -0.0007424168 -0.011611566 -0.0022711344 -0.029304564 0.01258019 -0.035800394 0.03300063
-0.024063116 0.032112826 -0.007985439 -0.017810067 -0.035070103 -0.039300017 -0.021537095 -0.014119312
-0.031764504 0.018215831 -0.013354078 0.03459244 0.033096943 0.03209344 0.0069417655 -0.01999577
0.018398922 0.013930503 -0.01789484 -0.015403032 -0.03249044 -0.0037582964 -0.034121774 -0.00567488
-0.03494465 -0.014471715 -0.012730461 -0.011493385 0.0052244104 0.033354018 -0.0028175153 -0.040913623
0.030367296 -0.009488385 0.010569733 0.023254965 -0.03579707 0.027488638 -0.04046105 -0.00906755
0.010699693 -0.032499574 0.039534125 0.010558948 -0.02598851 0.018010527 -0.013609201 0.02842265
0.02251855 -0.038341448 -0.03388402 0.011574719 -0.04124054 0.009273082 -0.016470581 -0.018229192
-0.030735925 0.026499968 -0.010040391 0.0239749 0.018407881 -0.030847918 0.0039479174 0.017268315
0.0065256916 -0.002940949 -0.03270913 0.024991225 0.03952493 -0.01251249 -0.025418531 -0.035018884
0.01766859 -0.037177816 0.030891757 -0.010514509 0.007166516 0.02121519 -0.01270875 0.034668896
-0.033064257 -0.00043080375 0.020461533 -0.02166177 0.032429796 0.0009599216 0.002430424 -0.014437726
0.026096944 -0.016560059 0.030528348 -0.007856008 0.022514764 0.000319954 -0.0025174357 -0.00033639744
0.039982725 -0.030997947 0.028327722 0.008673206 0.027117956 -0.039239928 -0.0055300146 -0.004196342
0.017347123 0.0354574 0.014762014 -0.035856575 0.0070897005 -0.014398208 -0.027878981 0.019249111
-0.0134208705 -0.007649321 -0.037964106 -0.03546188 -0.024763238 0.02402426 -0.027358746 -0.0018439926
-0.017924314 0.030341808 0.027351823 -0.020891856 0.02384476 0.0037980638 0.013486575 0.007722173
0.012993589 0.017158091 -0.01953518 -0.015769258 -0.014742672 -0.012209401 -0.027937924 -0.020997252
0.025954489 0.0024310462 0.03934783 0.016476449 0.03640614 0.017132994 -0.027005762 -0.026607877
0.008794546 -0.0065148585 0.035288397 -0.013264399 0.01928423 0.030467656 0.025999006 -0.038793635
-0.006621331 0.0028023608 -0.01888679 -0.013462907 0.03025404 -0.025337603 0.000618916 -0.032405596
0.0012449771 -0.016921058 -0.0030941106 -0.0032397397 -0.0031153671 0.016463388 0.013987467 -0.026670089
-0.023316225 0.0005515367 0.025230717 -0.036148306 -0.030999955 0.0150384195 0.00718366 0.039997894
0.03967877 -0.0038078986 -0.017727261 -0.009858329 0.023928497 0.02151293 0.029988129 0.0047134757

map_encoder.block.4.bias f4 [32]
00000000: 506d 01bc 38e2 d43b 6084 813c 4b07 8abc
00000010: 104b 263b 18da cebb a172 173d ea88 bc3c
00000020: e6f4 f4bc 8876 a53c 6acc 17bd 9e27 15bd
00000030: 8d5f 103d 06d2 b7bc 1ae6 b33c 9666 c9bc
00000040: e575 0d3d c04e febc 6899 fd3b bae4 11bd
00000050: 80b1 af3a 9636 ebbc 38f6 d0bc 609c b03b
00000060: 56f6 eabc 98a6 c4bb 3ba2 163d c643 b43c
00000070: f859 d1bc 3a1a 833c 763d 99bc ded8 1bbd
-0.007899597 0.006496694 0.015810192 -0.01684918 0.002537433 -0.00631262 0.036974553 0.023014504
-0.029901933 0.020198122 -0.03706018 -0.036414735 0.035247374 -0.022439014 0.021960307 -0.02458505
0.03453626 -0.03104341 0.0077392347 -0.03561852 0.001340434 -0.028712552 -0.025508031 0.005389735
-0.028681915 -0.006001305 0.03677581 0.022004973 -0.025555596 0.016003717 -0.018706065 -0.038048618

goal_map_encoder.block.0.weight f4 [32, 1, 8, 8]
00000000: 3aeb f53d ba26 8bbd 74c1 fc3d d4e3 babd
00000010: c856 553d 821b c63d 7cd7 533d d07d 7d3c
00000020: 900e 9abc 4490 5e3d 2c27 e7bd d479 cbbd
00000030: 74e9 94bd 0803 8bbc 2665 ae3d 6489 acbd
00000040: 409d 313b dec4 e83d 9caa 663d 7846 d33c
00000050: f04e 87bc 008e f5ba e047 653c 00c6 023c
00000060: c48e 51bd d439 123d d24d 8ebd f2d1 c2bd
00000070: 0083 043a 606b 973c a8eb b33c dab0 8f3d
00000080: a2e0 93bd 4077 cd3d c0ed e6bd 20ca 13bd
00000090: e00c f53b f044 d7bd 64b2 07bd c0b9 dc3d
000000a0: e025 24bc 9eb5 f93d d000 f9bd 5075 683d
000000b0: 209f 53bc 766a 953d 7811 af3c 8ca1 b73d
000000c0: eec6 9e3d a225 f63d eed2 dabd 3699 ca3d
000000d0: 98df f1bc b6f9 ebbd beec e2bd d856 8a3d
000000e0: a019 adbb ce5f cc3d 90c4 5d3d 3c10 83bd
000000f0: 889b cc3d a0ed cfbb 1eb2 c0bd e263 b43d
00000100: 70fd 213d 1c35 e03d 06d1 cb3d 5862 a73c
00000110: a8d3 fbbd a427 35bd fcd2 be3d bcd4 b63d
00000120: b497 763d 884c 49bd a8d6 a3bc f0fd f13d
00000130: 9cc5 42bd 5c19 40bd 20fc 01bd 3891 aabc
00000140: f6c8 c63d ccdc 793d f0d4 72bc 2a18 d93d
00000150: 58e0 1cbd 0066 ffbb b0bd 073c 2810 e83c
00000160: 2257 e0bd 1613 813d c6f0 f03d 0cdb cf3d
00000170: 4eb0 d93d 2c0c 133d a07e e83d 807d 4b3b
00000180: d203 c5bd 0a50 973d 864a c5bd fcb3 1dbd
00000190: e02e ffbb 32fa f4bd c6f9 e43d 8c63 bc3d
000001a0: 2004 8a3d f2fb 8cbd 8815 eb3c ca63 b63d
000001b0: 70ad 8e3d 3aa6 b03d 3220 913d 0000 28b5
000001c0: 6446 50bd 4c7a 013d fed8 d43d 16c3 b3bd
000001d0: 3810 153d ca26 8d3d bc19 f03d 2aa4 8fbd
000001e0: 80eb 20bc 7a8c acbd 5001 353d 0c44 c2bd
000001f0: 3c17 ffbd 5c3d 9d3d 5818 abbd fc9a 15bd
00000200: 44ff f03d 7ab7 de3d 5858 043d b0ba 293d
00000210: 505b ec3d 2a58 d43d 7071 0ebc 78a8 f63d
00000220: ec59 32bd 6c1c ef3d b630 aebd 58c6 b6bd
00000230: b03a dc3c 4884 1fbd ca08 e23d a818 f7bc
00000240: 32dc a53d c659 f0bd dcde 2fbd 4094 d23b
00000250: aec7 97bd 886a ef3c c40f afbd 9e7f e93d
00000260: 40bf f2bd cc2d 163d 9080 993c 7e8f af3d
00000270: 4cb5 773d 9053 c1bd 22cd 8ebd 2a93 eb3d
00000280: 88c8 6b3d 2477 4b3d 68e1 593d bcf3 5f3d
00000290: fe0d b03d a4b6 e4bd c0ea adbb 1479 1f3d
000002a0: fc81 a03d 0400 893d 3075 153d 5e24 8a3d
000002b0: 80ea 9dbd 2a31 ccbd 228f 963d d004 3e3d
000002c0: b035 71bd 9ccf 943d 989c c53d 46fb bd3d
000002d0: 1865 133d 247c a9bd 0c6f bf3d 169c c73d
000002e0: 9cdc 03bd 8444 60bd 30ba 47bd 1c28 84bd
000002f0: a0b1 90bb 16de a13d ecd7 643d e039 c4bb
00000300: a0f5 c93c 68f3 60bd ccd9 5dbd 927a 953d
00000310: d431 ae3d 2a9f f83d 8067 4a3c 4067 613c
00000320: 6079 e2bd d0ba fe3d 0af2 823d 50d2 0c3d
00000330: ca69 bdbd 38ee 573d c460 323d e68c 97bd
00000340: cc68 fe3d c6c0 a4bd d04e c73d 10b6 5a3d
00000350: b855 293d 4e59 a7bd 9429 5ebd 9294 b8bd
00000360: 7025 883c 1c2e 6fbd 4cda 373d 1018 12bd
00000370: 4ccd db3d 206c 0bbd 4ec7 e13d 1886 0c3d
00000380: 3400 8e3d 2834 f93d 1cde cf3d 4e26 9e3d
00000390: ee12 8bbd 0c25 013d c6d7 e73d 405a b53b
000003a0: 68dd debc f45d f0bd f29a a93d f42b 41bd
000003b0: 40a1 a2bd e038 c4bb b074 47bd f860 ec3d
000003c0: a6d1 bdbd 862e ff3d 9089 ab3d 1cbe 613d
000003d0: 500d bfbc 40c7 d03d 88cb bb3d d22e 873d
000003e0: da8c ffbd 6839 253d 64d0 253d 3098 2bbd
000003f0: babc adbd 9e86 eabd 2c40 b7bd 3088 643c
0.120077565 -0.06794496 0.12341586 -0.09125486 0.052084714 0.096732154 0.051719174 0.015471891
-0.018805772 0.0543368 -0.11286768 -0.09935346 -0.0727109 -0.016969219 0.08515386 -0.08424643
0.0027101785 0.113656744 0.05631505 0.025790438 -0.016517133 -0.0018734336 0.013994187 0.007981777
-0.051161543 0.03569968 -0.06948437 -0.095127 0.0005054921 0.018483818 0.021962956 0.07016154
-0.0722058 0.10032511 -0.11275816 -0.036081433 0.0074783415 -0.10511196 -0.03312911 0.107776165
-0.010018796 0.12192844 -0.12158358 0.056752503 -0.012916356 0.072956964 0.021370634 0.089663595
0.077527866 0.12018897 -0.10684763 0.09892504 -0.029525563 -0.11522238 -0.11080311 0.067548454
-0.0052825958 0.09979211 0.054142535 -0.06399581 0.09990603 -0.006345466 -0.09408973 0.08808114
0.039548337 0.1094763 0.099519774 0.020432636 -0.122962296 -0.044227257 0.09317586 0.089272946
0.06020327 -0.04914525 -0.019999817 0.11816013 -0.047551736 -0.046899185 -0.031734586 -0.020821199
0.09706299 0.061001584 -0.014821276 0.10600312 -0.03829989 -0.007794142 0.008284971 0.028328016
-0.10954119 0.063024685 0.11764674 0.10149202 0.106293306 0.03590028 0.11352277 0.0031050146
-0.09619869 0.07388313 -0.09633355 -0.038501725 -0.0077875704 -0.119617835 0.11180453 0.091986746
0.06739068 -0.06883992 0.02869679 0.08905752 0.06966674 0.08625455 0.07086219 -6.2584877e-07
-0.05084838 0.031610772 0.103929505 -0.08777444 0.03639242 0.06892164 0.117236584 -0.07013734
-0.009821773 -0.08425231 0.044190705 -0.09485635 -0.124556035 0.07677719 -0.083542526 -0.036524758
0.11767438 0.10874839 0.032310814 0.041437805 0.11540854 0.103683785 -0.008694038 0.120438516
-0.043542787 0.11675343 -0.085053846 -0.0892455 0.026883453 -0.038944513 0.11036833 -0.030163124
0.080986395 -0.11735873 -0.042937145 0.006426364 -0.07411133 0.029225603 -0.08547929 0.11401294
-0.11852884 0.03666477 0.018738061 0.08572291 0.060475633 -0.094397664 -0.0697272 0.11502679
0.05756429 0.04967417 0.05319348 0.054675803 0.08596419 -0.111676484 -0.0053075254 0.03893383
0.078372926 0.06689456 0.03648871 0.06745218 -0.07710743 -0.09970315 0.07351519 0.04639131
-0.05888909 0.07266161 0.096490085 0.09276442 0.035985082 -0.08275631 0.093473524 0.09746568
-0.03219281 -0.05475284 -0.048761547 -0.06452963 -0.004415706 0.07903688 0.05586998 -0.0059883446
0.024653256 -0.05491963 -0.054162785 0.07298769 0.08505598 0.12139733 0.012353778 0.013757527
-0.11058307 0.124379754 0.063938215 0.034380257 -0.09248693 0.052717417 0.043549314 -0.07399921
0.12422332 -0.08044581 0.09731829 0.053396285 0.041341513 -0.081713304 -0.05423887 -0.090127125
0.016619414 -0.058393583 0.04488592 -0.03566748 0.10732517 -0.034038663 0.110243425 0.03430757
0.069336325 0.12168151 0.10149786 0.0772215 -0.0679072 0.03152947 0.113204524 0.0055344403
-0.027205184 -0.1173667 0.082815066 -0.047161058 -0.07940912 -0.0059882253 -0.048695266 0.11541933
-0.09268503 0.124600455 0.08375847 0.055112943 -0.023321778 0.10194254 0.0916968 0.06600727
-0.12478037 0.04033795 0.04048194 -0.041893184 -0.08483262 -0.114514574 -0.08947787 0.013948485

goal_map_encoder.block.0.bias f4 [32]
00000000: 6cce 053d 00cd dcbd 0207 e03d 3c40 333d
00000010: b273 9f3d 4054 68bd e25c c8bd b0e6 60bc
00000020: f65a e6bd d802 4dbd 80d6 5bbb 9282 fabd
00000030: 0277 cf3d 925a 8f3d f098 79bd 8224 f1bd
00000040: 70bf 9d3d 288b 53bd f879 f7bd 5c93 ce3d
00000050: dcf4 993d f8ae cf3c d021 673c 2ab1 fe3d
00000060: 083c 95bc dc91 743d 8008 f4bd c089 42bd
00000070: 805b 0cbc 00e1 edba 303c e03d e073 b83b
0.032667562 -0.10781288 0.10938837 0.04376243 0.07785739 -0.056720972 -0.09783341 -0.013726875
-0.11247818 -0.05005154 -0.00335446 -0.122319356 0.10130121 0.06999697 -0.06093687 -0.117745414
0.077025294 -0.05164638 -0.120838106 0.100867 0.07517406 0.025351986 0.014107183 0.12436135
-0.018217102 0.059709415 -0.11915684 -0.04749465 -0.008566737 -0.001814872 0.1094898 0.0056290478

goal_map_encoder.block.2.weight f4 [64, 32, 4, 4]
00000000: 6653 f03c 00b2 8ab9 d30c 98bc c1e6 1bbd
00000010: 8478 783c b911 82bc 80eb 673b 297a 2bbd
00000020: d03a 7fbc c896 53bc 6027 e5bb d21c e43c
00000030: 1e85 ee3c 50ac 65bb f1e6 153d b0ce 02bd
00000040: f6ef d43c e6b7 983c 38d0 9abb 3889 c0bc
00000050: d89a e1bb 82cc ac3c eeea d53c d05d 5dbb
00000060: 407a 8b3c 505a 7c3b a211 c63c f81c 42bc
00000070: d0ab 853b a0ea 493b bcbf 87bc 469c a83c
00000080: edf1 2e3d 9481 aabc 101b 27bb 08c9 613c
00000090: e4d3 423c 7a1a a13c 32be 8c3c a2dc 933c
000000a0: dec7 1ebd 20e9 d83a aa74 da3c a0e6 ecba
000000b0: 3003 2c3c 1855 e03b 04c4 1dbd e4be 50bc
000000c0: 4817 273c c0bd a1ba e08a f3bc a3c6 083d
000000d0: 2c3c 2fbd ccff 413c 1531 84bc f701 08bd
000000e0: 70d7 28bd 69ed 133d 8692 de3c e0b3 e43b
000000f0: 3010 1e3c d8e5 af3b c39a 0dbd eded 183d
00000100: 5a29 c0bc fbd0 eabc 98c5 4a3c 8285 cf3c
00000110: e44c bfbc 4013 03bd 3f32 1a3d 5a8d d73c
00000120: cc04 1c3c 96a8 fbbc 0ef2 ee3c 38f8 3a3c
00000130: b21f 92bc c52b 2cbd 4a81 e43c 6cf7 803c
00000140: cd01 9cbc 87a2 09bd 34ce dabc d2e0 78bc
00000150: d7db 003d 903f f4bb 2108 343d 33c5 023d
00000160: c05a 6cbb b800 a83b 4232 893c e4f3 efbc
00000170: 4add 65bc 32e9 6abc 1a2c c03c 388a 82bb
00000180: 0f80 1b3d 3879 b73b 4f2c 07bd a079 04bd
00000190: 0fb0 173d 2bfd 23bd d07f 2e3b 5271 ecbc
000001a0: 8aec b23c 784a 35bc 0975 203d 1cb9 44bc
000001b0: a6c3 6fbc c0e3 323b 506e 903b bca4 513c
000001c0: 883c c6bb 18d2 adbb 1f73 e6bc d286 bf3c
000001d0: 68c6 5c3c c44d 6a3c abd6 20bd b1ba 2b3d
000001e0: 5291 62bc 9fea 253d 64ce 44bc e04d 2bbb
000001f0: 3ace 813c 0a37 09bd 3782 83bc c8ea 0bbc
00000200: 02a8 ac3c 8098 7e3c 4842 7a3c ab2a 34bd
00000210: b819 043c 6e0e 0dbd d0d7 18bb e28e c63c
00000220: 34fb 2d3c 0d6b dfbc a8aa 5f3c 1ff1 c8bc
00000230: ac6b 753c a6a5 813c cb8e 053d 28f6 26bc
00000240: 1d4c 143d 059d 163d dff0 c1bc 2098 edba
00000250: ad60 d2bc 7170 243d b78e 12bd af75 a9bc
00000260: 77c9 cdbc 4fee 80bc ae80 e53c 415d c9bc
00000270: 689e df3b 95bd 13bd 76eb 54bc 004d 0b3c
00000280: 6029 af3a d8d5 cebc d015 28bd 0056 6ab9
00000290: 207f 4b3c 2452 513c fcf4 9bbc e8be 8d3c
000002a0: e0f4 8d3a ced4 0dbd aa68 cc3c 90b9 aa3b
000002b0: 90ed 4ebc 24bf 313c 0aa1 debc b186 d5bc
000002c0: 03b3 2abd 7d93 e9bc 1b88 343d 0e4b 19bd
000002d0: c60b b53c 5422 22bd bd49 0a3d c0bb 203b
000002e0: 009c b23b dff2 313d 9cb5 35bc f65a 9f3c
000002f0: c17e 103d 9a5a c5bc e0f9 cf3b 3c2e 6d3c
00000300: 9710 1f3d 24cb 023c 889f fbbb a56f 253d
00000310: c3ef c8bc 7d16 0e3d 0045 483c 8e85 863c
00000320: 1190 34bd e8da 26bc a4f1 593c 7141 083d
00000330: 740a 123c 109f 91bb 9833 2fbd a638 aa3c
00000340: 4e4e d93c 6741 0e3d caeb ce3c 2075 993b
00000350: 4622 dc3c a4a8 7d3c b948 2d3d f0f3 e3bb
00000360: a174 0c3d 040d a2bc 0060 c3b8 d0fe bd3b
00000370: d853 a9bc 9522 b3bc b3cf 9cbc b963 263d
00000380: 7e3e e3bc d0d4 f0bb b493 513c 22c9 ce3c
00000390: a898 ef3b a286 8a3c b8b2 c93b d407 0dbc
000003a0: ad98 243d dac6 c6bc 60ec 57bb b100 223d
000003b0: 526c ccbc 8888 473c 02e0 2ebd 0095 8ab9
000003c0: 748c 4cbc 3f65 e4bc c83d 1cbc e050 42bc
000003d0: 6646 26bd 3026 16bd 5753 17bd 8c7e 603c
000003e0: a43b 533c d0c8 1bbd 523a b2bc b0a3 53bc
000003f0: 40dd ce3b 990f 133d 2b89 2b3d 2f60 16bd
0.029336642 -0.00026454031 -0.018560803 -0.03806186 0.015165452 -0.015877591 0.0035388172 -0.041864548
-0.015577987 -0.012914367 -0.0069932193 0.027845774 0.02911621 -0.0035045333 0.036597196 -0.031935394
0.025993329 0.018642377 -0.0047245286 -0.023502931 -0.006884914 0.02109361 0.026113 -0.003377784
0.017026067 0.003850598 0.02417833 -0.011847727 0.0040793195 0.0030810013 -0.016570918 0.02058233
0.042711187 -0.02081374 -0.0025498308 0.01378084 0.011891339 0.019665945 0.017180536 0.018049542
-0.038764827 0.0016548969 0.026666958 -0.0018074103 0.010498807 0.0068460815 -0.038517013 -0.012740824
0.010198422 -0.0012339875 -0.029729307 0.03339256 -0.042781994 0.011840772 -0.016136685 -0.033205
-0.041221082 0.036115084 0.027169477 0.0069794506 0.009647414 0.0053679757 -0.03457142 0.03733628
-0.023457218 -0.028664103 0.012376212 0.025332216 -0.023352094 -0.03200078 0.037645575 0.026312519
0.009522628 -0.030720036 0.029168155 0.011411719 -0.01783738 -0.04203393 0.027893681 0.01574298
-0.019043827 -0.033602264 -0.026709653 -0.01519032 0.031459656 -0.0074538663 0.043953065 0.031926345
-0.0036064833 0.005127039 0.016747598 -0.0292911 -0.01402981 -0.014337825 0.02345853 -0.003983762
0.037963923 0.005599167 -0.03300124 -0.032342553 0.037033137 -0.04003636 0.0026626475 -0.02886263
0.021841306 -0.011065118 0.039174113 -0.012007024 -0.014634049 0.0027296394 0.0044076815 0.012795623
-0.0060496964 -0.005304586 -0.028131066 0.023379717 0.013475038 0.014300767 -0.039267223 0.04192609
-0.013828592 0.040506955 -0.012012098 -0.0026138946 0.015845407 -0.033499755 -0.016053302 -0.008539863
0.021076206 0.0155392885 0.015274592 -0.043986004 0.008062772 -0.03443759 -0.0023321994 0.024238054
0.0106189735 -0.027272725 0.013651527 -0.024529038 0.014979284 0.015826058 0.03260688 -0.010190524
0.0362054 0.03677084 -0.023674427 -0.0018127002 -0.025680864 0.040146295 -0.035780635 -0.020685999
-0.02512048 -0.015738634 0.02801546 -0.0245806 0.0068243034 -0.03606947 -0.012995591 0.008502245
0.0013363771 -0.025248453 -0.041036427 -0.00022348017 0.012420446 0.0127759315 -0.019037716 0.017302945
0.0010830425 -0.034626774 0.024952251 0.005210109 -0.0126298815 0.010848794 -0.027176399 -0.026065202
-0.041674625 -0.02851271 0.044075113 -0.037425093 0.02210034 -0.03958352 0.03376173 0.002452597
0.0054507256 0.04344451 -0.011090662 0.019452553 0.035277132 -0.024091054 0.006346926 0.014476355
0.03883418 0.007983003 -0.0076789297 0.040389676 -0.02452839 0.034689415 0.012223482 0.016421106
-0.044082705 -0.010184027 0.0133022405 0.033265535 0.008913625 -0.0044440106 -0.042773813 0.020778965
0.026526596 0.03473034 0.025258917 0.004683152 0.026871812 0.015482102 0.04230568 -0.00695657
0.034290913 -0.019781597 -9.316206e-05 0.0057981983 -0.020669863 -0.021867076 -0.019142007 0.040622447
-0.02773976 -0.007349588 0.012791563 0.025242392 0.007311899 0.016909901 0.006155338 -0.008607823
0.040184665 -0.024264742 -0.0032947287 0.03955144 -0.024953995 0.012178548 -0.0426941 -0.00026432425
-0.0124846585 -0.02788031 -0.009536214 -0.011860102 -0.04059448 -0.036657512 -0.036944713 0.013702046
0.012892637 -0.038033307 -0.021756325 -0.012917444 0.006312996 0.035903547 0.04187886 -0.03671282

goal_map_encoder.block.2.bias f4 [64]
00000000: 0c05 a0bc b598 233d 72fc ec3c a7e0 13bd
00000010: 20bc 61bb 5d09 323d aa96 debc c4da dcbc
00000020: 6015 e6bc 0a4f b93c 663d d6bc 4431 54bc
00000030: 883a 4cbc 0871 a63b ec8e 4fbc f862 2cbc
00000040: a0ab c83b 80ef 3bbc b6be d93c 40a3 e6bb
00000050: 0427 7e3c cc87 1cbd 40f8 8b3c dcb7 483c
00000060: cb6e 253d e110 1cbd 0083 a9bb 0811 ffbb
00000070: e2dd b93c e438 58bc 6606 86bc c0a3 a4ba
00000080: ee68 b63c 1c5a 00bc 8df6 153d 4ebe 923c
00000090: 4eca d43c a7d4 27bd 5859 e53b 7fe0 313d
000000a0: 4a11 fb3c dcd0 1dbc c076 733a 22b4 b33c
000000b0: 706d b93b d930 313d e965 cabc 6ab0 d53c
000000c0: 4152 1c3d 08a9 05bd 2cf4 45bc 7fac cdbc
000000d0: d0e6 cfbb 25f2 2dbd c5da 04bd 3d8a 053d
000000e0: e30d 0bbd 72d0 d13c 20e0 ff3a 40a6 0fbd
000000f0: 966b fe3c a1c0 333d 6edc 15bd e82c 91bb
-0.019533657 0.039940555 0.028928969 -0.036102917 -0.0034444407 0.04346596 -0.027171452 -0.026959784
-0.028086364 0.022620697 -0.026152324 -0.012951199 -0.012465127 0.0050793923 -0.012668353 -0.010521643
0.006123975 -0.0114706755 0.026580196 -0.007038504 0.015512232 -0.038215443 0.017086148 0.012250867
0.040388864 -0.038102034 -0.005173087 -0.0077840127 0.02268881 -0.0131971575 -0.016360473 -0.0012561008
0.022266831 -0.007833984 0.036612082 0.01791301 0.025975373 -0.040974285 0.006999176 0.043426987
0.030647893 -0.0096323155 0.00092874095 0.02193648 0.005658798 0.043259475 -0.024706798 0.026085097
0.03816438 -0.032631904 -0.012082141 -0.025106667 -0.0063446537 -0.042467255 -0.032435197 0.032602537
-0.03394879 0.02561209 0.001952175 -0.035070658 0.03105716 0.043884877 -0.03658717 -0.004430402

goal_map_encoder.block.4.weight f4 [32, 64, 3, 3]
00000000: a844 ffbc 9e47 ddbc 0ec1 c0bc 86c4 d53c
00000010: 7b7e cdbc 0ca9 65bc 592b 043d c8f8 00bd
00000020: 00bd 0abc a4f3 0cbc 5b40 edbc 449b 623c
00000030: 000c 29bb 9329 233d 5726 0abd 4661 b9bc
00000040: 1c1c 25bd 93e1 b4bc b05a 06bd 0064 4ab8
00000050: 4fb2 23bd f008 d0bc c2a5 b33c 2a26 f13c
00000060: 89ea 233d c8c5 d93b 9ec1 9fbc 5e14 9ebc
00000070: d03c 0fbd 909e 34bc 0099 63bc 8bb5 debc
00000080: 231a 26bd a027 c23a e6e6 90bc 5884 99bb
00000090: 4057 693c f25f fc3c f08d a73c 5846 28bd
000000a0: acbb 35bc 5831 bfbc d63d 3ebc b8a6 a9bc
000000b0: 369f 3fbc ee30 9dbc c0e8 1fba 80e0 f23b
000000c0: fea7 dcbc 0aca e43c cec6 92bc 9351 223d
000000d0: a18f 063d b669 d43c 8aa8 d43c 43ec 253d
000000e0: 72b3 28bd fb09 8fbc 704e 113c c819 b43b
000000f0: 3c07 26bd a509 093d aab8 29bd ec46 403c
00000100: ee51 b9bc c0b7 d3bc 201c b5ba 90c1 fcbc
00000110: fb9c 9fbc 2bc0 dbbc d95b 0a3d 5632 9fbc
00000120: c27c 15bd e0d5 cdbc a8ef a43c d556 1c3d
00000130: c16a 003d dcba 24bc c05f 683a f738 27bd
00000140: f051 433b 08a4 f7bc 38e6 d8bb c08a 3cbb
00000150: ccf2 383c e03f ad3a 1403 6c3c f829 d03b
00000160: 102d 76bc 0ea4 d73c 53fc ecbc b84b 8cbb
00000170: 5cd7 693c c0ed 7dba 347f 0b3c 069b 38bc
00000180: 20e7 273c 6693 2cbc 7549 043d b8e9 893b
00000190: b0bc 043c 9aff ba3c 3be0 ffbc 9431 663c
000001a0: 4c91 3abc 0b32 eabc 94c5 7a3c 9881 89bc
000001b0: 5838 983b 6237 f03c 6939 0b3d 967d bdbc
000001c0: 00b4 7e3a 403f c23b 8ea4 e0bc 5063 4cbb
000001d0: 8218 d03c 2af1 913c 487f ca3b 003b 2f39
000001e0: 3972 293d 500f 3cbb 6c4a 553c b022 70bb
000001f0: b8e9 d2bb 2427 09bc 80ab f3bc 29f0 003d
00000200: fe46 8b3c 3614 a6bc d698 d93c 4a81 ef3c
00000210: 8480 7e3c d844 bfbc 61c1 1a3d bc28 2d3c
00000220: 73e1 22bd 8090 da39 a5c8 043d 7363 29bd
00000230: 573d 123d a2a4 d83c 6d6a 013d bb78 b6bc
00000240: 1804 86bc e4af 19bc e617 1cbd c63e c8bc
00000250: 9e07 c4bc 4ad7 b03c db8d 163d 1b1e c7bc
00000260: c6bc a2bc a0ac b6bb 720f e23c 768f 7abc
00000270: 2bb8 1bbd 7c76 5dbc 922d e93c a018 8fbb
00000280: b8f7 b43b 0d14 133d 4f77 0cbd 28d4 c3bb
00000290: cbd3 edbc dac0 c23c e087 e83a 995c 163d
000002a0: 2e16 b4bc 0acc 20bd d895 c9bb a0ec 853b
000002b0: 78c2 cf3b 4e86 96bc 7644 60bc e003 7bbc
000002c0: 8059 d43a f3f8 9fbc 3841 aabb b99b 273d
000002d0: 1021 2e3c 61bf 183d 2c96 013c 5a73 c03c
000002e0: e64f a63c cecb f33c 084e d23b c8f6 e0bc
000002f0: 118a 0e3d 00ba aa39 c8c2 953c 8649 66bc
00000300: 62e7 f43c 77b7 063d 086c 96bb db96 0e3d
00000310: 6e64 9cbc f079 243b 0912 1d3d 76e7 aa3c
00000320: 17af 21bd 6007 b03a 9812 efbc 1c53 7ebc
00000330: 004f 12bc 06a0 51bc 00c6 c5bc 50b2 123c
00000340: 0e62 b3bc 0044 fc39 00fe c9b8 8e08 f2bc
00000350: 20ce 893b 9a0a e63c 3a58 e33c 88e9 9f3c
00000360: 0ca4 333c 6c0f 51bc d0b9 fdbc 6025 d6bc
00000370: 5f25 10bd 96e5 933c 3807 f8bc ecf6 363c
00000380: 1375 e0bc e0a2 89ba bf49 273d ac31 1e3c
00000390: 9f35 06bd d0c3 2a3b c082 083a e646 78bc
000003a0: 92b7 de3c 504b 9e3c efd4 123d 0076 ae39
000003b0: 06c8 c03c 63c7 073d 04ae 0bbc d3ac 9abc
000003c0: 7294 f63c 5f92 063d 1fcb 063d b69d 81bc
000003d0: 1cdd 1cbc b0bb 413c 34ae 513c 5fbc 0e3d
000003e0: 4db5 163d 6ba3 23bd ed1d 123d 9793 20bd
000003f0: 28ea 95bc c066 4f3b 00a9 36bc a187 0d3d
-0.031160668 -0.027011689 -0.023529556 0.026094686 -0.025084725 -0.014017355 0.032267902 -0.031487256
-0.008467913 -0.00860301 -0.028961351 0.0138309635 -0.0025794506 0.03983457 -0.03372797 -0.022629391
-0.04031001 -0.022080218 -0.03280133 -4.8253685e-05 -0.03996497 -0.025394887 0.021929625 0.029437143
0.040018592 0.006645892 -0.019501504 -0.019296821 -0.034970105 -0.011024132 -0.0138914585 -0.027186176
-0.04055227 0.0014812835 -0.017688226 -0.004684966 0.014241993 0.030807469 0.020453423 -0.04108271
-0.011092108 -0.023338959 -0.0116114225 -0.02070938 -0.011695674 -0.01918837 -0.0006100051 0.0074120164
-0.026935574 0.027928371 -0.017917063 0.039628576 0.03285182 0.025929313 0.025959272 0.04050852
-0.041186757 -0.017460814 0.008868799 0.0054962374 -0.040534243 0.033456463 -0.041435875 0.011735659
-0.022622075 -0.025844455 -0.0013817586 -0.030854017 -0.019484034 -0.026825031 0.033779 -0.019433182
-0.03649593 -0.025126398 0.020133808 0.038168747 0.03135181 -0.010054316 0.00088643655 -0.04082581
0.0029803477 -0.030229583 -0.006619241 -0.0028769225 0.011288356 0.0013217889 0.014405031 0.0063526593
-0.015025392 0.026323345 -0.028928911 -0.0042814873 0.014272537 -0.00096866116 0.008514214 -0.011267429
0.010247976 -0.010533189 0.032296617 0.0042087696 0.008101627 0.022826958 -0.031234851 0.014049906
-0.011387181 -0.028588315 0.015305895 -0.016785428 0.0046453886 0.029323284 0.033990297 -0.023131173
0.0009716153 0.00592795 -0.027422216 -0.0031187125 0.025402311 0.017815191 0.006179724 0.0001671128
0.041368697 -0.002869565 0.013018232 -0.003664177 -0.006436553 -0.008371148 -0.029744864 0.031479035
0.017001625 -0.02027331 0.026562136 0.029236455 0.01553357 -0.023348257 0.037782077 0.010568794
-0.039765786 0.0004168786 0.032417912 -0.041354608 0.03570303 0.02644569 0.031595636 -0.022274366
-0.016359374 -0.0093803145 -0.03810873 -0.024443995 -0.023929413 0.021587033 0.036756378 -0.024306348
-0.019865405 -0.0055747777 0.027595256 -0.015292993 -0.038017433 -0.013517018 0.028464112 -0.004366949
0.0055226944 0.035907794 -0.03429347 -0.0059762187 -0.029031655 0.0237736 0.0017740689 0.0367094
-0.021983232 -0.039257087 -0.006151896 0.004087046 0.006340321 -0.018374588 -0.013688197 -0.015320748
0.001620099 -0.019527888 -0.005195763 0.040919993 0.010628 0.03729189 0.007909339 0.023492504
0.02030177 0.029760268 0.0064179935 -0.027461424 0.03479964 0.00032563508 0.018281356 -0.014055615
0.029895488 0.03288981 -0.004590515 0.034811836 -0.019090857 0.0025097094 0.038347278 0.020862322
-0.03947362 0.0013429932 -0.02918367 -0.0155227445 -0.008929968 -0.0127945 -0.024142265 0.008953646
-0.021897342 0.0004811585 -9.631738e-05 -0.029545095 0.00420548 0.028081227 0.02775203 0.019520536
0.010964405 -0.0127600245 -0.030972391 -0.026140869 -0.03519189 0.018053811 -0.03027688 0.011167269
-0.027399575 -0.0010500811 0.040841814 0.009655397 -0.03276598 0.0026056655 0.00052074715 -0.015153622
0.027187143 0.019323021 0.0358476 0.00033275783 0.023532879 0.033149134 -0.008525375 -0.018881237
0.030100081 0.032854434 0.032908555 -0.015822273 -0.009574201 0.011824533 0.012797881 0.034847613
0.036793996 -0.03995077 0.03567307 -0.039203253 -0.018300131 0.0031646937 -0.011148691 0.034553174

goal_map_encoder.block.4.bias f4 [32]
00000000: e62b a0bc cc52 4fbc 4efc e53c e80b 14bd
00000010: f1b1 113d 7830 9f3c e0e7 703c 0133 213d
00000020: 1dac 133d f652 abbc 6a87 a33c 22f8 de3c
00000030: 92bf d43c a0e2 b0ba 80cc 29bd 428d f33c
00000040: 447b 0fbc d437 17bc 2a04 d33c 6bd2 21bd
00000050: 1865 e3bc a0eb 05bc f3ae 27bd f625 ff3c
00000060: 7ea5 933c 8367 023d 4245 913c 2c8e 563c
00000070: daac 873c fbaf 22bd d209 17bd 0040 25bd
-0.019552182 -0.012654018 0.02807441 -0.036144167 0.03557009 0.019432291 0.014703721 0.03935528
0.036052812 -0.020913582 0.019962031 0.027217928 0.025970254 -0.0013495274 -0.041454792 0.029730443
-0.008757416 -0.009229619 0.025758822 -0.03950731 -0.027758166 -0.008173853 -0.04093833 0.03114603
0.018023249 0.031836998 0.01773322 0.01309542 0.016561914 -0.03971861 -0.0368746 -0.04034424
