project/ckpt/actor_0.ckpt (torch, 747967 bytes, 26 tensors)

map_encoder.block.0.weight f4 [32, 1, 8, 8]
0	0xbd268298	-0.040651888
1	0x3c667bf0	0.014067635
2	0x3db3d5be	0.087810025
3	0xbddc2112	-0.10748495
4	0x3d36594c	0.044518754
5	0x3c060bb0	0.008181497
6	0xbda4a2d6	-0.08038871
7	0x3dc845d4	0.09778944
8	0x3df46fb6	0.1193537
9	0x3d7efa08	0.062250167
10	0x3b89e600	0.0042083263
11	0xbdeaa2f2	-0.114568606
12	0x3aa47c80	0.0012549311
13	0x3dcae41a	0.09906788
14	0xb9a7d400	-0.00032010674
15	0x3c747c70	0.014922246
16	0xbaf71880	-0.0018851906
17	0xbdad0ba8	-0.08449489
18	0xbc37b4a0	-0.011212498
19	0x3db895a6	0.09012918
20	0x3dc34ff8	0.09536737
21	0xba7ab000	-0.0009562969
22	0x3dcbc05a	0.099487975
23	0xbd184d2c	-0.03718297
24	0xbdf73062	-0.12069775
25	0x3d31271c	0.04325019
26	0xbc104da0	-0.00880757
27	0xbdf23f56	-0.118284866
28	0xbde46686	-0.11152367
29	0xbd6ab3fc	-0.057300553
30	0xbdb6c99c	-0.08925173
31	0xbdea65f6	-0.11445229
32	0x3c95c758	0.018283531
33	0xbc9fe180	-0.019516706
34	0x3dbe7fa0	0.09301686
35	0xbd8b5b74	-0.06804553
36	0xbc20ea90	-0.009821549
37	0x3d841a8a	0.064503744
38	0x3d0f5634	0.03499432
39	0x3dde77ae	0.10862671
40	0x3de16f60	0.11007571
41	0x3a7a9700	0.0009559244
42	0x3d348a48	0.044077188
43	0xbd256c7c	-0.040386662
44	0x3d97592e	0.073900566
45	0x3d5371a4	0.051622048
46	0x3d5a10b8	0.0532386
47	0x3c3aa540	0.011391938
48	0x3b951fa0	0.004550889
49	0xbdd384ec	-0.10328087
50	0x3d4987ec	0.04920189
51	0xbdcf902e	-0.10134922
52	0x3d172f64	0.03691043
53	0x3dad9540	0.08475733
54	0x3c526300	0.012840986
55	0xbc9b46b8	-0.01895462
56	0x3d298d60	0.04139459
57	0xbcb9de98	-0.022689149
58	0xbd2052e8	-0.039141566
59	0x3de3b11a	0.11117764
60	0x3de32ef2	0.110929385
61	0xbd90c516	-0.07068841
62	0xbd702324	-0.058627263
63	0x3c9c7760	0.019099891
64	0xbd502f40	-0.05082631
65	0x3d7d3128	0.061814457
66	0x3da00a7e	0.07814501
67	0xbd2ef850	-0.042717278
68	0x3d544d34	0.05183144
69	0xbd35c828	-0.044380337
70	0xbcd29588	-0.025706068
71	0x3d9ef6ba	0.07761903
72	0xbd4796b8	-0.04872772
73	0xbd2ac060	-0.04168737
74	0xbd6f7634	-0.058462337
75	0xbbeb07e0	-0.0071725696
76	0xbdc86924	-0.09785679
77	0xbd6642d0	-0.05621606
78	0x3cde4680	0.027133226
79	0x3d9e6174	0.077334315
80	0x3de50996	0.11183469
81	0xbda468f0	-0.08027828
82	0x3cc6ae28	0.024252966
83	0xbdcd4a90	-0.10023987
84	0xbc28bbe0	-0.010298699
85	0xbb6c0c40	-0.0036018044
86	0xbdb700c4	-0.08935693
87	0xbd502ac4	-0.050822034
88	0x3dedfe78	0.11620802
89	0xbd997cde	-0.0749452
90	0xbdfb978c	-0.12284765
91	0x3dc20c26	0.094749734
92	0xbd078f98	-0.033095926
93	0x3decee7a	0.11568923
94	0x3dca865c	0.09888908
95	0x3d553008	0.05204776
96	0x3c4f4300	0.012650251
97	0xbdfbef50	-0.123015046
98	0xbc866be0	-0.01640886
99	0x3ddd4704	0.10804561
100	0xbd770080	-0.06030321
101	0xbda8ceae	-0.08242546
102	0xbdad0892	-0.084489
103	0xbd6c4ce8	-0.05769053
104	0x3b0bf3c0	0.0021355003
105	0x3dc5bf9e	0.09655689
106	0x3c0c8a10	0.008577839
107	0xba15ad00	-0.0005709678
108	0x3d0bed00	0.034161568
109	0xbd8f9d2a	-0.070123985
110	0xbdff018e	-0.124514684
111	0x3da8207c	0.08209321
112	0x3d4be93c	0.049782977
113	0x3d2fc404	0.042911544
114	0xbd5a0610	-0.053228438
115	0x3c9360b8	0.017990455
116	0x3d1dae30	0.038496196
117	0x3d500af4	0.050791696
118	0xbd98195c	-0.07426712
119	0x3db043fe	0.086067185
120	0x3d87f7e2	0.06639077
121	0x3deeb4ae	0.11655556
122	0x3dbe55de	0.092937216
123	0x3dbfd156	0.093660995
124	0x3a82e080	0.0009985119
125	0x3d59c464	0.05316581
126	0xbc4d5b60	-0.0125339925
127	0xbc503090	-0.012706891
128	0x3dd88ff6	0.10574333
129	0xbded4b46	-0.11586623
130	0xbdfc5410	-0.12320721
131	0xbd94e13a	-0.07269521
132	0x3dad44fe	0.08460425
133	0xbdaa25e0	-0.08308005
134	0x3de44cf8	0.11147493
135	0xbc4b43e0	-0.012406319
136	0xbd8bb736	-0.06822054
137	0xbcfd7d18	-0.030943438
138	0xbd6ff714	-0.05858524
139	0xbda806b2	-0.08204402
140	0xbdf17564	-0.117899686
141	0x3d7ddc24	0.06197752
142	0xbda3cd9e	-0.07998203
143	0x3bfcb100	0.0077115297
144	0xbda99ed0	-0.08282244
145	0xbde90540	-0.113779545
146	0xbdfea2fa	-0.12433429
147	0xbdfb1c02	-0.122612014
148	0x3dce212e	0.10064922
149	0xbdd53fea	-0.10412581
150	0x3c7f25a0	0.015572935
151	0xbd73e544	-0.059544817
152	0xbc7f72f0	-0.015591368
153	0x3c4171d0	0.01180692
154	0x3dbf0d82	0.09328748
155	0xbd995266	-0.074864194
156	0x3d7fbfd8	0.062438816
157	0xbd99682c	-0.07490572
158	0xbdfe47ac	-0.12416014
159	0xbde855f6	-0.11344521
160	0x3dae03dc	0.0849683
161	0x3dbb2872	0.09138574
162	0xb89dd800	-7.5265765e-05
163	0x3d830f50	0.06399405
164	0x3c352730	0.011056706
165	0xbd5c5648	-0.05379322
166	0xbcd0e9b0	-0.025502056
167	0x3dfb4ca0	0.122704744
168	0xbdc1f2c2	-0.094701305
169	0x3d278b24	0.04090418
170	0x3d29738c	0.04136996
171	0x3bbe2e60	0.005803868
172	0x3d036e58	0.032087654
173	0x3d9ccf94	0.0765678
174	0xbd8899f2	-0.06669988
175	0x3d7e29d8	0.062051624
176	0xbc4c6320	-0.012474805
177	0xbddd0148	-0.1079126
178	0xbd2190fc	-0.03944491
179	0x3d66d8ec	0.056359217
180	0x3da88884	0.08229163
181	0xbdddcd1c	-0.10830137
182	0xbdf004d0	-0.11719668
183	0xbd9fcfac	-0.07803282
184	0x3d0aba6c	0.033869192
185	0xbbb07580	-0.005385101
186	0xbdc050a6	-0.093903825
187	0xbcf92f98	-0.030418202
188	0xbd4a3250	-0.049364388
189	0xbddc17cc	-0.107467264
190	0x3cf217f8	0.029552445
191	0x3d36baac	0.044611618
192	0x3d9bab16	0.076009914
193	0x3db7e126	0.089784905
194	0xbdce22c4	-0.10065225
195	0xbce7ff88	-0.028320089
196	0xbd939558	-0.072062194
197	0xbdc9fcf0	-0.09862697
198	0xbd19db68	-0.037562758
199	0xbcc2f008	-0.023796096
200	0xbd8c2ab4	-0.068440825
201	0xbdeca024	-0.11553982
202	0xbda6f68e	-0.08152495
203	0x3d430ca0	0.047619462
204	0x3d984542	0.07435085
205	0x3d766960	0.060159087
206	0x3dbfcd4c	0.09365329
207	0xbd9cd760	-0.07658267
208	0xbddeb97a	-0.108752206
209	0x3dec32ee	0.115331516
210	0xbcd79820	-0.026317656
211	0x39eed200	0.0004555136
212	0xbd02e888	-0.03196004
213	0x3de21628	0.11039382
214	0x3d1e3628	0.038625866
215	0xbd3ebdc4	-0.046567693
216	0x3d317b78	0.04333064
217	0x3dc7ddce	0.09759103
218	0x3c8005e0	0.015627801
219	0x3d7b34c8	0.061329633
220	0xbda9528e	-0.08267699
221	0x3dfb5d46	0.1227365
222	0xbd180ed8	-0.03712353
223	0xbdc6051c	-0.09668943
224	0x3d67cccc	0.056591794
225	0xbc846880	-0.01616311
226	0xbdb6bfee	-0.089233264
227	0x3ddf9290	0.109166265
228	0x3de37a38	0.11107296
229	0x3d9c2028	0.07623321
230	0xbba50140	-0.0050355494
231	0x3dfe4944	0.12416318
232	0xbd9c334a	-0.0762697
233	0xbde07dc4	-0.10961488
234	0xbd20b590	-0.03923565
235	0x3de14c86	0.11000924
236	0x3df5aa58	0.11995381
237	0xbdf6529c	-0.12027475
238	0xbdd498d4	-0.10380712
239	0x3dd8b9d2	0.105823174
240	0x3d9621fa	0.07330699
241	0xbdb3fa42	-0.08787967
242	0x3d9e9fd8	0.077453315
243	0xbdd57a08	-0.10423666
244	0x3deebb80	0.116568565
245	0xbd0c39cc	-0.034234807
246	0x3df4019c	0.119143695
247	0xbdf80ae0	-0.12111449
248	0x3c9537c0	0.01821506
249	0xbdd6f42a	-0.10495789
250	0xbcf0b918	-0.029385135
251	0x3d208680	0.03919077
252	0x3dbe10fe	0.09280585
253	0x3d78ac28	0.060711056
254	0xbdf5d12a	-0.120027855
255	0x3c7f3a40	0.015577853

map_encoder.block.0.bias f4 [32]
0	0x3cbcf518	0.023066089
1	0x3d3b2ff0	0.045700014
2	0xbd40fcb8	-0.04711601
3	0x3cb91028	0.022590712
4	0x3d09299c	0.033486947
5	0x3ca49d28	0.02009447
6	0x3d9c82da	0.076421455
7	0xbd80a0c4	-0.062806636
8	0x3d274fb4	0.040847495
9	0x3dcd3494	0.10019794
10	0x3d2cac04	0.042156234
11	0xbde512a2	-0.111851946
12	0xbdb660c4	-0.08905175
13	0x3d730478	0.059330434
14	0xbdaa54ac	-0.08316931
15	0xbcad9208	-0.021187797
16	0xbac3cc80	-0.0014938265
17	0xbd4cfc5c	-0.050045356
18	0xbd790054	-0.06079133
19	0x3dfb8b16	0.12282388
20	0xbdb41f1e	-0.08794998
21	0xbdcc0f14	-0.099638134
22	0x3d986a6e	0.07442175
23	0x3980e000	0.00024580956
24	0xbdfd3d8e	-0.12365256
25	0xbcb48998	-0.022038266
26	0x3c16ca20	0.009203464
27	0x3dc98ff8	0.09841913
28	0x3d7f61f4	0.062349275
29	0x3d0dff28	0.034667164
30	0xbd8b9eb4	-0.068173796
31	0x3d8b58dc	0.06804058

map_encoder.block.2.weight f4 [64, 32, 4, 4]
0	0xbc014368	-0.007889606
1	0x3d0ed7b3	0.034873676
2	0x3c771f74	0.015083183
3	0xbc78f558	-0.015195213
4	0x3cf4a6ae	0.029864635
5	0x3ceea8fa	0.029133309
6	0xbc224bbc	-0.009905752
7	0xbc0e2664	-0.008676145
8	0xbc25ed58	-0.010127388
9	0xbcc767af	-0.024341432
10	0xbd1aceff	-0.037795063
11	0xbba66630	-0.0050780997
12	0x3b089340	0.002083972
13	0xbd247470	-0.040150106
14	0xbd2d6460	-0.042332053
15	0xbc1c6598	-0.009545706
16	0xbb130f00	-0.002243936
17	0x3c97e6fe	0.018542763
18	0x3ca654fe	0.0203042
19	0xbd24cfef	-0.040237363
20	0x3bd1aac0	0.006398529
21	0xbc1792cc	-0.009251308
22	0x39917000	0.00027740002
23	0xbd2ba2e3	-0.041903388
24	0x3c880982	0.016606096
25	0xbcf205bc	-0.02954375
26	0xbba12270	-0.0049174353
27	0x3d31713f	0.04332089
28	0x3d028d8b	0.031873267
29	0xbd298b1d	-0.041392434
30	0x3c447a60	0.011992067
31	0xbbdfe710	-0.0068329647
32	0xbd244180	-0.04010153
33	0x39cf1b80	0.00039502606
34	0x3cb4c772	0.02206776
35	0x3ccd7422	0.02507979
36	0x3d183199	0.037156675
37	0xbd1fe4bb	-0.039036494
38	0x3c874fe4	0.016517587
39	0x3b81d968	0.0039626844
40	0xbd1e9833	-0.038719367
41	0x3b3a0800	0.0028386116
42	0xbd0ad47f	-0.03389406
43	0x3c635dfc	0.013877388
44	0xbd0c7cf7	-0.034298863
45	0xbcbe9e20	-0.02326876
46	0xbc9772ff	-0.018487452
47	0xbc2d0e68	-0.010562517
48	0x3cad0466	0.021120261
49	0xbd33ad8e	-0.043866687
50	0xbbba05e8	-0.0056769736
51	0x3cf9e126	0.030502867
52	0xbce49814	-0.027904548
53	0x3ca3a0fa	0.01997422
54	0x3cce4b5e	0.025182422
55	0xbd318dd8	-0.043348163
56	0xbd054a3d	-0.032541502
57	0xbb971e00	-0.0046117306
58	0x3aa45c60	0.0012539737
59	0xbd079c79	-0.03310821
60	0xbcc73d83	-0.024321323
61	0xbc4b4968	-0.012407638
62	0xbc9151ed	-0.01773926
63	0x3c9a231a	0.018815566
64	0x3c8eb728	0.01742132
65	0x3b24e0e0	0.002515845
66	0x3cde30c2	0.027122859
67	0xbd2a7c3d	-0.04162239
68	0xbc7815e0	-0.015141934
69	0xbd15b47b	-0.036549073
70	0xbc83520b	-0.016030332
71	0x3d196777	0.037452187
72	0xbbf64008	-0.0075149573
73	0x3c5c4fd4	0.013446767
74	0xba8292c0	-0.0009961948
75	0xbce383f7	-0.027772887
76	0xbcf74af3	-0.030187106
77	0x3cc45cd2	0.023970041
78	0x3c0bd3d4	0.0085343905
79	0x3ac65ea0	0.0015134402
80	0xbb03bcc0	-0.0020101517
81	0xbc89119c	-0.01673203
82	0x3cf1c8ce	0.029514696
83	0x3d11f10b	0.035630267
84	0xbd205730	-0.03914565
85	0x3cd43546	0.025904309
86	0x3c66bc4c	0.014082979
87	0x3ba6eec8	0.005094383
88	0xbd0b47a8	-0.034003884
89	0xbb17c180	-0.0023156106
90	0x3d32261f	0.043493386
91	0x3d045951	0.03231174
92	0xbc42c924	-0.011888776
93	0xbcf81a08	-0.03028585
94	0x3a881fe0	0.0010385476
95	0xbbe36608	-0.0069396533
96	0x3d10b721	0.035330895
97	0xbd301068	-0.042984396
98	0xbc8b57e1	-0.017009677
99	0x3d2d6ca7	0.042339947
100	0xbd1563c9	-0.036472116
101	0xbd17a93a	-0.03702662
102	0xbcd13338	-0.025537118
103	0xbc4317b4	-0.011907507
104	0xbd0185ba	-0.031621672
105	0x3d307a39	0.04308531
106	0x3c54c8f0	0.01298736
107	0x3b5ae8f0	0.0033403002
108	0x3cec3f42	0.028838757
109	0xbc9537e3	-0.018215125
110	0xbbf037d8	-0.007330876
111	0x3b6597c0	0.0035033077
112	0x3d1b47d3	0.037910294
113	0xbd1d4449	-0.0383952
114	0x3b8f84a8	0.0043798275
115	0x3d1a2e53	0.037641834
116	0xbc3f38e4	-0.011671279
117	0x3c80c71c	0.015719943
118	0xbc06bb48	-0.008223362
119	0x3cdf1556	0.027231853
120	0xbd328fe8	-0.04359427
121	0xbce2bc84	-0.027677782
122	0x3ce1b356	0.027551334
123	0xbc559e9e	-0.013038306
124	0x3d038761	0.03211153
125	0xbd2431cc	-0.040086553
126	0x3b10b110	0.0022078194
127	0x3cd96eca	0.026542086
128	0xbb469090	-0.0030298568
129	0xbc314388	-0.010819323
130	0x3a9b08e0	0.0011828206
131	0xbd1e1961	-0.038598422
132	0x3cc503b2	0.024049614
133	0xbccee3a8	-0.02525504
134	0xbd1e34d8	-0.038624614
135	0xbcf65426	-0.030069422
136	0x3d2e6fed	0.04258721
137	0xbc6452aa	-0.013935724
138	0xbd2a98ce	-0.041649632
139	0xbd2fe6da	-0.042944767
140	0x3c93ac1a	0.0180264
141	0xbd103792	-0.035209246
142	0x3b4bbf90	0.0031089522
143	0x3d31a355	0.043368656
144	0xbc9bf512	-0.019037757
145	0x3cb191aa	0.021675903
146	0xbab31d40	-0.0013665333
147	0x3b772720	0.003771253
148	0x3d15ee03	0.03660394
149	0xbd295b0f	-0.041346606
150	0x3c876408	0.01652719
151	0x3d0d260f	0.034460124
152	0x3d34cf53	0.044143032
153	0x3be9ebb8	0.0071386956
154	0xbd12afec	-0.035812303
155	0xbcc1a952	-0.023640309
156	0xbc6db0c4	-0.014507476
157	0xbd143918	-0.03618726
158	0x3c96bb92	0.018399987
159	0x3d17575b	0.036948543
160	0xbd314d8f	-0.043286856
161	0x3ce68c4a	0.028143067
162	0xbc4e64b4	-0.012597252
163	0x3c988862	0.01861972
164	0x3b5fec30	0.0034167878
165	0xbc3bf034	-0.011470843
166	0x3d065e8f	0.03280502
167	0x3c05914c	0.008152317
168	0x3c40d91c	0.011770513
169	0x3d0b8d8d	0.03407054
170	0x3cef41a6	0.029206108
171	0x3bef9910	0.0073119476
172	0x3cd4458a	0.025912065
173	0x3cf194fa	0.029489983
174	0x3ca1f26e	0.01976892
175	0x3b1917f0	0.0023360215
176	0x3d041b6b	0.03225271
177	0x3c915eee	0.017745461
178	0x3ca2f966	0.019894313
179	0xbce81f08	-0.02833511
180	0x3cc82c2a	0.024435122
181	0x3c76cf74	0.015064109
182	0xbc8adb2f	-0.016950218
183	0xbd21c77b	-0.03949688
184	0x3d0e7bbb	0.034785967
185	0xbbac4ed0	-0.0052584186
186	0x3d321493	0.043476652
187	0xbcda7dc8	-0.026671305
188	0x3bc129e8	0.005894888
189	0x3d2428db	0.040078025
190	0xbc199744	-0.009374443
191	0x3bded168	0.0067998655
192	0xbd01972f	-0.03163832
193	0xbc24c418	-0.010056518
194	0x3d173593	0.036916327
195	0x3d1eec47	0.03879955
196	0xbca296a8	-0.01984723
197	0xbb5333e0	-0.0032226965
198	0x3d222d8b	0.039594214
199	0x3cb6d20e	0.022316959
200	0x3cb233fa	0.0217533
201	0x3bfb64a0	0.0076719075
202	0xbc914c5b	-0.017736604
203	0x3d123521	0.0356952
204	0x3cc82f2a	0.024436552
205	0x3c279d90	0.010230437
206	0xbb372220	-0.0027943924
207	0xbcff2902	-0.031147484
208	0xbc7dc3d2	-0.015488582
209	0x3caea9a6	0.021321129
210	0x3c743614	0.014905471
211	0xbcf4c568	-0.029879287
212	0xbc8d2d17	-0.017233415
213	0x3d00b10d	0.03141885
214	0x3ccfffc6	0.025390517
215	0xbd2d36e2	-0.04228867
216	0xbd17591c	-0.036950216
217	0x3d2f8de5	0.04285993
218	0xbc159d5c	-0.009131756
219	0x3cc9fd7a	0.024657
220	0x3c1b0408	0.00946141
221	0xbd1cecd2	-0.038311787
222	0xbc5c0f76	-0.013431421
223	0x3cfd7192	0.030937944
224	0x3d03397f	0.032037254
225	0xbd2a9108	-0.04164222
226	0x3d32ec61	0.04368246
227	0xbd2b99dd	-0.041894782
228	0x3c215680	0.009847283
229	0xbd109cc6	-0.03530576
230	0xbbc13890	-0.0058966354
231	0x3d1918d1	0.037377182
232	0x3c9e47aa	0.019321281
233	0x3ca90432	0.020631883
234	0xbd094af8	-0.03351876
235	0x3d11c2a7	0.035586026
236	0xbcab5f4d	-0.020919466
237	0xbd25613d	-0.040375937
238	0x3bebd918	0.0071975105
239	0x3bc85ee8	0.0061148293
240	0xbc85bcf6	-0.016325455
241	0xbc798236	-0.015228799
242	0xbd062a12	-0.032754965
243	0x3ce1feca	0.027587313
244	0x3be2eab8	0.0069249533
245	0x3d2f5d43	0.04281355
246	0xbbbe49e8	-0.00580715
247	0xbc84a03b	-0.016189685
248	0xbc0a0e04	-0.008426193
249	0x3bb179a8	0.005416114
250	0xbc2c69cc	-0.010523271
251	0xbcba5720	-0.022746623
252	0xbc6ff5fe	-0.014646051
253	0xbd1a8089	-0.037720237
254	0xbbba5838	-0.005686786
255	0xbc830a95	-0.015996257

map_encoder.block.2.bias f4 [64]
0	0x3d1a2733	0.03763504
1	0xbd20ce44	-0.03925921
2	0x3cec656e	0.02885696
3	0xbb9a6158	-0.0047113113
4	0x3c95b2a2	0.018273655
5	0x3c85ca40	0.016331792
6	0xbaa6c860	-0.0012724511
7	0xbcfadb6d	-0.030622208
8	0xbc410c84	-0.011782769
9	0x3d282c19	0.04105768
10	0xbcd03079	-0.025413739
11	0x3ce760d2	0.02824441
12	0x3d33f64d	0.043936063
13	0x3d23b25f	0.03996503
14	0x3d178aef	0.03699773
15	0xbc0e052c	-0.008668225
16	0xbcbe7421	-0.023248734
17	0x3d0e284d	0.034706403
18	0xbba5b218	-0.005056631
19	0x3d09115f	0.033463832
20	0xbce85f28	-0.028365687
21	0xbcd4aa26	-0.02596004
22	0x3c7a344c	0.015271258
23	0x3c883810	0.016628295
24	0x3bc64a08	0.0060513057
25	0xbb93cad0	-0.004510261
26	0x3c5ab444	0.013348643
27	0xbd20ef96	-0.039290987
28	0xbd22868f	-0.039679106
29	0x3b869730	0.0041073784
30	0xbc8d5fd3	-0.017257607
31	0x3c306880	0.010767102
32	0xbd2a3f1b	-0.04156409
33	0xbc698082	-0.01425183
34	0xbb5b1510	-0.0033429302
35	0xbb082e40	-0.002077952
36	0xbc53cddc	-0.012927499
37	0x3bd3c140	0.006462246
38	0x3c91fbbc	0.017820232
39	0xbc34274c	-0.010995697
40	0x3bdccb60	0.0067381114
41	0xbaf2d8a0	-0.0018527694
42	0x3cf9260e	0.030413654
43	0x3c6b8950	0.014376
44	0xbb2efd00	-0.0026701093
45	0x3cacae22	0.021079127
46	0xbcbe49ec	-0.023228608
47	0xbd15eb5e	-0.036601417
48	0x3cadf67e	0.0212357
49	0x3c608a64	0.01370487
50	0xbac4af80	-0.0015005916
51	0xbcf23ee9	-0.029571014
52	0x3b2a00f0	0.00259405
53	0x3bdced18	0.006742131
54	0x3c9f75f6	0.019465428
55	0x3d0bb9cf	0.034112748
56	0x3d1c3c9f	0.03814375
57	0x3d063d01	0.03277302
58	0xbce259a2	-0.02763063
59	0x3d044da5	0.03230061
60	0xbd225fd4	-0.03964217
61	0x3d08d077	0.033401933
62	0xbca46299	-0.020066546
63	0xbc71ef76	-0.014766565

map_encoder.block.4.weight f4 [32, 64, 3, 3]
0	0x3d16f5a9	0.036855374
1	0x3b6fc0c0	0.0036583394
2	0xbd223cfb	-0.039608937
3	0x3d0114b9	0.031513903
4	0x3d20cad5	0.039255936
5	0x3ca19326	0.019723486
6	0xbc0767f0	-0.008264527
7	0x3c3a89d4	0.0113854
8	0x3cdd876a	0.02704211
9	0xbd0122ba	-0.03152726
10	0x3c8a3a58	0.016873524
11	0xbd07d8c2	-0.0331657
12	0x3bd5f1a8	0.006529052
13	0x3cd0d6c2	0.02549303
14	0x3bfbb988	0.007682029
15	0xbd085184	-0.033280864
16	0xbc5a171c	-0.013311174
17	0x3c8ff806	0.017574321
18	0xbca56266	-0.020188522
19	0xbb006590	-0.0019591786
20	0x3bfc0f68	0.0076922663
21	0xbb8a8c58	-0.004228156
22	0xbcc31fee	-0.023818936
23	0x3c096d44	0.008387867
24	0xbd1067f0	-0.035255373
25	0xbca76060	-0.020431697
26	0x3c9a50de	0.018837389
27	0x3d145463	0.03621329
28	0x3ae0cca0	0.0017150827
29	0xbd0e78a0	-0.034783006
30	0xbbd0cf78	-0.0063723885
31	0x3cef7b9a	0.029233743
32	0xbc8cf44b	-0.017206332
33	0xbbfa20c8	-0.0076333024
34	0xbd04d9c3	-0.032434236
35	0xbcae1433	-0.021249866
36	0x3d1dedf1	0.038556997
37	0x3d25cd99	0.040479276
38	0xbcdcb03b	-0.026939502
39	0xbc09bef4	-0.008407343
40	0xbbe82a88	-0.0070851482
41	0x3ca8d370	0.020608634
42	0xbc1bcc44	-0.00950915
43	0x3c45281c	0.012033489
44	0xbb17bdb0	-0.0023153834
45	0xbca7271b	-0.02040439
46	0xbc9afd56	-0.018919628
47	0x3cf6500e	0.03006747
48	0xbc3c4c80	-0.011492848
49	0xbd13886c	-0.036018774
50	0x3cd3f0b2	0.025871608
51	0xbcb8155b	-0.02247112
52	0x3cd4cd8a	0.025976915
53	0x3cc6a27a	0.024247397
54	0x3cc9981e	0.024608668
55	0x3c91598e	0.017742898
56	0x3d0242cd	0.031801987
57	0xbbf3a6d8	-0.007435661
58	0x3ce91bea	0.028455693
59	0x3c015654	0.007894117
60	0xbc7af8c6	-0.015318101
61	0x3d1943af	0.037418064
62	0xbbee3260	-0.0072691888
63	0x3cc3a336	0.023881536
64	0xbcac5996	-0.021038812
65	0xbbd32ee8	-0.0064448006
66	0xbc599c66	-0.013281917
67	0x3c503480	0.0127078295
68	0xbc9c3213	-0.019066846
69	0xbc822e86	-0.015891325
70	0xbb0f6430	-0.0021879785
71	0x3c98e346	0.01866306
72	0xbc4018cc	-0.011724662
73	0x3c18e1f0	0.009331211
74	0x3d1dfc8f	0.038570937
75	0xbad0d9a0	-0.0015933998
76	0x3c8a3bb0	0.016874164
77	0x3c188800	0.009309769
78	0xbd1e8820	-0.038704038
79	0x3bae1ad8	0.0053132586
80	0x3c6de19c	0.0145191215
81	0x3a8fcea0	0.0010971613
82	0x3b2b8a70	0.0026175044
83	0xbcf7cca3	-0.030248946
84	0xbd282be3	-0.04105748
85	0xbd247236	-0.040147983
86	0xbc81a696	-0.015826505
87	0x3cd24bd2	0.02567092
88	0xb9c8ae00	-0.00038276613
89	0x3af88e60	0.001896333
90	0x3bd62a68	0.006535817
91	0x3d08e9bf	0.033426043
92	0xbd0a1882	-0.03371478
93	0xbcbb03d6	-0.022828978
94	0xbd190ff4	-0.03736873
95	0xbc08d17c	-0.008350726
96	0x3b5897d0	0.0033049472
97	0xbc07624c	-0.008263182
98	0x3d27fe55	0.041014034
99	0xbd19bda2	-0.037534364
100	0x3b039a40	0.0020080954
101	0x3c608cf0	0.013705477
102	0xb961bc00	-0.00021527708
103	0xbd21cf6c	-0.039504454
104	0xbd0cf48f	-0.034412917
105	0x3d1480d9	0.03625569
106	0xbcf54493	-0.029939925
107	0x3b408b70	0.0029379986
108	0xbc076fa4	-0.008266363
109	0x3d141e5d	0.03616177
110	0x3c04131c	0.008061197
111	0x3ce6e7ae	0.028186645
112	0x3d0686f9	0.032843564
113	0x3d0edc33	0.034877967
114	0x3a28f440	0.00064450875
115	0x3cc31ff2	0.023818944
116	0x3c771d3c	0.015082654
117	0xbd053cce	-0.03252869
118	0x3d0279b3	0.031854343
119	0x3c106df0	0.008815274
120	0x3b670430	0.0035250299
121	0xbd0d2ceb	-0.034466665
122	0x3c910046	0.017700326
123	0x3c3b25f4	0.011422623
124	0xbd0be34e	-0.03415232
125	0xba95a9e0	-0.0011418425
126	0x3d28ae69	0.041181955
127	0xbb1dd9c0	-0.0024086088
128	0xbb13fb70	-0.0022580288
129	0x3b94be08	0.004539255
130	0x3c9cb27a	0.019128073
131	0x3c420690	0.011842385
132	0x3cfabdfe	0.030608173
133	0x3d072dff	0.03300285
134	0xbc644710	-0.013932958
135	0xbbb3a328	-0.005482096
136	0xbbdda078	-0.006763514
137	0x3c5b6fa0	0.013393313
138	0xbd1a1078	-0.037613362
139	0xbc8432eb	-0.01613756
140	0x3d238ca5	0.03992905
141	0xbba7e1d8	-0.005123358
142	0x3c3daab0	0.01157634
143	0x3d0ee2f5	0.03488441
144	0xbd188edf	-0.037245627
145	0x3c530f8c	0.012882125
146	0xbc012b4c	-0.007883858
147	0x3bb66d28	0.0055672117
148	0xbbe08e28	-0.006852884
149	0xbc81facb	-0.015866658
150	0x3d1fb41b	0.03899012
151	0x3c945f4e	0.018111851
152	0x3cf0caca	0.029393572
153	0x3c87fd76	0.016600352
154	0x3b1e17d0	0.002412308
155	0x3c003f6c	0.007827621
156	0x3c4c9b90	0.012488261
157	0xbc641a6c	-0.013922315
158	0x3d2621f5	0.040559728
159	0x3cb0fb1a	0.02160411
160	0xbc65478c	-0.013994109
161	0xbd1f89b7	-0.038949694
162	0x3c993302	0.01870108
163	0xbc11414c	-0.008865666
164	0x3d0d5dcd	0.034513284
165	0x3cec645a	0.028856445
166	0xbc643b4c	-0.013930153
167	0xbcb9e2a8	-0.022691086
168	0xbc72bae0	-0.014815062
169	0xbd0de33a	-0.03464053
170	0x3d1e9bb9	0.038722727
171	0x3a8a59e0	0.0010555349
172	0xbd17c633	-0.037054252
173	0x3c3460ec	0.011009436
174	0x3b522980	0.0032068193
175	0x3c66b680	0.014081597
176	0x3cc1af42	0.02364314
177	0xbc95ab18	-0.01827006
178	0x3d09f953	0.03368504
179	0xbcdf3bfb	-0.02725028
180	0x3c8b2b4e	0.016988423
181	0x3b930fe0	0.0044879764
182	0xbd0fb176	-0.03508135
183	0xbc60a376	-0.013710847
184	0x3c9f7102	0.019463066
185	0x3d27bcdd	0.0409516
186	0xbbd68168	-0.006546188
187	0xbcd796e6	-0.026317071
188	0xbcace643	-0.021105891
189	0xbcdd067b	-0.02698063
190	0xbcb05df8	-0.021529183
191	0xbae193e0	-0.0017210208
192	0x3d0cf131	0.034409706
193	0x3d1bf839	0.03807852
194	0x3c5b8a60	0.01339969
195	0xbc9d6606	-0.019213688
196	0x3d0bf417	0.03416833
197	0xbceb3fa8	-0.028716877
198	0x3caa475a	0.020785976
199	0x3cda3c02	0.026639942
200	0xbd2a7be2	-0.04162205
201	0x3bd63e60	0.0065381974
202	0x3cadcd22	0.021215979
203	0x3c6e7940	0.014555275
204	0xbc9a145e	-0.01880854
205	0xbc278b84	-0.010226134
206	0xbb88c320	-0.0041736513
207	0x3d1ca32d	0.038241554
208	0x3c49ecbc	0.012324508
209	0x3b2d3030	0.0026426427
210	0x3c9f4d78	0.01944612
211	0xbc7b2c70	-0.015330419
212	0xba4a14c0	-0.00077087805
213	0xbc9218b6	-0.017834049
214	0x3b295680	0.0025838912
215	0x3c789274	0.015171636
216	0xbc36adcc	-0.011149835
217	0x3d23fc5b	0.040035587
218	0xbd0244b7	-0.031803813
219	0xbc40075c	-0.011720505
220	0x3c30c814	0.01078989
221	0xbd0e7853	-0.03478272
222	0x3d199aa7	0.037501004
223	0xbca6d930	-0.020367235
224	0xbb555fb0	-0.0032558255
225	0xbd03b360	-0.032153487
226	0x3cbd5042	0.023109559
227	0x3c94c798	0.01816158
228	0x3c78e760	0.015191883
229	0xbd153414	-0.03642662
230	0x3c2ec6b4	0.010667492
231	0xbb34cdf0	-0.0027588569
232	0x3c8b0776	0.016971331
233	0x3c06ea70	0.008234605
234	0xbd086f04	-0.033308998
235	0x3d12aa03	0.035806667
236	0xbc8a1730	-0.01685676
237	0xbca509ee	-0.020146336
238	0xbcd029ce	-0.025410559
239	0x38dee800	0.00010628998
240	0x3ca58292	0.020203862
241	0x3cc70a12	0.024296794
242	0x3d2017f1	0.039085332
243	0xbd0fc23c	-0.035097346
244	0xbbf97a48	-0.007613454
245	0xbbebdc00	-0.007197857
246	0x3d11b449	0.035572324
247	0x3cfe507a	0.031044234
248	0x3d27f18d	0.041001845
249	0xbd09ffe0	-0.033691287
250	0x3d0593f1	0.03261179
251	0xbc1f9c44	-0.0097418465
252	0x3cb39faa	0.02192672
253	0x3b670c10	0.0035254993
254	0xbccf3b98	-0.025296971
255	0x3c9887be	0.018619414

map_encoder.block.4.bias f4 [32]
0	0xbc9757bb	-0.01847445
1	0x3c8dd182	0.017311815
2	0x3d0a144d	0.033710767
3	0x3cf6929a	0.030099202
4	0xbd0c3158	-0.034226745
5	0x3c31fb24	0.010863099
6	0xbce96763	-0.028491681
7	0x3d195551	0.03743488
8	0x3c8f021a	0.017457057
9	0x3c0830d4	0.008312423
10	0xbb804be0	-0.003915295
11	0x3c94741a	0.018121768
12	0xbb8011c8	-0.0039083697
13	0xbcdd2ca3	-0.026998824
14	0x3baa02a0	0.005188301
15	0xbc9a9c80	-0.018873453
16	0x3c8f0a66	0.017461013
17	0xbd27473e	-0.040839426
18	0x3cb1462e	0.02163991
19	0x3d19cabb	0.037546854
20	0xbac03da0	-0.0014666803
21	0x3c94ec8a	0.018179197
22	0xbb37fd70	-0.0028074645
23	0x3c783d80	0.0151513815
24	0xbc23b92c	-0.009992879
25	0x3cb2e0ea	0.021835763
26	0x3b74b230	0.0037337653
27	0xbc46d52c	-0.012135785
28	0xbca95b2e	-0.02067336
29	0xbcadae40	-0.021201253
30	0xbd1ce9b2	-0.038308807
31	0xbcc33913	-0.023830926

goal_map_encoder.block.0.weight f4 [32, 1, 8, 8]
0	0xbd85c0ee	-0.06530939
1	0x3ce17b80	0.02752471
2	0xbcd1cd48	-0.025610581
3	0x3c29c320	0.010361463
4	0xbc1f10b0	-0.009708568
5	0x3d2cb464	0.04216422
6	0x3d5f6950	0.054543793
7	0xbde57e3c	-0.11205718
8	0xbda4c17e	-0.08044718
9	0xbcad9f90	-0.02119425
10	0x3d971fc6	0.07379107
11	0xbd298184	-0.04138328
12	0xbc8689f8	-0.01642321
13	0xbdbae28e	-0.09125243
14	0x3c4d69a0	0.01253739
15	0xbd9391b2	-0.072055236
16	0x3bf0b460	0.007345721
17	0x3ca961b0	0.020676464
18	0x3c9fa0d8	0.019485876
19	0x3dc5e3e2	0.09662606
20	0xbdbf27c0	-0.093337536
21	0xbd800d74	-0.06252566
22	0xbd2cf490	-0.04222542
23	0x3d39b764	0.04534091
24	0xbc9b4c40	-0.018957257
25	0xbd8eaf00	-0.06966972
26	0x3de23c1c	0.11046621
27	0x3d82ae0a	0.063808516
28	0xbd26dba8	-0.040736824
29	0xb8e09800	-0.000107094646
30	0x3dbb1770	0.0913533
31	0xbd06f35c	-0.03294693
32	0xbdecf868	-0.11570817
33	0x3dfc0140	0.12304926
34	0xbdedda12	-0.11613859
35	0x3db186c6	0.08668284
36	0x3b950440	0.004547626
37	0xbd866dd8	-0.0656392
38	0x3d2a8078	0.041626424
39	0xbc9993a0	-0.01874715
40	0xbde19570	-0.11014831
41	0xbdd1abaa	-0.102378204
42	0x3df63ed8	0.12023705
43	0x3ccb5958	0.024822876
44	0x3d574644	0.052557245
45	0x3d004430	0.03131503
46	0x3d212b78	0.039348096
47	0x3db53c8e	0.088494405
48	0x3cf8d5c0	0.030375361
49	0xbd85c656	-0.0653197
50	0xbac84780	-0.0015280098
51	0xbdfab01c	-0.122406214
52	0xbdd17d28	-0.1022895
53	0x3df060d4	0.117372185
54	0xbca0b280	-0.019616365
55	0x3c4520f0	0.012031779
56	0x39cbf000	0.0003889799
57	0x3dee60c4	0.1163955
58	0xbd2e86c8	-0.042609006
59	0xbd9d18f6	-0.076707765
60	0xbdf8194a	-0.121141985
61	0xbde16ce2	-0.11007096
62	0xbda8aed6	-0.08236472
63	0x3cf5a1e8	0.02998443
64	0x3d240d08	0.04005149
65	0x3c271370	0.010197505
66	0xbc2130a0	-0.009838253
67	0xbdae4fa0	-0.08511281
68	0x3dbd26d2	0.0923592
69	0x3d4500dc	0.048096523
70	0x3df919f0	0.1216315
71	0xbc231940	-0.009954751
72	0x3dabb544	0.08384183
73	0x3d35ce64	0.044386283
74	0xbdc8da48	-0.09807259
75	0xbc0dfe00	-0.008666515
76	0x3cc3eec8	0.02391757
77	0x3d732770	0.059363782
78	0x3d9aeca4	0.07564667
79	0x3b9c9120	0.0047780424
80	0xbd486a18	-0.048929304
81	0xbdf5aab4	-0.1199545
82	0x3d8747dc	0.06605503
83	0x3d5049e8	0.050851732
84	0x3de56f16	0.112028286
85	0xbdab56ee	-0.0836619
86	0xbb93b3c0	-0.004507512
87	0x3d570ee4	0.052504435
88	0x3ba311e0	0.004976496
89	0x3d710e5c	0.058851585
90	0x3d85b5f6	0.06528847
91	0xbdbac5c0	-0.09119749
92	0xbd37c9c0	-0.04487014
93	0x3cb45f58	0.02201812
94	0xbdead128	-0.11465675
95	0x3ced95c0	0.02900207
96	0x3deb6bac	0.11495146
97	0x3db655ba	0.0890307
98	0xbdfdd00a	-0.12393196
99	0x3da17490	0.07883561
100	0xbd0a38e8	-0.033745676
101	0xbdd84ac8	-0.105611384
102	0xbddf6e9e	-0.109097704
103	0xbd9e5b74	-0.07732287
104	0xbd2ea45c	-0.042637214
105	0x3d2a7958	0.04161963
106	0xbd191dd4	-0.037381962
107	0xbc188e10	-0.009311214
108	0x3d0f21a4	0.03494419
109	0x3d94b9e0	0.07262015
110	0xbde31a9c	-0.1108906
111	0xbd582728	-0.052771717
112	0x3c92d7b0	0.017925113
113	0xbd806d56	-0.06270854
114	0x3d94a7f2	0.072585955
115	0xbd6cecbc	-0.057842955
116	0x3d819818	0.06327838
117	0x3c2b7e60	0.010467142
118	0x3dbcb6f0	0.0921458
119	0xbd0a99c0	-0.033838034
120	0x3da43d3e	0.080194935
121	0xbdb5199c	-0.08842775
122	0x3d88b44e	0.066750154
123	0x3d148884	0.036263004
124	0x3b33d480	0.0027439892
125	0xbd1d4c38	-0.038402766
126	0x3dcd08f4	0.10011473
127	0xbc03a6a0	-0.008035332
128	0x3cab11d0	0.020882517
129	0xbc3eb190	-0.011639014
130	0xbcec6d38	-0.028860673
131	0xbdb9ae9e	-0.09066509
132	0xbdf029cc	-0.11726722
133	0x3dd98eee	0.10622965
134	0xbdcb760e	-0.099346265
135	0xbd64783c	-0.055778727
136	0x3cac89b8	0.021061763
137	0xbd975ce6	-0.07390766
138	0xbd23744c	-0.03990583
139	0x3d20e78c	0.03928332
140	0xbb8678e0	-0.004103765
141	0xbdf75a4c	-0.1207777
142	0xbde35252	-0.11099686
143	0x3dd10a38	0.10207027
144	0x3d6b4564	0.057439223
145	0x3dc60046	0.09668021
146	0xbcc20aa0	-0.023686707
147	0xbdc7b762	-0.09751774
148	0x3df3813e	0.11889885
149	0xbb1ca800	-0.0023903847
150	0xbde2924a	-0.11063059
151	0xbca77ca0	-0.020445168
152	0xbd83a9ee	-0.06428896
153	0xbc1f23a0	-0.0097130835
154	0xbdd7a4a0	-0.105294466
155	0xbc96e630	-0.018420309
156	0x3d986624	0.07441357
157	0x3d77f308	0.060534507
158	0xbd8c321a	-0.068454936
159	0x3db6def2	0.08929242
160	0x3dc9e0e4	0.098573476
161	0x3afa1880	0.0019080788
162	0xbdc6c510	-0.097055554
163	0x3d07c100	0.033143044
164	0x3db776b6	0.08958189
165	0x3d939b2c	0.07207331
166	0x3cc09d18	0.023512408
167	0x3d8d6c7c	0.069054574
168	0xbd505dbc	-0.050870642
169	0xbdaaa63c	-0.08332488
170	0x3dbbd990	0.09172356
171	0xbdec010c	-0.11523637
172	0xbdb77694	-0.08958164
173	0x3daa599a	0.083178714
174	0xbdb20098	-0.086915195
175	0x3de4bfe2	0.11169411
176	0x3d6f49b0	0.058419883
177	0x3c4687b0	0.012117311
178	0x3bc28200	0.0059359074
179	0x3dcba0a2	0.09942748
180	0xbdaa04d6	-0.08301704
181	0x3d9de172	0.07709016
182	0xbddca104	-0.10772899
183	0x3dbef3fe	0.093238816
184	0x3c1036f0	0.008802161
185	0x3d24e544	0.040257707
186	0x3df0df76	0.11761372
187	0x3defe1e6	0.117130086
188	0xbccf8170	-0.025330275
189	0x3d9a4a68	0.07533723
190	0xbd5cb824	-0.053886548
191	0xbd155194	-0.036454752
192	0xbd3d0960	-0.04615152
193	0xbd3bfad8	-0.04589352
194	0xbb6ca2c0	-0.0036107749
195	0x3baf1be0	0.005343899
196	0xbd3220f4	-0.043488458
197	0xbd785838	-0.060631007
198	0xbd919900	-0.071092606
199	0xbd81e09e	-0.063416705
200	0xbd1a90c0	-0.0377357
201	0xbdbd8a70	-0.092549205
202	0x3c28eec0	0.010310829
203	0xbd0ba904	-0.034096733
204	0x3d8fd928	0.07023841
205	0x3dab5cb0	0.08367288
206	0xbd920524	-0.07129887
207	0x3dab90f2	0.083772555
208	0x3d99c940	0.075090885
209	0x3d25946c	0.04042475
210	0x3d8f4886	0.069962546
211	0x3dd2c62e	0.10291706
212	0xbd445f38	-0.04794237
213	0xbc8dfc58	-0.017332241
214	0x3ca4f868	0.02013798
215	0x3d773840	0.06035638
216	0x3d69baac	0.05706279
217	0xbd51d95c	-0.05123268
218	0x3daf4b7c	0.085593194
219	0x3cb16408	0.021654144
220	0x3de6fa0c	0.112781614
221	0xbcf8e138	-0.03038083
222	0x3be7d060	0.007074401
223	0x3d6fd7ec	0.05855553
224	0xbd1a29a4	-0.037637368
225	0x3c6023e0	0.013680428
226	0xbd0512d0	-0.032488644
227	0x3dc0f436	0.094215795
228	0x3cb73d40	0.022368073
229	0xbd7b9d18	-0.061429113
230	0xbd0ba1e4	-0.034089938
231	0xbdaca8bc	-0.08430621
232	0xbce46270	-0.02787897
233	0x3dd4aca0	0.10384488
234	0x3db179ee	0.08665834
235	0xbd928a78	-0.07155317
236	0xbd3df510	-0.046376288
237	0xbd780ca0	-0.060558915
238	0x3db5571a	0.08854504
239	0x3def3c20	0.1168139
240	0xbc41f2c0	-0.011837661
241	0x3d8cb53e	0.06870507
242	0x3d6f3e74	0.05840917
243	0x3b2f7ac0	0.0026776046
244	0x3ddd6ce4	0.10811785
245	0xbd89a3ee	-0.0672072
246	0x3d1722f4	0.03689857
247	0xbdb0f31e	-0.08640121
248	0x3d8b913a	0.06814809
249	0x3df73664	0.12070921
250	0x3cdbfdd0	0.026854426
251	0x3d58eee8	0.052962214
252	0x3d28e920	0.04123795
253	0xbdc7c5d6	-0.09754531
254	0xbd8d6cf8	-0.0690555
255	0xbde91e08	-0.11382681

goal_map_encoder.block.0.bias f4 [32]
0	0xbde1e6a4	-0.11030319
1	0x3d4edc7c	0.05050324
2	0xbaea8f80	-0.001789555
3	0xbdb74724	-0.08949116
4	0x3d35fcd8	0.044430584
5	0xbc9dc8b8	-0.01926075
6	0xbddd61b2	-0.108096495
7	0xbd4e7740	-0.050406694
8	0xbdab3d7e	-0.08361338
9	0x3de8737c	0.11350152
10	0xbd9e538c	-0.07730779
11	0xbd3e33c8	-0.0464361
12	0x3c9b3ae0	0.018948972
13	0xbc7bb4d0	-0.015362933
14	0x3db67380	0.089087486
15	0xbca84060	-0.020538509
16	0xbd3e1394	-0.04640539
17	0x3d3ec550	0.04657489
18	0xbde22c9c	-0.11043665
19	0x3cd8a390	0.02644518
20	0x3dbb01d2	0.091312066
21	0x3dbe82e4	0.09302309
22	0x3cf7d9c0	0.030255198
23	0x3d6b3164	0.05742015
24	0xbd6af8cc	-0.057366177
25	0xbde09654	-0.10966173
26	0xbd4a13f0	-0.04933542
27	0x3d50256c	0.05081694
28	0xbc445930	-0.011984155
29	0xbd9dff9e	-0.07714771
30	0x3dfe4e5e	0.12417291
31	0x3df9dec4	0.12200692

goal_map_encoder.block.2.weight f4 [64, 32, 4, 4]
0	0xbc321c30	-0.010870978
1	0xbc224350	-0.009903744
2	0x3c042694	0.008065838
3	0x3b9b66a0	0.0047424585
4	0x3d144191	0.03619534
5	0x3b96b5c8	0.0045993067
6	0xbd04a302	-0.03238202
7	0xbc5c20a8	-0.01343552
8	0x3c9246aa	0.01785596
9	0x3cb4867e	0.022036787
10	0x3d156645	0.036474485
11	0x3d069171	0.032853547
12	0xbd23c81b	-0.039985757
13	0xbb5ecc30	-0.0033996217
14	0x3b4371c0	0.002982244
15	0xbcb4da6c	-0.022076808
16	0x3c6a2aa4	0.014292393
17	0x3c9a78ca	0.018856425
18	0x3d021f5b	0.031768184
19	0x3cef0882	0.029178862
20	0xbcd7497e	-0.026280161
21	0xbb6e0df0	-0.0036324225
22	0xbd27bae2	-0.04094971
23	0x3ca79cb6	0.020460468
24	0xbc9d4d03	-0.019201761
25	0xbb364cb0	-0.0027816705
26	0x3c88e5c2	0.01671112
27	0xbd15e834	-0.0365984
28	0x3d174c99	0.036938284
29	0x3cb5f31e	0.022210654
30	0x3b39b890	0.0028338768
31	0x3c0eebd8	0.008723222
32	0x3ce59a2e	0.02802762
33	0x3cf8c60a	0.03036787
34	0x3d22b627	0.039724495
35	0xbd290689	-0.041265998
36	0xbca65b4c	-0.020307206
37	0x3d1a0fe7	0.037612822
38	0xbd24ff28	-0.0402824
39	0xbd1695cc	-0.03676395
40	0x3ca8905e	0.020576652
41	0xbd103d67	-0.035214808
42	0xbc51062c	-0.012757819
43	0xbd01d7f1	-0.03170008
44	0x3d0ecbd7	0.034862366
45	0x3d267509	0.040638957
46	0xbcf850de	-0.030311998
47	0xbc39cfb8	-0.011341028
48	0xbc84db81	-0.016217949
49	0xbc9f8ca7	-0.019476248
50	0xbd2d3b85	-0.04229309
51	0xbb934c50	-0.004495181
52	0xbb295750	-0.0025839396
53	0xbd2beea4	-0.041975632
54	0x3c87bb02	0.016568664
55	0x3d2e5ed7	0.042570915
56	0xbc8269a6	-0.015919518
57	0xbc8a1d79	-0.016859757
58	0x3b8f2608	0.0043685474
59	0xbcc91428	-0.024545744
60	0xba921e40	-0.0011147931
61	0x3c5c51dc	0.013447251
62	0xbc0e7f78	-0.008697383
63	0x380d3800	3.3669174e-05
64	0xbbcc7d80	-0.0062405467
65	0x3d2708b9	0.040779803
66	0xbc48d364	-0.012257431
67	0xbc8ddadc	-0.017316274
68	0xbd323ace	-0.04351311
69	0x3ceb8c52	0.028753433
70	0xbd20ef05	-0.039290447
71	0x3d11a61b	0.0355588
72	0x3cf92a56	0.030415695
73	0x3c8d4522	0.01724488
74	0x3d027a2f	0.031854805
75	0xbd18ed1f	-0.03733551
76	0xbc9f4619	-0.019442605
77	0xbc597b4a	-0.013274023
78	0xbcfc4fda	-0.030799795
79	0x3d0342c9	0.032046113
80	0xbc9de8b0	-0.019275993
81	0x3c92575c	0.017863922
82	0xbc72d85c	-0.014822092
83	0xbd2aca68	-0.041696936
84	0x3bd46c20	0.006482616
85	0xbd1d0359	-0.03833327
86	0x3acaabc0	0.0015462562
87	0x3d0d81f9	0.03454778
88	0x3cc0cdfe	0.023535725
89	0xbd32828a	-0.043581523
90	0x3c390648	0.0112930015
91	0x3bb74230	0.005592607
92	0x3aa582e0	0.0012627505
93	0xbd066b17	-0.032816973
94	0xbcf42ac2	-0.029805545
95	0xbcae5aa5	-0.021283457
96	0xbc894094	-0.016754426
97	0xbc8064a2	-0.015672985
98	0xbca63b39	-0.020291911
99	0xbc052e3c	-0.008128699
100	0x3ced16de	0.028941568
101	0x3ce4a2fa	0.027909745
102	0xbd0c98ba	-0.03432534
103	0x3be4e2e0	0.0069850534
104	0x3d0f5e15	0.035001833
105	0xbc9348bf	-0.017979024
106	0xbc3cd69c	-0.011525776
107	0xbd1cb216	-0.038255773
108	0x3ce4dfe6	0.027938794
109	0xbd04cad8	-0.03242001
110	0x3acce480	0.0015632063
111	0x3c8652a2	0.016396824
112	0x3cee9d5e	0.029127773
113	0x3c23a478	0.009987943
114	0xbd04b929	-0.032403145
115	0xbc83487f	-0.01602578
116	0xbc5df3e0	-0.013546914
117	0xbc731050	-0.014835432
118	0x3cedf92e	0.029049482
119	0x3d228eb7	0.039686885
120	0xbd068181	-0.03283835
121	0xbc866ab3	-0.0164083
122	0x3d2f51f1	0.042802755
123	0x3b457d80	0.0030134618
124	0x3bfa87e8	0.007645596
125	0x3cb4e43e	0.02208149
126	0x3c38921c	0.011265304
127	0x3d1d8a3b	0.038461905
128	0xbcba1a01	-0.022717478
129	0x3cbc5012	0.0229874
130	0x3c8816bc	0.016612403
131	0xbca8eedf	-0.020621715
132	0x3cf75812	0.030193362
133	0x3d1786e3	0.036993872
134	0x3cd4f67a	0.025996435
135	0xbbec3428	-0.007208366
136	0xbd2bdc74	-0.041958287
137	0x3ca60926	0.020268034
138	0xbcd5ca7f	-0.026097534
139	0xbbda1530	-0.006655358
140	0xbbdfbee0	-0.006828174
141	0x3d162201	0.036653522
142	0xbd1bd409	-0.03804401
143	0xbc37ffb4	-0.011230398
144	0x3d1b820d	0.037965823
145	0xbcd1c5ad	-0.025606954
146	0xbcfe1f0a	-0.03102066
147	0x3c946d9e	0.018118676
148	0x3d3454df	0.044026252
149	0xbc012340	-0.007881939
150	0x3bdc5a90	0.006724663
151	0x3cee4492	0.029085431
152	0x3c9e9e6e	0.019362655
153	0xbbd46080	-0.0064812303
154	0xbcec4126	-0.028839659
155	0xbbdeade0	-0.00679563
156	0x3cc45d6e	0.023970332
157	0x3d0e2bef	0.034709867
158	0xbd2030e5	-0.03910913
159	0xbc9ecf9f	-0.01938611
160	0x3ce76176	0.028244715
161	0x3cdf747e	0.027277227
162	0xbcf9fcc4	-0.030516036
163	0x3c05dc4c	0.008170199
164	0xbbabda48	-0.005244527
165	0xbc6cc262	-0.014450641
166	0xbd0d2687	-0.03446057
167	0xbb4dbb10	-0.0031392016
168	0xbd2ef074	-0.042709783
169	0xbc0022cc	-0.007820796
170	0x3c308754	0.010774452
171	0xbcb623d9	-0.02223389
172	0xbcc22a67	-0.02370186
173	0x3d1135f1	0.035451833
174	0x3c78c0e4	0.015182707
175	0x3c95757e	0.018244501
176	0x3d017aa5	0.031611104
177	0x3b989e88	0.0046575703
178	0xbcfe4b3e	-0.031041738
179	0xbd1d513a	-0.03840754
180	0xbc8df4f8	-0.017328724
181	0x3c987e82	0.018615011
182	0x3cdae41e	0.026720103
183	0xbd347737	-0.044059005
184	0xbc892114	-0.016739406
185	0x3cf806ca	0.030276675
186	0x3c112cb8	0.008860759
187	0x3c8873de	0.016656812
188	0xbcd829a2	-0.02638704
189	0x3c031c20	0.008002311
190	0xbcf94b50	-0.03043142
191	0x3cc8829e	0.024476346
192	0x3d089203	0.033342373
193	0x3a1dd700	0.0006021112
194	0xbc469f84	-0.012122992
195	0xbd0652b5	-0.03279372
196	0x3c5d3cb8	0.013503246
197	0x3cd520de	0.026016649
198	0xbc5f00b0	-0.013611004
199	0xbc238924	-0.009981427
200	0x3d0159c7	0.03157976
201	0xbd0254ef	-0.03181928
202	0xbd2efda1	-0.042722348
203	0xbac2e1e0	-0.0014868341
204	0x3d215cc1	0.039395098
205	0x3c8fe5de	0.017565664
206	0xbcab6cfb	-0.02092599
207	0x3d02fdab	0.031980198
208	0x3cf4966e	0.029856887
209	0xbb3031a0	-0.0026885048
210	0x3b8a1d10	0.0042148903
211	0x3bac1950	0.005252041
212	0xbc4c7588	-0.0124791935
213	0x3bc3ef08	0.0059794225
214	0xbcd8f6da	-0.026484895
215	0xbb6ea090	-0.003641162
216	0xbc507138	-0.012722306
217	0xbc950241	-0.018189551
218	0x3c679ef8	0.014137022
219	0x3d21d08b	0.039505523
220	0xbcd59c14	-0.0260754
221	0xbd02aebe	-0.03190493
222	0xbbe3f370	-0.0069565102
223	0x3d176787	0.036963966
224	0x3ab1c500	0.0013562739
225	0xbbbb1088	-0.005708758
226	0x3d287d25	0.041134972
227	0x3cf4507e	0.029823538
228	0xbd3130d0	-0.04325944
229	0xbd0addb4	-0.03390284
230	0xbc6e6e4c	-0.014552664
231	0x3ca5881e	0.020206507
232	0xbc1df068	-0.009639837
233	0x3cb4b98e	0.022061136
234	0xbcf8133a	-0.030282605
235	0x3d291d43	0.04128767
236	0xbb50e810	-0.0031876601
237	0x3cccd836	0.025005441
238	0x3ccbc1da	0.024872709
239	0x3d0c1d37	0.03420755
240	0xbce6886c	-0.028141223
241	0xbcb3095b	-0.021855047
242	0x3b835488	0.0040078796
243	0x3c90e9a4	0.017689534
244	0xbcc2a38a	-0.023759622
245	0x3bdf8540	0.0068213046
246	0xbca86461	-0.020555677
247	0x3cf3ac1a	0.02974515
248	0xbd02587c	-0.031822667
249	0xbce4ce54	-0.027930416
250	0x3d0dca49	0.034616742
251	0x3be3edd8	0.0069558434
252	0xbcedf1a8	-0.029045895
253	0xbd261b26	-0.040553235
254	0xbc7ab332	-0.015301513
255	0xbbc90398	-0.0061344616

goal_map_encoder.block.2.bias f4 [64]
0	0xbc919b17	-0.017774148
1	0x3d29dce7	0.041470435
2	0x3d2719bf	0.040796038
3	0x3c5d6960	0.013513893
4	0xbc1bf850	-0.0095196515
5	0x3d190f8f	0.037368353
6	0x3cf56db6	0.02995954
7	0x3d24e77d	0.040259827
8	0xbd2c2761	-0.042029742
9	0x3d0c94ad	0.034321476
10	0xbad640e0	-0.0016346239
11	0x3c44da20	0.012014896
12	0xbbf64b60	-0.0075163096
13	0x3cd5914e	0.026070263
14	0xbcbb0cdf	-0.022833286
15	0x3c28ebdc	0.0103101395
16	0x3d015551	0.031575505
17	0xbc48bc38	-0.012251906
18	0x3c695478	0.01424133
19	0xbc033774	-0.0080088265
20	0x3d2e1863	0.042503726
21	0xbcfa5ad2	-0.030560885
22	0x3c0ae10c	0.008476507
23	0x3cd7f7c6	0.026363265
24	0xbd32513d	-0.043534506
25	0x3d01eb87	0.031718757
26	0xbd2e3f9d	-0.042541135
27	0xbc10835c	-0.008820381
28	0x3d0b7ee5	0.034056563
29	0x3ca3ad92	0.019980226
30	0x3d21fbf3	0.039546918
31	0xb9227700	-0.00015493855
32	0x3c093f24	0.00837687
33	0x3cd4000a	0.025878925
34	0x3cc6b53e	0.024256345
35	0xbceebe1c	-0.029143386
36	0x3b63df70	0.003477063
37	0x3c3c2dcc	0.011485528
38	0xbcf6acd5	-0.03011171
39	0xbd124d12	-0.03571803
40	0xbd0cdb90	-0.03438908
41	0x3ca478fa	0.020077217
42	0xbcf0229a	-0.029313374
43	0x3d004ce7	0.03132334
44	0xbb7880a0	-0.0037918463
45	0xbd23bc4c	-0.039974496
46	0x3d14b8db	0.036309104
47	0xbbbbde18	-0.0057332627
48	0x3c7a23ec	0.0152673535
49	0x3ca7ed42	0.020498876
50	0x3bc2a7c0	0.0059404075
51	0xbd3387f9	-0.043830846
52	0x3cf5b2aa	0.02999242
53	0x3d1e6719	0.03867254
54	0x3b1c5780	0.0023855865
55	0xbc6b5efa	-0.014365906
56	0x3ca51ea6	0.020156216
57	0x3ce63a92	0.0281041
58	0xbc913456	-0.017725151
59	0xbc0a2640	-0.008431971
60	0x3cf27f8a	0.029601831
61	0xbc016094	-0.007896561
62	0x3c03cf4c	0.008045029
63	0xbbc942a0	-0.0061419755

goal_map_encoder.block.4.weight f4 [32, 64, 3, 3]
0	0xbd07f3c0	-0.033191442
1	0xbd2234fe	-0.03960132
2	0xbc1723d4	-0.009224851
3	0x3c6ca260	0.01444301
4	0xbca36dc8	-0.019949809
5	0x3c8a0656	0.016848724
6	0x3bd449a8	0.006478507
7	0xbc7d577c	-0.015462752
8	0xbc474706	-0.012162929
9	0xbc14c180	-0.009079337
10	0xbd1edb18	-0.038783163
11	0xbc7df3fc	-0.015500065
12	0x3d11b067	0.03556862
13	0x3d2321f1	0.03982729
14	0xbccbd1b8	-0.024880275
15	0x3c930fba	0.017951835
16	0xbd164487	-0.036686447
17	0xbd18f7fc	-0.03734587
18	0xbc1fec44	-0.00976092
19	0x3d1ae011	0.037811343
20	0xbcd5e15b	-0.026108434
21	0xbaa61e00	-0.0012673736
22	0x3c4d633c	0.012535866
23	0xbcbc19ee	-0.022961583
24	0x3c5a0b30	0.013308331
25	0xbd1e13f3	-0.038593244
26	0xbcc86433	-0.024461841
27	0x3cdcc706	0.02695037
28	0xbc43943c	-0.011937197
29	0xbca13590	-0.01967886
30	0x3b782e50	0.0037869401
31	0x3c26cc2c	0.010180514
32	0x3caa8fa8	0.020820454
33	0xbcbf9f20	-0.023391306
34	0xbc922c53	-0.017843401
35	0xbd20296c	-0.039102003
36	0xb94d9500	-0.0001960583
37	0xbb09a240	-0.002100125
38	0x3c4d110c	0.012516271
39	0xbc7ce80c	-0.015436184
40	0xbb0d34c0	-0.0021546334
41	0x3c5d1380	0.013493419
42	0x3c705714	0.014669199
43	0xbd115a33	-0.03548641
44	0x3be19138	0.0068837665
45	0x3b526390	0.00321028
46	0xbcd39326	-0.025827002
47	0x3bfedf28	0.007778067
48	0xbcf89ebb	-0.030349126
49	0xbb9bc948	-0.004754219
50	0x3cbd50d2	0.023109827
51	0xbcdb4836	-0.026767831
52	0x3aed79a0	0.0018117912
53	0x3c2d50bc	0.010578331
54	0x3cd9ecc6	0.02660216
55	0x3ca235f8	0.019801125
56	0x3cc48186	0.023987543
57	0x3ce132fa	0.027490128
58	0x3d2852bd	0.04109453
59	0xbac49360	-0.0014997534
60	0x3c22c390	0.009934321
61	0xbc4aafd6	-0.012371024
62	0xbb078dd0	-0.0020683892
63	0xbb5d0fc0	-0.0033731312
64	0xbc9d8ba0	-0.019231617
65	0xbb817118	-0.0039502494
66	0xbd08914f	-0.033341702
67	0xbc2a477c	-0.01039302
68	0x3ccbfc3a	0.024900544
69	0x3cbb272a	0.022845823
70	0x3c9541c6	0.01821984
71	0x3ceb9d32	0.02876148
72	0xbd01239c	-0.0315281
73	0xbcbe9e78	-0.023268923
74	0xbbb04d58	-0.005380314
75	0x3bec01e0	0.007202372
76	0x3cc6c72e	0.024264898
77	0x3c08942c	0.008336108
78	0xbcc6d2f8	-0.02427052
79	0xbc837aae	-0.01604971
80	0xbca13023	-0.019676274
81	0x3d110311	0.035403315
82	0xbb8659c8	-0.004100058
83	0xbbeaf188	-0.007169906
84	0x3cb2152a	0.021738607
85	0x3d093fbf	0.03350806
86	0x3cafd0fe	0.02146196
87	0x3d093b39	0.033503745
88	0xbb5c2fd0	-0.0033597834
89	0xbc46fa76	-0.0121446755
90	0xbcf8d9e8	-0.030377343
91	0x3cec2b12	0.028829131
92	0x3b88d478	0.004175719
93	0x3b1f9900	0.002435267
94	0xbbe17ba8	-0.006881196
95	0x3cd62ba6	0.02614386
96	0xbba74a08	-0.0051052608
97	0x3c29a4f4	0.010354269
98	0xbbdaf4e8	-0.006682027
99	0xbd1b516c	-0.037919447
100	0xbc495ccc	-0.012290191
101	0x3c38a25c	0.011269178
102	0x3bcfe978	0.0063449703
103	0x3c877bae	0.016538467
104	0xbc6cdbb0	-0.014456674
105	0xbb8a6a40	-0.004224092
106	0x3c5efc30	0.013609931
107	0x3ce4ef16	0.027946036
108	0xbbce8538	-0.006302502
109	0x3c16c100	0.009201288
110	0x3d08f0c5	0.03343274
111	0xbcd73476	-0.026270133
112	0xbbb8bf80	-0.005638063
113	0x3b4649d0	0.0030256398
114	0x3d037f83	0.032104027
115	0x3b47e010	0.0030498542
116	0x3d28aa1f	0.041177865
117	0xbd042e2e	-0.032270603
118	0xbd1f511e	-0.03889572
119	0x3a64ccc0	0.000872802
120	0xbc2182fc	-0.009857889
121	0x3cd2f2f2	0.025750611
122	0xbb9dcad8	-0.0048154406
123	0xbc663b90	-0.014052287
124	0x3ccedb62	0.025251094
125	0x3d282e8b	0.04106001
126	0xbcf331ae	-0.029686775
127	0x3cbe79b6	0.023251396
128	0xbc5533c6	-0.013012832
129	0xbc87f183	-0.016594654
130	0x39f64a80	0.00046976283
131	0x3b8eef88	0.0043620504
132	0x3cbfe46e	0.023424353
133	0xbd2678bf	-0.040642496
134	0x3c953a48	0.018216267
135	0x3a39e240	0.0007090904
136	0x3c43a624	0.0119414665
137	0x3cbd9ffa	0.023147572
138	0x3cfd91fe	0.030953404
139	0xbbf2f098	-0.007413935
140	0x3d27623b	0.040865164
141	0xbd04485f	-0.03229558
142	0x3d0aca87	0.03388455
143	0xbc97e41e	-0.018541392
144	0x3d274053	0.04083283
145	0x3d21135d	0.039325107
146	0xbd1935c3	-0.037404787
147	0x3cd576a2	0.026057545
148	0x3d0c41bd	0.03424238
149	0xbb618500	-0.003441155
150	0xbc55cfc0	-0.01305002
151	0x3d180f29	0.037123833
152	0x3cef1cae	0.02918848
153	0x3b8d16c8	0.0043056943
154	0xbcfa2310	-0.030534297
155	0xbcec88c3	-0.028873807
156	0x3be05e78	0.006847199
157	0x3d274ac7	0.040842798
158	0x3cb74806	0.02237321
159	0x3d01ed6b	0.03172056
160	0xbd1c6dc0	-0.038190603
161	0xbd1686cb	-0.036749642
162	0x3d11acf7	0.035565343
163	0x3bcd5c08	0.0062670745
164	0xbc0e12a4	-0.008671436
165	0xbbb4cc48	-0.0055175163
166	0x3d15e035	0.036590774
167	0xbc3b7bcc	-0.01144309
168	0xbc828280	-0.015931368
169	0xbcc6fc98	-0.024290368
170	0x3c1bd55c	0.009511318
171	0xbd105f5a	-0.035247184
172	0x3d2a7eed	0.041624952
173	0x3c85497a	0.016270388
174	0x3d003a35	0.03130551
175	0x3c93d508	0.018045917
176	0xbc76924c	-0.015049528
177	0xbc4109d6	-0.01178213
178	0x3cc1ebda	0.023672033
179	0xbc62c4c6	-0.01384086
180	0xbc07c1bc	-0.008285936
181	0xbd05e568	-0.032689482
182	0xbcaf0b8e	-0.021367814
183	0x3d082261	0.03323591
184	0x3d0717c3	0.032981645
185	0x3cd0fd32	0.025511358
186	0xbce24cde	-0.027624544
187	0xbc5770e6	-0.013149476
188	0xbd0c8577	-0.03430697
189	0xbcdb032b	-0.026734909
190	0xbb870fe0	-0.0041217655
191	0x3d0add9f	0.03390276
192	0xbc8963e6	-0.016771268
193	0x3d0c9995	0.034326155
194	0x3d296b7b	0.041362267
195	0x3bc93668	0.006140519
196	0x3d170903	0.03687383
197	0x3d001fe9	0.031280432
198	0x3cda0d92	0.026617799
199	0xbcc4a48e	-0.024004247
200	0x3bb45500	0.005503297
201	0xbd25dda3	-0.040494572
202	0xbcc778a8	-0.024349526
203	0x3d0ef74d	0.034903813
204	0xbc1dedc4	-0.009639207
205	0xbca7bb08	-0.020474926
206	0x3b1e1470	0.0024121068
207	0xbd01dad3	-0.031702828
208	0x3b254840	0.0025220066
209	0x3d241393	0.04005773
210	0xbc5740a0	-0.013137966
211	0x3d221cb5	0.03957816
212	0x3c205184	0.00978506
213	0x3cf5d8f6	0.030010682
214	0x3cd86f1e	0.026420172
215	0x3c7dfbdc	0.0155019425
216	0x3c524b3c	0.01283532
217	0xbcb06930	-0.021534532
218	0x3b31ab10	0.0027110018
219	0xbd064d08	-0.032788306
220	0xbc8a1fa3	-0.016860789
221	0xbc03498c	-0.00801314
222	0xbcc6b798	-0.024257466
223	0x3c742ebc	0.0149037205
224	0xbbe2dc20	-0.0069232136
225	0x3c5ce660	0.01348266
226	0xbce23f26	-0.027618002
227	0x3d175021	0.03694165
228	0x3cf2ce3a	0.029639352
229	0xbd2250d6	-0.039627872
230	0x3d05c3c9	0.03265742
231	0x3d0068d1	0.03134996
232	0x3cf46dfa	0.029837597
233	0xbcc36cc6	-0.023855578
234	0x3baf6e80	0.005353749
235	0xbcdcf780	-0.026973486
236	0x3c3fc0a4	0.011703644
237	0x3bf7bd98	0.007560443
238	0x3c67f79c	0.014158156
239	0x3b791970	0.0038009547
240	0x3c8d8aee	0.01727816
241	0xbcb5c7f0	-0.022190064
242	0xbcc79fee	-0.024368253
243	0x3c655ee4	0.0139996745
244	0xbd03b6cf	-0.03215676
245	0xbd19d9a0	-0.03756106
246	0xbcc8b9db	-0.024502685
247	0x39e56c80	0.00043759122
248	0x3cb3e9d2	0.02196208
249	0x3d291727	0.041281845
250	0xbd0cda2f	-0.034387764
251	0x3cb9597e	0.022625681
252	0x3d0a88bb	0.033821803
253	0x3cd996b6	0.026561122
254	0x3c066f6c	0.008205276
255	0x3d06d719	0.032919977

goal_map_encoder.block.4.bias f4 [32]
0	0xbc5d927c	-0.013523694
1	0xbc424406	-0.011857038
2	0x3d1bd599	0.0380455
3	0xbb3fa700	-0.0029243827
4	0x3c958dd2	0.018256102
5	0xba2519c0	-0.00062980875
6	0xbd26e0ee	-0.040741853
7	0x3d27a05b	0.04092441
8	0xbcade653	-0.021227991
9	0xb8a2f000	-7.7694654e-05
10	0xbd28923b	-0.04115508
11	0x3ccd7506	0.025080215
12	0xbcd992f6	-0.026559334
13	0x3d0df88d	0.034660865
14	0xbd0bc417	-0.034122553
15	0x3ceb84c2	0.028749827
16	0x3cde11f2	0.027108166
17	0x3bd6a228	0.0065500923
18	0xbd238aaf	-0.03992718
19	0xbd0086a7	-0.031378414
20	0xbd0ac388	-0.03387788
21	0xbc5cf506	-0.0134861525
22	0x3b68b880	0.0035510361
23	0xbca866e6	-0.020556878
24	0xbb779f80	-0.0037784278
25	0xbab94160	-0.0014133863
26	0xbca5ba90	-0.020230561
27	0xbd061a4a	-0.032739915
28	0xbb9bae00	-0.004750967
29	0xbcb4c240	-0.022065282
30	0x3c4c15a0	0.012456328
31	0x3c272d44	0.010203663
