project/ckpt/actor_200.ckpt (torch, 747967 bytes, 26 tensors)

map_encoder.block.0.weight f4 [32, 1, 8, 8]
0.055525787 -0.102637276 -0.124266565 0.11558073 -0.019688899 -0.04155464 0.0050237593 0.012682835
0.013100302 0.08583988 -0.10790743 0.108982086 0.024378296 0.11474663 0.0148201315 -0.068769276
-0.0703469 -0.019244654 0.026607981 -0.0091037955 -0.07643247 -0.021663155 -0.03564981 -0.07034146
0.036621917 -0.023489552 0.01871912 0.07063092 0.1101116 -0.123727 0.102546975 -0.11778882
0.0982882 0.032077737 -0.10171237 -0.09992847 0.10765836 0.02624115 0.0003444387 -0.04778441
0.061113756 -0.04341101 0.12368399 0.09514485 -0.08706048 0.056346618 -0.02880933 0.11634953
-0.08248875 -0.03735229 0.063631825 0.088618316 0.020249192 -0.03939946 0.08643587 -0.08274403
0.05074985 -0.12197858 -0.007364777 0.11844708 0.110143445 -0.10000209 0.080209225 -0.06705022
-0.022626674 0.114675224 0.08513454 -0.10266558 -0.10678864 0.039453425 0.071874425 -0.022700042
-0.117039956 0.073463336 -0.090994805 0.019574221 -0.01293908 -0.073392615 0.07144329 -0.0057322187
0.10161612 0.0021297908 0.057429958 -0.10254608 0.004382465 -0.110414095 0.054412946 0.0145126935
0.10180545 -0.08376069 -0.049063113 0.023435077 -0.118345216 0.030566366 -0.043129023 -0.017017968
0.102024354 0.11147856 0.097374946 -0.066571966 -0.08873616 -0.016357962 -0.09705892 0.084762014
-0.0577533 0.097590834 0.002480438 0.09943959 0.088897906 -0.12243193 0.054325074 -0.12573506
-0.06886419 0.07226899 0.12007721 -0.11357021 -0.045179088 -0.09800798 0.009271249 0.059084818
-0.1177706 -0.11909529 -0.1126633 0.067283586 0.031166203 -0.08355139 0.11762362 0.00082238956
-0.009109631 0.048753306 0.035987858 0.09034713 0.084299035 0.1102885 -0.039049607 0.015940687
-0.03672349 -0.07685099 0.044024497 -0.039231334 -0.017639333 -0.036802985 -0.06780454 0.010690645
0.03199878 -0.0920385 -0.06291099 0.05177302 0.032924265 -0.047670405 -0.0014221221 -0.11575806
0.014182287 0.10778812 -0.054184742 -0.072521396 -0.037510663 0.015980233 -0.08267595 -0.10621069
0.042147625 -0.051896334 -0.024497522 -0.060148526 0.05208712 0.06774646 -0.08030529 -0.04407811
0.10336328 -0.060067374 0.0043211943 -0.1183918 -0.08893213 -0.0027138232 0.0069549084 0.09554535
-0.119363904 -0.12461406 -0.09833421 -0.032226086 -0.033917785 0.005645439 0.04293683 -0.008539826
0.033967078 -0.07877758 -0.039933026 0.050912023 -0.0074074715 -0.12263666 0.062573776 0.09835443
-0.019080173 -0.0317571 -0.010369236 0.033415418 0.04401536 -0.06171225 -0.04958916 -0.11707245
0.05555482 -0.03413018 0.020299813 -0.0152572915 -0.11401177 -0.064069815 0.10634181 -0.027280727
0.1203709 -0.085519716 0.07919117 -0.014226551 -0.019955419 -0.0538568 0.114806935 0.10745586
0.02557275 0.12469571 0.010209166 -0.030515067 0.021487525 -0.081786975 0.11227948 0.07110645
0.07883365 0.019812552 0.042732332 0.10649937 0.06547629 0.08571934 -0.1106616 0.037149213
-0.062010035 0.11196918 -0.10600643 0.07772873 -0.11012142 0.07246462 -0.029251253 0.07566817
-0.097564824 -0.067495316 0.08466978 0.04182492 -0.028475828 -0.04696527 -0.046109162 0.049496323
0.09456941 -0.043187797 0.120779544 0.0802294 0.040219154 -0.11817843 0.022368927 0.102631904
00000000: 026f 633d 7e33 d2bd 787f febd 97b5 ec3d
00000010: 9d4a a1bc 3335 2abd 599e a43b aacb 4f3c
00000020: a6a2 563c d2cc af3d 92fe dcbd 0032 df3d
00000030: feb4 c73c 4800 eb3d 23d0 723c e8d6 8cbd
00000040: 0912 90bd f7a6 9dbc fbf8 d93c 1628 15bc
00000050: a088 9cbd ee76 b1bc 8905 12bd 2f0f 90bd
00000060: dd00 163d 296d c0bc d758 993c f2a6 903d
00000070: 3182 e13d 9564 fdbd 2604 d23d 443b f1bd
00000080: 534b c93d f263 033d 934e d0bd 4ca7 ccbd
00000090: fc7b dc3d aef7 d63c c895 b439 96b9 43bd
000000a0: 6b52 7a3d becf 31bd 084e fd3d 4edb c23d
000000b0: c44c b2bd b6cb 663d 8b01 ecbc aa48 ee3d
000000c0: ddef a8bd b7fe 18bd 6751 823d 857d b53d
000000d0: a2e1 a53c 5461 21bd 4a05 b13d b475 a9bd
000000e0: 13df 4f3d e8cf f9bd 3a54 f1bb 6294 f23d
000000f0: e392 e13d e5cd ccbd bc44 a43d a051 89bd
00000100: 935b b9bc d8da ea3d 055b ae3d 5542 d2bd
00000110: 01b4 dabd ea99 213d e632 933d 70f5 b9bc
00000120: a5b2 efbd f273 963d 7c5b babd 1e5a a03c
00000130: 6ffe 53bc de4e 96bd dc50 923d 56d5 bbbb
00000140: 1d1c d03d f693 0b3b ad3b 6b3d ae03 d2bd
00000150: c89a 8f3b c920 e2bd 1ce0 5e3d a6c6 6d3c
00000160: 607f d03d ba8a abbd 67f6 48bd ebfa bf3c
00000170: fa5e f2bd 5166 fa3c 0fa8 30bd 4469 8bbc
00000180: 25f2 d03d df4e e43d 846c c73d e256 88bd
00000190: 4ebb b5bd 2201 86bc d4c6 c6bd b597 ad3d
000001a0: b98e 6cbd b4dd c73d d88e 223b fca6 cb3d
000001b0: 1b10 b63d 97bd fabd f883 5e3d b1c0 00be
000001c0: ab08 8dbd c401 943d 0aeb f53d 8097 e8bd
000001d0: b50d 39bd 68b8 c8bd 70e6 173c ec02 723d
000001e0: b631 f1bd 3be8 f3bd 04bc e6bd facb 893d
000001f0: 4450 ff3c fe1c abbd a7e4 f03d a195 573a
00000200: 9040 15bc 8cb1 473d 0168 133d eb07 b93d
00000210: f9a4 ac3d f0de e13d 7bf2 1fbd 0b96 823c
00000220: 5f6b 16bd 0d64 9dbd 0853 343d 09b1 20bd
00000230: 5d80 90bc babe 16bd 1bdd 8abd d127 2f3c
00000240: 2711 033d ae7e bcbd 7ad7 80bd f20f 543d
00000250: 98db 063d 0b42 43bd 8066 baba 9012 edbd
00000260: d35c 683c 05c0 dc3d d2f0 5dbd 1986 94bd
00000270: c8a4 19bd fae8 823c 0252 a9bd fe84 d9bd
00000280: fda2 2c3d 4091 54bd 07af c8bc 4d5e 76bd
00000290: 4e59 553d a8be 8a3d 1a77 a4bd 408b 34bd
000002a0: 21b0 d33d 3509 76bd ce98 8d3b 6677 f2bd
000002b0: 0c22 b6bd 66da 31bb 00e6 e33b 48ad c33d
000002c0: 1075 f4bd a835 ffbd 7263 c9bd 80ff 03bd
000002d0: 60ed 0abd 60fd b83b 88de 2f3d a0ea 0bbc
000002e0: 1021 0b3d 2456 a1bd d090 23bd 2089 503d
000002f0: 60ba f2bb ee28 fbbd ae26 803d 0c6e c93d
00000300: 064e 9cbc bc13 02bd bae3 29bc 9bde 083d
00000310: 7349 343d fcc5 7cbd 011e 4bbd aec3 efbd
00000320: 738d 633d 16cc 0bbd cb4b a63c b8f9 79bc
00000330: 017f e9bd 0937 83bd bcc9 d93d d57b dfbc
00000340: 0585 f63d f624 afbd fb2e a23d 7b16 69bc
00000350: 8c79 a3bc f398 5cbd e61f eb3d d111 dc3d
00000360: f27d d13c 7760 ff3d 5944 273c bcfa f9bc
00000370: 9b06 b03c ee7f a7bd c9f2 e53d 42a0 913d
00000380: 8973 a13d ef4d a23c 1908 2f3d 571c da3d
00000390: 6f18 863d 9f8d af3d 8da2 e2bd c629 183d
000003a0: 3cfe 7dbd 1950 e53d e619 d9bd 3e30 9f3d
000003b0: 5787 e1bd 5568 943d 53a0 efbc eaf7 9a3d
000003c0: 11d0 c7bd fc3a 8abd 5a67 ad3d 9b50 2b3d
000003d0: 2446 e9bc a85e 40bd f6dc 3cbd a8bc 4a3d
000003e0: 9bad c13d b0e5 30bd 445b f73d 504f a43d
000003f0: d7bc 243d 8807 f2bd 0a3f b73c ad30 d23d

map_encoder.block.0.bias f4 [32]
0.07064701 0.10721095 0.071364164 0.12787822 -0.08260386 -0.077771835 0.058302328 0.10444444
-0.08999896 0.029473202 0.006313793 -0.0936805 0.11069898 0.011841131 0.11733643 0.0663416
0.13847074 0.04309783 -0.038244314 -0.065826505 -0.0906795 0.10561293 -0.005299568 0.06041828
-0.103988916 0.11538504 -0.10966095 0.047974084 -0.102183074 0.11482309 -0.072571725 -0.04096942
00000000: 61af 903d 6a91 db3d 6027 923d 82f2 023e
00000010: 362c a9bd d746 9fbd 6cce 6e3d f7e6 d53d
00000020: 6051 b8bd c971 f13c efe3 ce3b 90db bfbd
00000030: 26b6 e23d 4e01 423c 154e f03d 1bde 873d
00000040: 46cb 0d3e 5a87 303d 12a6 1cbd 0cd0 86bd
00000050: 2cb6 b9bd 984b d83d 00a8 adbb 2979 773d
00000060: 24f8 d4bd fe4e ec3d ec95 e0bd 7980 443d
00000070: 5c45 d1bd 5e28 eb3d 7ca0 94bd 8dcf 27bd

map_encoder.block.2.weight f4 [64, 32, 4, 4]
0.017391318 0.02294083 0.038873225 -0.017639298 0.03670686 -0.0040798527 -0.029062495 -0.038295526
-0.037231933 -0.005347626 0.034123167 -0.025142442 -0.04649729 -0.032130387 -0.025877405 0.027668588
0.026817381 -0.03551456 0.036270026 -0.042452972 -0.017983017 0.0048241694 -0.016934695 0.018532982
0.034117386 0.010353613 0.038781308 -0.0025992005 -0.03052767 -0.025092475 0.014348353 -0.0004370248
0.03416387 0.0079615675 -0.016619677 0.0041336254 0.0128482515 -0.015523495 0.031114712 0.020267295
0.009439085 0.025573643 0.038115457 -0.04671311 -0.030860078 -0.0055854856 -0.015698645 0.009888431
-0.023365658 -0.04433377 -0.025647212 -0.014301322 -0.0069366125 -0.040180083 0.018411802 0.035672758
-0.0090195695 -0.042311043 -0.037593924 -0.027433256 0.026207516 0.039723005 -0.020639895 0.031360824
0.016316894 0.009875733 -0.03341176 -0.041832652 -0.0019082716 0.02180285 0.011660643 -0.008417446
-0.033881236 0.03854498 -0.027748268 -0.017558288 0.0025601797 -0.030248482 0.014502745 -0.025276545
-0.039560597 0.028941147 0.013905205 0.011965178 -0.040578343 0.0029463246 -0.023835938 0.03659487
-0.0104249455 0.03682224 -0.017737264 -0.023338033 -0.004996676 0.040502522 -0.025552053 0.040948804
0.033123992 -0.030293442 -0.021462336 0.02021947 -0.014364035 -0.015409989 -0.02954429 0.027427586
-0.041831035 -0.022882877 0.03597925 0.0029416825 -0.041624777 0.011147752 -0.019927176 -0.007374564
-0.038425323 0.02960919 0.022365833 0.01339882 0.03192811 0.023257598 -0.0011665552 0.035183348
0.013367999 -0.02736197 0.0017633892 0.038104527 -0.0078015397 -0.005879272 -0.036595345 -0.044487294
-0.034505095 -0.011467894 -0.015928015 -0.043816242 -0.04509884 0.02462333 0.008623261 0.030150507
0.03662737 -0.02317015 -0.04087358 0.03661831 -0.019354865 0.031766225 -0.041269388 -0.040823925
-0.011187068 0.04054824 -0.02590786 0.03325099 -0.03728081 -0.005955654 -0.023615511 -0.022817645
0.016310344 0.020528015 -0.027428394 0.026082959 -0.043960743 0.007413548 -0.02066149 -0.0128091695
-0.002499535 -0.03148905 -0.036994696 0.026840325 -0.011042965 -0.028629893 -0.021528406 -0.02557709
0.008143603 -0.00841199 -0.005412068 0.005792938 0.022276755 -0.009831381 0.0047177 0.0060159974
-0.007040932 0.024796879 0.020292375 -0.033313245 0.0076849908 -0.021572348 0.025475886 -0.02591222
0.026818614 0.021253068 -0.014514932 0.012670837 -0.028189303 0.009618416 -0.0135801155 -0.01787982
-0.04447392 -0.006184202 -0.036954667 -0.0344955 0.03955604 -0.037088703 0.009315596 -0.010405462
-0.017798612 0.039480425 -0.0112139275 0.023815077 -0.045371898 0.036780365 0.036105335 0.018104587
-0.018694734 0.003754136 0.026918557 -0.036447305 -0.046036188 0.02985112 0.038685277 0.038412616
-0.034087893 0.009125462 0.015931241 0.010612162 -0.042348634 0.039326742 0.014217464 -0.018250963
-0.03590142 -0.035399638 -0.012972672 0.009596763 -0.04643361 0.02641137 -0.020992737 -0.002943969
0.022747647 0.023331927 -0.024142541 -0.002762272 -0.03993004 -0.029573841 -0.024774395 -0.04677546
0.023914594 -0.030052865 0.015882382 0.012482338 0.021043286 0.031600576 0.0016411289 -0.006796241
-0.0071871225 -0.018199956 -0.02058238 -0.040994205 -0.011417358 -0.0357751 0.017380008 0.033567794
00000000: 3d78 8e3c 68ee bb3c 8839 1f3d 4a80 90bc
00000010: ef59 163d 49b0 85bb 7814 eebc c5db 1cbd
00000020: 8380 18bd 233b afbb bcc4 0b3d 86f7 cdbc
00000030: f173 3ebd 279b 03bd dafc d3bc 3ca9 e23c
00000040: 20b0 db3c b777 11bd e18f 143d 2be3 2dbd
00000050: 1f51 93bc 1114 9e3b a1ba 8abc 7bd2 973c
00000060: acbe 0b3d 33a2 293c 26d9 1e3d 5957 2abb
00000070: 2a15 fabc bc8e cdbc 5b15 6b3c 7a20 e5b9
00000080: 6aef 0b3d 3c71 023c fd25 88bc 5d73 873b
00000090: 7981 523c 4256 7ebc 48e4 fe3c 9907 a63c
000000a0: 64a6 1a3c d17f d13c f41e 1c3d 3f56 3fbd
000000b0: 46ce fcbc 7306 b7bb 729a 80bc 1603 223c
000000c0: 5669 bfbc 5497 35bd 1a1a d2bc 1850 6abc
000000d0: 864c e3bb df93 24bd 59d4 963c 991d 123d
000000e0: d1c6 13bc 584e 2dbd 16fc 19bd b5bb e0bc
000000f0: 25b1 d63c 97b4 223d ff14 a9bc 3574 003d
00000100: 02ab 853c d4cd 213c c5da 08bd b758 2bbd
00000110: f81e faba e49b b23c 480c 3f3c 54e9 09bc
00000120: 0dc7 0abd 57e1 1d3d 5650 e3bc 66d6 8fbc
00000130: b0c8 273b aacb f7bc ec9c 6d3c c210 cfbc
00000140: 4b0a 22bd fc15 ed3c a8d2 633c 9809 443c
00000150: 7a35 26bd 2017 413b 9643 c3bc 81e4 153d
00000160: 64cd 2abc ebd2 163d bd4d 91bc 672f bfbc
00000170: 28bb a3bb f9e5 253d 8a52 d1bc efb9 273d
00000180: 06ad 073d f429 f8bc c8d1 afbc 4da3 a53c
00000190: 2157 6bbc 2e7a 7cbc de06 f2bc d1af e03c
000001a0: 0557 2bbd df74 bbbc fa5e 133d 3ec9 403b
000001b0: be7e 2abd 10a5 363c 513e a3bc 54a6 f1bb
000001c0: df63 1dbd f98e f23c 8d38 b73c b986 5b3c
000001d0: 0dc7 023d b886 be3c 19e7 98ba 6a1c 103d
000001e0: 7405 5b3c 3626 e0bc 8621 e73a 7e13 1c3d
000001f0: 0fa4 ffbb e8a6 c0bb 00e5 15bd 4f38 36bd
00000200: 3755 0dbd d5e3 3bbc 787b 82bc a978 33bd
00000210: 90b9 38bd deb6 c93c 9448 0d3c 32fe f63c
00000220: 9506 163d 54cf bdbc 0e6b 27bd 15fd 153d
00000230: 188e 9ebc 4d1d 023d 170a 29bd fd36 27bd
00000240: f749 37bc e915 263d b83c d4bc 3132 083d
00000250: c3b3 18bd a627 c3bb 5175 c1bc 12ec babc
00000260: 459d 853c 5e2a a83c 83b1 e0bc eeab d53c
00000270: 2e10 34bd 59ed f23b 4942 a9bc 8ddd 51bc
00000280: 3dcf 23bb a9fa 00bd c087 17bd 3ee0 db3c
00000290: 8ded 34bc 3d89 eabc 575c b0bc 0c87 d1bc
000002a0: bf6c 053c 71d2 09bc b857 b1bb b0d2 bd3b
000002b0: be7d b63c cd13 21bc f096 9a3b d821 c53b
000002c0: 9eb7 e6bb d322 cb3c 323c a63c 7873 08bd
000002d0: 60d2 fb3b 7eb8 b0bc ceb2 d03c dd45 d4bc
000002e0: b6b2 db3c ea1a ae3c 0ad0 6dbc 5899 4f3c
000002f0: 41ed e6bc 9096 1d3c 227f 5ebc b378 92bc
00000300: 492a 36bd d9a4 cabb c75d 17bd 274b 0dbd
00000310: 8405 223d 53ea 17bd 71a0 183c ac7b 2abc
00000320: 65ce 91bc 3ab6 213d 9fba 37bc d617 c33c
00000330: e2d7 39bd 02a7 163d 30e3 133d 1250 943c
00000340: b325 99bc f307 763b 4e84 dc3c c549 15bd
00000350: 7190 3cbd 568a f43c 7474 1e3d 8c56 1d3d
00000360: bf9f 0bbd f682 153c 3c82 823c a2de 2d3c
00000370: c375 2dbd 1415 213d 5ef0 683c 0b83 95bc
00000380: 5e0d 13bd 36ff 10bd 548b 54bc be3b 1d3c
00000390: 2b31 3ebd a85c d83c f6f8 abbc 9bef 40bb
000003a0: 4659 ba3c 9922 bf3c 94c6 c5bc 3c07 35bb
000003b0: ae8d 23bd d744 f2bc acf3 cabc a097 3fbd
000003c0: 8ae8 c33c 6d31 f6bc c51b 823c b882 4c3c
000003d0: f862 ac3c 9b6f 013d 261b d73a 00b3 debb
000003e0: f481 ebbb 1318 95bc 619c a8bc 8ae9 27bd
000003f0: df0f 3bbc e988 12bd 8560 8e3c 627e 093d

map_encoder.block.2.bias f4 [64]
0.03894551 0.033269122 -0.034809638 0.0009071185 0.011723656 0.042868815 0.0073157735 0.020703683
-0.026347471 -0.006494663 0.048127364 0.025651535 0.03393534 0.006697431 -0.0035158787 0.013687267
0.029648846 -0.02077977 -0.0056078467 0.008971313 -0.020154402 -0.021721728 0.054844853 -0.007202726
-0.0057724756 -0.024733303 0.041428518 0.01292331 -0.024862181 -0.036504276 0.04229485 0.030754622
0.023480048 -0.03220032 -0.024875699 0.037196282 -0.0070312875 0.039197102 0.024880178 0.010080488
0.015263293 0.02292099 -0.01094433 0.0038988173 0.023575481 -0.021845082 0.037579432 -0.025422625
-0.004570546 0.033480335 0.022975974 -0.04217755 -0.027895942 0.01911453 -0.02396509 0.019860147
-0.016122403 0.06050136 0.04585566 -0.03183053 0.027798982 -0.041972257 0.031145673 -0.028648304
00000000: 5485 1f3d 3445 083d 8d94 0ebd b1cb 6d3a
00000010: 9414 403c 3697 2f3d 28b9 ef3b c59a a93c
00000020: a7d6 d7bc 2fd1 d4bb 3321 453d 2b23 d23c
00000030: c8ff 0a3d 2076 db3b a86a 66bb 8f40 603c
00000040: 23e2 f23c 563a aabc 07c2 b7bb 6afc 123c
00000050: d81a a5bc c4f1 b1bc ffa4 603d d804 ecbb
00000060: 0927 bdbb 7f9d cabc f3b0 293d 4abc 533c
00000070: c6ab cbbc 8285 15bd 5d3d 2d3d 1ef1 fb3c
00000080: 3b59 c03c 7ce4 03bd 1fc8 cbbc 215b 183d
00000090: b766 e6bb 248d 203d 84d1 cb3c a228 253c
000000a0: e412 7a3c cdc4 bb3c d94f 33bc 4d83 7f3b
000000b0: 5e21 c13c 75f4 b2bc e4ec 193d 1c43 d0bc
000000c0: 85c4 95bb ad22 093d 1c38 bc3c 5ec2 2cbd
000000d0: 0886 e4bc 1396 9c3c 7052 c4bc bfb1 a23c
000000e0: 2113 84bc 46d0 773d 25d3 3b3d bb60 02bd
000000f0: b1ba e33c 1aeb 2bbd 3625 ff3c d9af eabc

map_encoder.block.4.weight f4 [32, 64, 3, 3]
0.0048345136 -0.025847493 0.00096079666 0.0052240477 0.011901836 -0.041113067 -0.027154172 0.03318455
0.0038259996 -0.014337754 -0.036461692 -0.049244136 0.026383933 -0.03597627 -0.035316605 0.009972668
0.027111707 0.0065828986 -0.027134899 0.015960366 -0.00061300397 -0.018907158 -0.032221984 0.004942078
-0.0077905953 0.013428047 0.034079287 0.03446888 0.00637163 0.0089682 0.031993955 -0.01883817
-0.04211952 0.033825107 0.007684887 -0.007249654 0.03391085 -0.008421624 0.018993556 0.039603803
0.036719512 0.024576675 -0.037679162 0.008099843 0.020807605 -0.013839232 -0.011179234 0.019687112
-0.017146649 -0.051908363 0.02360985 0.0051654223 0.01517916 -0.042718615 0.012164279 0.00561012
-0.01848771 -0.031718258 0.0028747811 -0.03548397 0.0013432906 -0.05600025 0.0011612024 -0.024039317
-0.021103596 -0.010975033 0.0008067662 0.03079905 0.014952492 -0.012850802 -0.0036570765 0.004275929
0.00085734256 -0.01267913 0.033286605 -0.0024308264 0.008087739 -0.010870442 -0.0036858656 -0.005295422
-0.019816294 -0.027406981 -0.00038844944 0.0033685558 -0.03067291 -0.007316351 -0.012381555 0.02656235
-0.019322291 0.01893116 -0.01581421 0.010804123 -0.041965067 0.020143198 0.011827912 0.01692501
0.0046009943 -0.040876873 -0.015740952 -0.01324336 -0.03863911 -0.04132803 0.005601442 -0.023359058
0.026065245 -0.033889435 -0.045202095 -0.01361204 -0.04429246 -0.01141752 0.02752932 0.026718825
0.018380266 -0.026469925 0.0048337723 -0.0076678684 -0.049443804 -0.039046064 0.023434477 0.004259547
-0.0022365404 -0.01930496 -0.050144926 -0.010402652 0.01696683 -0.04385665 0.019873602 0.0010358344
-0.010286078 -0.016774094 -0.00086443033 -0.010839257 -0.0252261 -0.045068 -0.040593304 -0.045161184
-0.045497593 0.008449119 0.015118399 0.015576247 -0.013547818 -0.031582754 -0.04077332 -0.002070458
-0.00597103 -0.015982985 0.0009922538 -0.0015716115 -0.01356641 -0.0025408303 -0.03115006 -0.0028587994
-0.036640912 -0.014553663 0.035700787 0.014954146 0.03468456 -0.01820631 0.010144532 -0.022934716
-0.015459433 -0.021226507 0.014233685 0.031007433 -0.0015726119 0.023507344 -0.04595428 0.01528196
0.021713957 0.021385077 0.013524028 -0.019048147 -0.009582422 0.012102103 0.005282593 0.018894872
-0.01405593 -0.039525066 -0.03839935 0.01565603 0.0077638933 -0.019527888 0.02152833 0.027076505
-0.016835572 0.031434182 0.016776022 0.03737511 0.0018505603 0.019271081 -0.03467409 0.034585413
0.007999707 -0.007350585 -0.00929394 0.009548213 -0.010102514 -0.035050906 0.00922743 -0.016384166
0.008882285 -0.044391356 -0.033144817 -0.00065024354 0.009065555 0.004057809 -0.048992984 0.026834091
-0.02679728 0.008706067 -0.03202433 0.009720419 0.03838138 -9.063631e-06 -0.0060399733 -0.0266752
0.0031619023 0.011140406 -0.004792303 -0.02202647 0.0023189075 0.04152039 -0.0058764704 0.039101478
-0.040680613 -0.009239186 0.0351427 -0.003499468 0.009926728 -0.01187515 -0.03784926 0.023983223
-0.016711822 0.027022338 -0.028882023 -0.011670816 0.01807497 0.02340755 -0.03578939 0.021389095
-0.011188969 -0.020395566 -0.024006581 -0.0063251485 0.009829962 -0.012948431 0.010403612 0.0064666322
-0.05421327 -0.014790763 0.0053833374 -0.0048967022 -0.010129639 -0.0031501416 -0.054246265 -0.058509655
00000000: d76a 9e3b 1fbe d3bc f9dd 7b3a 7d2e ab3b
00000010: ebff 423c 2d66 28bd 6d72 debc 86ec 073d
00000020: 9fbd 7a3b e6e8 6abc db58 15bd 38b4 49bd
00000030: 1e23 d83c da5b 13bd 25a8 10bd 6764 233c
00000040: 5f19 de3c 5bb5 d73b 024a debc 50bf 823c
00000050: 00b2 20ba 2fe3 9abc 33fb 03bd 28f1 a13b
00000060: 4048 ffbb 5001 5c3c b996 0b3d 3e2f 0d3d
00000070: 1bc9 d03b 5bef 123c 180c 033d 8252 9abc
00000080: 8585 2cbd 328c 0a3d 81d1 fb3b 818e edbb
00000090: 1ae6 0a3d dafa 09bc 6098 9b3c 9937 223d
000000a0: 3367 163d 0655 c93c 7755 1abd 34b5 043c
000000b0: b674 aa3c f2bd 62bc 1b29 37bc de46 a13c
000000c0: 2177 8cbc dd9d 54bd 7269 c13c b442 a93b
000000d0: 03b2 783c b7f9 2ebd af4c 473c 19d5 b73b
000000e0: 8a73 97bc 01eb 01bd d366 3c3b a457 11bd
000000f0: 5a11 b03a 8560 65bd 7d33 983a 1aee c4bc
00000100: 73e1 acbc a0d0 33bc 2a7d 533a 4a4e fc3c
00000110: 4cfb 743c 2c8c 52bc 90ab 6fbb 181d 8c3b
00000120: 49bf 603a 20bc 4fbc 8957 083d 804e 1fbb
00000130: 7082 043c f019 32bc 908e 71bb 3885 adbb
00000140: c855 a2bc 9b84 e0bc cda8 cbb9 fdc2 5c3b
00000150: c145 fbbc 00be efbb 01dc 4abc 4999 d93c
00000160: c849 9ebc 8515 9b3c cd8c 81bc c703 313c
00000170: 90e3 2bbd 5903 a53c dcc9 413c 52a6 8a3c
00000180: f0c3 963b 826e 27bd 2bf3 80bc aefa 58bc
00000190: 0b44 1ebd 9547 29bd 4d8c b73b 7f5b bfbc
000001a0: c886 d53c a6cf 0abd d525 39bd 0905 5fbc
000001b0: 036c 35bd 8d10 3bbc 2b85 e13c 70e1 da3c
000001c0: 3692 963c 75d7 d8bc 9f64 9e3b be42 fbbb
000001d0: 9685 4abd c4ee 1fbd a9f9 bf3c ac93 8b3b
000001e0: ec92 12bb 6f25 9ebc c464 4dbd e36f 2abc
000001f0: 05fe 8a3c 08a3 33bd f7cd a23c d6c4 873a
00000200: f086 28bc d369 89bc f09a 62ba 2497 31bc
00000210: f7a6 cebc 3999 38bd 2a45 26bd effa 38bd
00000220: af5b 3abd 2c6e 0a3c 29b3 773c 8433 7f3c
00000230: abf7 5dbc eb5c 01bd ed01 27bd 85b0 07bb
00000240: a1a8 c3bb c0ee 82bc 830e 823a 88fe cdba
00000250: a645 5ebc 0f84 26bb 692e ffbc b25a 3bbb
00000260: c814 16bd 7d72 6ebc fd3a 123d 3c02 753c
00000270: 6611 0e3d 6625 95bc 4035 263c 96e1 bbbc
00000280: 9049 7dbc 36e3 adbc 6734 693c 4d03 fe3c
00000290: 1920 ceba 7992 c03c 8e3a 3cbd 3061 7a3c
000002a0: 78e1 b13c c22f af3c e293 5d3c dc0a 9cbc
000002b0: 97ff 1cbc e647 463c 9a19 ad3b 6bc9 9a3c
000002c0: d84a 66bc 09e5 21bd a348 1dbd 1341 803c
000002d0: 4268 fe3b f3f8 9fbc 2e5c b03c 8ccf dd3c
000002e0: c1ea 89bc 21c1 003d de6d 893c a516 193d
000002f0: 808e f23a 63de 9d3c 6b06 0ebd 6fa9 0d3d
00000300: 3411 033c 2ddd f0bb 9c45 18bc 1c70 1c3c
00000310: 0485 25bc 8a91 0fbd a62e 173c 1638 86bc
00000320: 0187 113c b6d3 35bd dcc2 07bd 1b75 2aba
00000330: b287 143c 5ef7 843b deac 48bd 2bd3 db3c
00000340: f885 dbbc e4a3 0e3c f22b 03bd 6442 1f3c
00000350: cb35 1d3d 0010 18b7 f8ea c5bb f385 dabc
00000360: eb37 4f3b 4086 363c c008 9dbb db70 b4bc
00000370: d0f8 173b 4911 2a3d 688f c0bb df28 203d
00000380: b7a0 26bd f45f 17bc cbf1 0f3d 5557 65bb
00000390: b7a3 223c fd8f 42bc d307 1bbd 7778 c43c
000003a0: 3be7 88bc f35d dd3c fe99 ecbc f336 3fbc
000003b0: f611 943c 31c1 bf3c e597 12bd 2f38 af3c
000003c0: f051 37bc 9a14 a7bc 73a9 c4bc 3143 cfbb
000003d0: d90d 213c a825 54bc e973 2a3c 0be6 d33b
000003e0: bc0e 5ebd f554 72bc b566 b03b 8474 a0bb
000003f0: c9f6 25bc 9b72 4ebb 5531 5ebd d2a7 6fbd

map_encoder.block.4.bias f4 [32]
-0.053757075 0.014999156 -0.033985525 -0.018206405 -0.029363515 -0.03068433 -0.01734139 -0.012137768
-0.031627465 -0.0062365085 -0.02792511 0.025203997 0.022332296 0.0029061553 0.018512566 0.0015292126
-0.023622567 0.020038763 0.02626393 -0.033331554 0.027197225 -0.0071854196 -0.0019628 -0.0072573344
-0.022711864 0.022745373 0.02810255 -0.02498887 -0.016613401 -0.01556301 -0.030293286 0.045815933
00000000: 6130 5cbd 05bf 753c 6834 0bbd 9925 95bc
00000010: c18b f0bc b45d fbbc 880f 8ebc 7ddd 46bc
00000020: cd8b 01bd a05b ccbb 33c3 e4bc 9d78 ce3c
00000030: 38f2 b63c 3275 3e3b aaa7 973c dc6f c83a
00000040: 1d84 c1bc 5528 a43c 7427 d73c ab86 08bd
00000050: b7cc de3c ab73 ebbb 52a2 00bb efce edbb
00000060: 3b0e babc 8154 ba3c 5237 e63c 75b5 ccbc
00000070: d418 88bc fffb 7ebc a029 f8bc 7da9 3b3d

goal_map_encoder.block.0.weight f4 [32, 1, 8, 8]
0.028052105 0.07297547 0.08048675 0.011619982 0.013289994 -0.020139404 0.081236295 -0.027401926
0.096744716 0.11836401 0.0029034582 0.11603725 0.113725886 -0.05657236 -0.08929299 0.037271693
-0.04246225 -0.11671073 0.010502034 0.07907615 -0.08025468 0.059733175 0.0573494 0.054243155
-0.009342498 0.051678777 -0.07620665 -0.09563189 -0.054544844 -0.08844276 -0.11629071 0.06178128
0.09071799 0.05591492 0.017240448 0.13503969 -0.0034034743 0.035024248 -0.10422781 0.06718036
0.11177937 -0.010437632 -0.05029181 -0.058553617 -0.048089467 0.10118443 0.10757299 0.06340078
-0.07065976 -0.0262429 0.089426674 -0.028199427 -0.07694652 -0.052810237 0.027272312 -0.108032435
0.09014731 -0.046767563 -0.11527431 0.05330545 -0.08386291 -0.03541815 0.0110317245 0.049850833
-0.05013186 7.2256094e-05 -0.065489344 -0.1259187 -0.10124533 0.104989246 -0.05206956 -0.10771792
0.0957903 -0.115128756 0.07870157 -0.063098244 0.050904155 0.00796603 -0.024594799 0.110976115
0.117116615 -0.056800306 0.09346381 -0.09193006 -0.011014384 -0.10509485 0.0728689 -0.05006452
0.0422499 -0.025370099 -0.11834866 0.0069835205 -0.11354825 -0.066332236 -0.11075105 -0.007966891
0.09298661 0.034803852 0.0009977093 0.11742565 -0.1186693 0.0915644 0.013253689 -0.07705182
-0.076741464 -0.05562967 -0.034595847 0.06630768 -0.036873862 -0.017754083 0.07298854 0.015403256
0.099690355 0.007947413 -0.095410675 -0.061461642 0.059362695 0.018244527 0.124176696 0.01873289
0.084231384 -0.07227901 -0.025967555 -0.055416375 -0.054928392 0.11730187 0.014351413 -0.0019924045
-0.11543166 -0.0415959 -0.08462032 0.03844246 0.042160377 0.07571671 0.065812916 0.05149434
-0.0022738343 -0.08439867 -0.03854507 0.12167528 -0.10445327 -0.12096944 0.106804684 0.018960467
0.052926302 0.07305629 0.066079736 0.056629412 -0.018786492 0.11712888 -0.0076778685 -0.016571915
-0.051222038 0.0008421281 -0.060844272 -0.08520302 0.027605876 0.0055134255 0.08537676 0.11883164
-0.01949644 0.072495 0.08557053 -0.043704323 -0.10765996 -0.08699768 0.10011936 -0.035966642
0.055495985 0.015512003 0.04889967 -0.07356315 -0.014355993 0.11930736 -0.09560858 -0.08129102
-0.122421585 0.11879265 -0.045716975 -0.07464671 -0.04751393 -0.06815779 -0.085244544 0.07692888
0.07102301 0.09178848 0.08015044 -0.014668045 -0.063313864 0.11264029 -0.107000254 -0.09442066
0.0666458 -0.10657235 0.028632376 -0.10074848 0.05589393 -0.06150323 -0.006106288 0.023764433
-0.038928848 0.09058116 0.005235808 0.059978496 0.031950917 0.05452401 -0.07116719 -0.0959939
-0.10903482 0.022626463 0.001066943 0.12932855 0.059943657 -0.04221022 -0.08864471 0.02365291
-0.0921881 0.025696704 0.10403426 0.13703755 0.022665957 -0.105082646 0.10435331 0.04269769
0.009019961 0.007666088 0.12093305 -0.087223776 -0.009857236 0.10089234 -0.012477572 -0.12389778
-0.031846397 -0.03022715 -0.014513341 -0.07135071 0.088105984 0.038878527 -0.080275185 -0.071971916
0.015907567 0.07514299 0.09711038 0.078973904 -0.10582257 0.09036505 -0.053255007 0.043085575
0.066560574 -0.1085231 -0.10633214 -0.01850212 -0.046491396 -0.0359335 -0.09188548 -0.11902389
00000000: 87cd e53c 2a74 953d 3dd6 a43d bd61 3e3c
00000010: 46be 593c 64fb a4bc 375f a63d 017a e0bc
00000020: 1822 c63d d468 f23d f247 3e3b f0a4 ed3d
00000030: 1ee9 e83d 6bb8 67bd 3edf b6bd 34aa 183d
00000040: e5ec 2dbd 0906 efbd b910 2c3c adf2 a13d
00000050: 915c a4bd c6aa 743d 34e7 6a3d 122e 5e3d
00000060: 4711 19bc 20ad 533d 3b12 9cbd a7da c3bd
00000070: 6a6a 5fbd 7a21 b5bd d329 eebd 5e0e 7d3d
00000080: 5bca b93d 0b07 653d d73b 8d3c d847 0a3e
00000090: d30c 5fbb 9675 0f3d 6475 d5bd db95 893d
000000a0: 95ec e43d 9a02 2bbc c9fe 4dbd ebd5 6fbd
000000b0: 76f9 44bd c839 cf3d 3a4f dc3d 45d8 813d
000000c0: 10b6 90bd 5afb d6bc 5525 b73d 7c02 e7bc
000000d0: 2396 9dbd 8c4f 58bd 2f6a df3c 1c40 ddbd
000000e0: 279f b83d 588f 3fbd f014 ecbd d156 5a3d
000000f0: 51c0 abbd 9f12 11bd 68be 343c 6330 4c3d
00000100: 1157 4dbd 3288 9738 471f 86bd d5f0 00be
00000110: b659 cfbd 9a04 d73d e446 55bd 369b dcbd
00000120: b42d c43d a0c8 ebbd 4a2e a13d a739 81bd
00000130: e080 503d f483 023c 087b c9bc 7247 e33d
00000140: d6da ef3d 70a7 68bd f469 bf3d d445 bcbd
00000150: ad75 34bc f83b d7bd 4a3c 953d 7410 4dbd
00000160: 3b0e 2d3d f4d4 cfbc c860 f2bd 04d6 e43b
00000170: fc8b e8bd 32d9 87bd 72d1 e2bd 9087 02bc
00000180: c46f be3d 7c8e 0e3d 92c5 823a dc7c f03d
00000190: e408 f3bd 1e86 bb3d 0026 593c 58cd 9dbd
000001a0: a12a 9dbd f0db 63bd 60b4 0dbd 52cc 873d
000001b0: 0c09 17bd 0371 91bc 047b 953d f05d 7c3c
000001c0: 752a cc3d de35 023c ac66 c3bd 34bf 7bbd
000001d0: 4c26 733d 8c75 953c 5a50 fe3d b875 993c
000001e0: 8181 ac3d 0507 94bd e9b9 d4bc 48fc 62bd
000001f0: 98fc 60bd f63b f03d 3022 6b3c 0093 02bb
00000200: 6f67 ecbd 7660 2abd 6b4d adbd d775 1d3d
00000210: 5cb0 2c3d 5d11 9b3d ecc8 863d bbeb 523d
00000220: 9c04 15bb 36d9 acbd 6fe1 1dbd e430 f93d
00000230: 99eb d5bd d3be f7bd 6abc da3d fb52 9b3c
00000240: 40c9 583d 899e 953d d054 873d 3ef4 673d
00000250: 21e6 99bc 44e1 ef3d a196 fbbb d3c1 87bc
00000260: 33ce 51bd 43c2 5c3a d837 79bd ec7e aebd
00000270: b825 e23c f7a9 b43b 03da ae3d 015e f33d
00000280: 00b7 9fbc 4278 943d 9a3f af3d 4e03 33bd
00000290: d37c dcbd d72b b2bd 610b cd3d c251 13bd
000002a0: c24f 633d 0e26 7e3c 054b 483d 47a8 96bd
000002b0: 6635 6bbc 6b57 f43d 6ece c3bd e87b a6bd
000002c0: 2bb8 fabd 9049 f33d b941 3bbd 60e0 98bd
000002d0: f79d 42bd 5096 8bbd b194 aebd e38c 9d3d
000002e0: 8374 913d 99fb bb3d ea25 a43d 3d52 70bc
000002f0: b3aa 81bd f4af e63d f322 dbbd 9e5f c1bd
00000300: 987d 883d 9b42 dabd 728e ea3c 3855 cebd
00000310: 09f1 643d d0ea 7bbd 4217 c8bb a1ad c23c
00000320: db73 1fbd 9d82 b93d 2491 ab3b 03ac 753d
00000330: f7de 023d 9154 5f3d 1bc0 91bd 7398 c4bd
00000340: a64d dfbd 225b b93c abd8 8b3a b46e 043e
00000350: 7b87 753d a0e4 2cbd 5c8b b5bd bfc3 c13c
00000360: 1dcd bcbd e581 d23c ea0f d53d 9253 0c3e
00000370: f5ad b93c 9235 d7bd 30b7 d53d c6e3 2e3d
00000380: 75c8 133c cf33 fb3b bfab f73d 61a2 b2bd
00000390: 3f80 21bc a5a0 ce3d bb6e 4cbc 1fbe fdbd
000003a0: 5e71 02bd ee9e f7bc 5dc9 6dbc 5220 92bd
000003b0: e970 b43d 173f 1f3d 5167 a4bd 0366 93bd
000003c0: 9650 823c 91e4 993d cfe1 c63d 12bd a13d
000003d0: 81b9 d8bd 5011 b93d ec21 5abd 807a 303d
000003e0: e950 883d 5c41 debd aac4 d9bd c291 97bc
000003f0: c36d 3ebd 012f 13bd 742e bcbd ccc2 f3bd

goal_map_encoder.block.0.bias f4 [32]
0.13307515 0.062076677 0.06931747 0.09368349 -0.09908126 0.09452006 -0.02463246 -0.04866932
-0.07263987 0.056180295 0.109840296 0.029152727 0.03842472 0.046980903 0.06901728 0.065655984
0.10685608 -0.09552901 -0.06254175 -0.021062825 -0.058128435 0.10362536 0.022704387 0.084528744
-0.018577578 0.044192806 -0.097362265 0.13519794 -0.05242885 -0.014045579 0.10480815 0.02604497
00000000: da44 083e 1d44 7e3d 51f6 8d3d 21dd bf3d
00000010: 1eeb cabd bc93 c13d 03ca c9bc 7b59 47bd
00000020: 36c4 94bd 4f1d 663d f3f3 e03d b3d1 ee3c
00000030: 3d63 1d3d 0c6f 403d ef58 8d3d a576 863d
00000040: 5cd7 da3d b7a4 c3bd e415 80bd f28b acbc
00000050: 1518 6ebd 8839 d43d 8dfe b93c 681d ad3d
00000060: 0130 98bc 8403 353d de65 c7bd 5471 0a3e
00000070: a2bf 56bd 6e1f 66bc a8a5 d63d 435c d53c

goal_map_encoder.block.2.weight f4 [64, 32, 4, 4]
-0.030153329 -0.01397619 -0.0006500903 -0.04800974 -0.02811619 -0.009436577 0.036182053 0.0054300623
-0.020083308 0.011378813 -0.014457408 -0.00096288766 -0.01964752 0.03640317 -0.01818849 -0.022281077
0.011632115 0.02452982 0.012411039 0.0229732 0.0103740115 -0.013876824 0.017286478 0.014509724
-0.01513805 0.03403072 0.00057828805 0.036074057 -0.042678665 -0.01850528 0.0017300019 -0.030289276
-0.044477496 0.037661426 0.036278006 0.0053747403 -0.010100477 0.025836997 -0.04495305 0.027462292
-0.041975554 0.00792438 -0.026907701 -0.018369852 0.0032292658 -0.02666896 -0.0036874593 0.0045418097
-0.0083685815 -0.0060214493 0.033622697 0.0024388493 -0.024229757 -0.038327124 0.025924122 0.036428392
0.0070631276 -0.029796455 -0.02196617 -0.0053033447 -0.014008512 0.022085322 0.0066715735 0.012164039
0.00390705 -0.011370092 -0.01154289 -0.019687124 0.03721016 0.03767846 0.037884656 0.014711421
0.018255949 0.0033553913 -0.013451483 0.0068467706 0.026932988 -0.035432488 0.019014377 -0.014958797
-0.016910726 0.008854824 0.0030963365 -0.04830743 0.017727979 -0.04443325 -0.0014931383 0.03407443
0.03769595 -0.04503101 -0.009050618 -0.0011892704 0.024125315 -0.013520908 -0.0089725545 -0.004990841
-0.025296718 0.02494033 0.025369506 0.03752629 0.027042251 -0.015971843 -0.042949434 0.030710552
-0.0103235785 -0.0341714 0.0065673105 0.03893972 0.041344758 0.029117826 0.008740988 -0.0272745
-0.013253061 0.012330252 0.015782561 -0.011615224 -0.014598245 0.015314863 0.030257832 0.041445177
0.007034056 -0.025278794 0.013821576 -0.028724963 0.02275281 -0.008684423 0.0017578229 0.026625399
-0.007452056 0.01930802 0.007905025 0.040392388 -0.04233856 0.026995096 -0.015245991 0.016476635
0.039215595 -0.015712662 -0.007014163 -0.020697705 -0.014597924 -0.0071997084 0.024034556 -0.032208145
-0.025911022 -0.01736225 -0.020634333 -0.002547988 0.0345202 0.034199644 -0.015435511 -0.048430517
0.038233183 0.009838549 -0.00034710497 0.023611264 -0.024966681 0.024144316 0.018523829 0.0023629207
0.007116902 0.0060434258 -0.0069306535 0.036612388 -0.02405601 -0.023344569 -0.008267746 -0.03959381
-0.023637854 -0.021890936 0.027916927 -0.043657474 -0.0077636465 0.0030602436 -0.01703124 0.014845772
-0.030951146 0.0054629454 -0.03371662 -0.046468507 -0.0033834935 -0.019585244 0.034966 0.026765881
-0.04421508 -0.018608795 -0.034041002 -0.041113 -0.030001283 0.008757625 -0.015765052 0.010865487
0.03609369 -0.02192668 0.010700495 -0.040940467 -0.044828355 -0.044753365 -0.03705909 -0.040770024
-0.04492112 -0.045827404 0.02392945 0.013671257 0.003277235 -0.02578412 0.035740476 0.0015031487
-0.0062814998 0.028886259 0.029044144 -0.048579477 -0.039810646 0.015860682 -0.0042292466 -0.0043799193
-0.044008505 -0.033595722 -0.0036727474 0.032478914 -0.022805601 0.027380079 -0.023931885 0.024294456
0.02527528 0.0023767669 0.017737126 -0.037367113 0.023543252 0.0019518652 0.011580125 0.015899433
0.0044064024 0.012088935 -0.0017421348 -0.0365903 -0.006437023 0.0017060582 -0.0073317285 0.0014014894
-0.019252416 -0.022274079 0.010584029 -0.01701032 -0.00808151 -0.00630004 0.010829698 0.028437978
-0.02235125 -0.038753852 -0.023367567 0.027217263 -0.03168735 0.005825524 0.03572308 0.02358484
00000000: 1d04 f7bc 64fc 64bc d26a 2aba dca5 44bd
00000010: ed53 e6bc df9b 1abc a233 143d aaee b13b
00000020: c085 a4bc 336e 3a3c c4de 6cbc 4c6a 7cba
00000030: d6f3 a0bc 7e1b 153d 0700 95bc ce86 b6bc
00000040: a094 3e3c c3f2 c83c ac57 4b3c 4b32 bc3c
00000050: c2f7 293c 9e5b 63bc 5f9c 8d3c 32ba 6d3c
00000060: 9505 78bc cc63 0b3d 4198 173a 64c2 133d
00000070: d3cf 2ebd 6398 97bc 3bc1 e23a 3721 f8bc
00000080: 092e 36bd de42 1a3d 3f98 143d 971e b03b
00000090: 797c 25bc 1ca8 d33c b020 38bd 9af8 e03c
000000a0: 8fee 2bbd 42d5 013c 8a6d dcbc 5f7c 96bc
000000b0: 17a2 533b dd78 dabc 4da9 71bb 76d3 943b
000000c0: 601c 09bc 944f c5bb f4b7 093d 1ad5 1f3b
000000d0: 7c7d c6bc e7fc 1cbd d35e d43c f035 153d
000000e0: cf71 e73b b217 f4bc 66f2 b3bc aec7 adbb
000000f0: f583 65bc 47ec b43c 379d da3b ad4b 473c
00000100: b606 803b 9f49 3abc 641e 3dbc e446 a1bc
00000110: ae69 183d bb54 1a3d f12c 1b3d 2c08 713c
00000120: 808d 953c 20e6 5b3b 9c63 5cbc e05a e03b
00000130: 92a2 dc3c a821 11bd 0ac4 9b3c be15 75bc
00000140: 5d88 8abc d313 113c e8eb 4a3b 03de 45bd
00000150: 443a 913c a4ff 35bd 68b5 c3ba a191 0b3d
00000160: 1267 1a3d 7072 38bd 0b49 14bc 4be1 9bba
00000170: 74a2 c53c cc86 5dbc 9f01 13bc 358a a3bb
00000180: 103b cfbc aa4f cc3c b6d3 cf3c 2bb5 193d
00000190: b687 dd3c 62d7 82bc bfeb 2fbd b294 fb3c
000001a0: 3a24 29bc 4ff7 0bbd 9832 d73b 417f 1f3d
000001b0: 1f59 293d 8288 ee3c 5c36 0f3c c66e dfbc
000001c0: 5e23 59bc d304 4a3c 6e4a 813c c84d 3ebc
000001d0: 7a2d 6fbc 31eb 7a3c 46df f73c 6bc2 293d
000001e0: f07d e63b 7915 cfbc e473 623c 9d50 ebbc
000001f0: 1a64 ba3c 1c49 0ebc c066 e63a 821d da3c
00000200: 6030 f4bb da2b 9e3c 1484 013c 7d72 253d
00000210: 336b 2dbd d224 dd3c 52ca 79bc 02fa 863c
00000220: 88a0 203d d7b7 80bc 10d7 e5bb 3c8e a9bc
00000230: 222c 6fbc 88eb ebbb 1ee4 c43c b0ec 03bd
00000240: 5a43 d4bc 473b 8ebc 5509 a9bc 25fc 26bb
00000250: 0e65 0d3d ed14 0c3d 3ae5 7cbc 145f 46bd
00000260: 669a 1c3d de31 213c a4fb b5b9 696c c13c
00000270: ed86 ccbc 4dca c53c 49bf 973c 3bdb 1a3b
00000280: e734 e93b ee07 c63b 891a e3bb dff6 153d
00000290: 1c11 c5bc 1c3d bfbc 7175 07bc 1e2d 22bd
000002a0: 2ca4 c1bc 9f54 b3bc 0ab2 e43c 2ed2 32bd
000002b0: 3066 febb 5e8e 483b 1985 8bbc ae3b 733c
000002c0: 428d fdbc 8202 b33b 701a 0abd c355 3ebd
000002d0: 9abd 5dbb 3c71 a0bc 8238 0f3d 1f44 db3c
000002e0: df1a 35bd 7971 98bc 946e 0bbd 1b66 28bd
000002f0: 40c5 f5bc 247c 0f3c b625 81bc 2805 323c
00000300: fad6 133d 959f b3bc 2151 2f3c 31b1 27bd
00000310: f09d 37bd 4e4f 37bd 46cb 17bd 78fe 26bd
00000320: 35ff 37bd 84b5 3bbd b207 c43c 68fd 5f3c
00000330: e1c6 563b 3839 d3bc 9b64 123d 4d05 c53a
00000340: 0ad5 cdbb e0a2 ec3c fced ed3c 46fb 46bd
00000350: 7d10 23bd 43ee 813c 7e95 8abb 6d85 8fbb
00000360: 4342 34bd ab9b 09bd 7ab2 70bb 9c08 053d
00000370: d0d2 babc 304c e03c cd0c c4bc 2b05 c73c
00000380: 1b0e cf3c 88c3 1b3b 734d 913c 420e 19bd
00000390: c7dd c03c bad5 ff3a 91ba 3d3c 873f 823c
000003a0: 9563 903b ab10 463c 5858 e4ba b6df 15bd
000003b0: aaed d2bb d09d df3a ff3e f0bb 2eb2 b73a
000003c0: 3eb7 9dbc 2178 b6bc a368 2d3c 3a59 8bbc
000003d0: 4f68 04bc 9170 cebb 0c6f 313c c3f6 e83c
000003e0: f819 b7bc 5cbc 1ebd 576d bfbc bdf6 de3c
000003f0: 98ca 01bd 0ae4 be3b 5d52 123d ff34 c13c

goal_map_encoder.block.2.bias f4 [64]
0.008132656 -0.025312468 0.019709697 0.01232932 0.040659174 -0.03867349 0.019058218 -0.023794245
0.007635301 0.016462125 -0.035978526 -0.010140824 -0.014889556 -0.012309918 0.005842221 0.026385842
0.04637104 -0.003815395 -0.040596314 -0.03127905 0.004549456 -0.039484993 0.009549644 -0.0132336
0.025213588 -0.019981883 0.0111298915 -0.030723598 0.04064903 -0.024561888 0.05445417 -0.012284204
0.001631668 0.036507003 0.048113227 0.052790586 0.06366773 0.029784191 0.048520688 0.0016656378
0.02697909 0.031662866 -0.03955191 0.033436574 0.050064415 0.028673794 0.04267211 -0.034438953
-0.01755823 -0.013456421 0.017696634 -0.02734184 0.035422556 -0.013607701 0.02215132 -0.018434707
0.004061966 0.034138016 -0.0032262292 0.03829213 0.004573453 -0.011423827 -0.044854514 -0.029908907
00000000: d53e 053c 185c cfbc 3b76 a13c eb00 4a3c
00000010: 3c8a 263d 1868 1ebd fb1f 9c3c 26ec c2bc
00000020: 8c31 fa3b 94db 863c 385e 13bd b325 26bc
00000030: 53f3 73bc 8aaf 49bc 1a70 bf3b 1f27 d83c
00000040: 8fef 3d3d b50b 7abb 5248 26bd 761e 00bd
00000050: 9a13 953b 04bb 21bd 1c76 1c3c bed1 58bc
00000060: ba8c ce3c 0cb1 a3bc 265a 363c 0eb0 fbbc
00000070: 997f 263d 0336 c9bc 560b 5f3d b043 49bc
00000080: b1dd d53a 5e88 153d 6012 453d f13a 583d
00000090: 3a64 823d fafd f33c a1bd 463d 8851 da3a
000000a0: 4103 dd3c ecb0 013d 2f01 22bd caf4 083d
000000b0: 5810 4d3d 4ee5 ea3c f3c8 2e3d dc0f 0dbd
000000c0: 47d6 8fbc 5278 5cbc 88f8 903c fffb dfbc
000000d0: 3e17 113d d6f2 5ebc af76 b53c 6204 97bc
000000e0: 3e1a 853b 4ed4 0b3d 256f 53bb 35d8 1c3d
000000f0: e8dc 953b 012b 3bbc 5eb9 37bd 8603 f5bc

goal_map_encoder.block.4.weight f4 [32, 64, 3, 3]
-0.040058088 -0.015634973 -0.023369528 0.027343627 0.024971398 -0.010905937 0.0055064964 -0.039984964
0.011755601 0.039757032 -0.015281161 -0.032695632 0.028793875 -0.032903194 -0.007201642 0.010778338
-0.0138377305 -0.00352557 -0.0017756262 -0.047068875 -0.045791198 -0.022015449 -0.02697197 0.013143265
0.015864665 -0.026231494 0.0042615575 0.017097078 0.037303064 0.019042589 -0.013540785 0.022023553
-0.0346314 0.009814254 0.0036830627 -0.0008909528 -0.009207451 0.023141576 -0.019056015 0.002112397
-0.0034240074 -0.025443234 -0.025732018 -0.019150004 -0.024903541 -0.03583145 -0.0049927793 0.011345554
-0.029121911 -0.03918081 -0.031907048 -0.007062435 -0.02994655 0.02052797 -0.014616251 -0.010040566
-0.014287913 -0.006613461 -0.0350161 -0.033433404 -0.049350165 -0.00049316476 -0.04357658 -0.024152718
-0.023157356 0.03248031 0.0103025315 0.033010352 0.009484303 -0.029087607 -0.026423112 -0.0027831765
0.036111187 0.026385438 0.014121259 0.031703323 -0.03356974 -0.0017374636 0.037448186 -0.011094434
0.02723903 0.0127797285 -0.034683663 0.0012896367 -0.019812388 -0.0014533356 -0.04851766 -0.030990336
0.012223569 -0.02050904 0.03255605 -0.0023876538 -0.0037663467 0.024014318 -0.043371033 0.036542434
0.0024509393 0.0060936958 0.00638479 -0.011980507 -0.010976368 -0.026100572 -0.016008979 -0.04555728
-0.027332358 0.010129016 0.01690195 -0.03289882 -0.035844926 0.022774162 0.02650749 -0.050555713
-0.013599092 -0.015621148 -0.024307836 0.015161842 -0.025604216 -0.03787842 -0.03247517 0.036290336
-0.0011634359 -0.016126981 0.008903891 0.003247235 0.014618497 -0.025009852 0.0226256 0.028562745
-0.0036638472 -0.012199406 0.009998089 0.0056866193 0.006988312 0.011741479 -0.01656905 -0.039980028
-0.005587202 0.0076060104 -0.039905228 -0.026603406 -0.02763833 -0.04456996 -0.04611923 0.014689697
0.0075823623 0.00924176 -0.051535156 -0.04627855 0.0119941775 0.022388654 -0.0026347067 -0.04044051
-0.019173615 -0.009919514 -0.039862696 -0.017648648 -0.024810877 0.0055861436 -0.008393917 0.0010012649
-0.035956334 0.026752528 0.028807206 0.02407119 0.03464332 0.033046518 0.0064861737 0.011215169
0.0036608577 -0.0187783 -0.03972251 -0.034711093 0.011992028 -0.024182547 -0.042536292 0.023470711
0.029566385 0.022959381 -0.0035165627 -0.008292414 -0.021571761 -0.01861542 0.029971553 0.026210451
0.02034735 -0.03554995 0.027344411 0.03457211 -0.030660901 0.020400112 0.012327117 0.034451008
0.037160054 0.02917038 0.006069861 -0.028889898 0.008638551 -0.042825494 -0.040245704 0.036967184
-0.026759682 0.004844764 0.01804546 -0.022063497 0.032504234 -0.024016434 -0.0031883293 0.034108743
-0.038158935 0.0014360654 -0.012732217 -0.026506925 -0.024414381 -0.041721158 0.014024055 0.015160948
-0.004212221 -0.013093225 -0.007485433 -0.0109575745 -0.03276874 -0.0530861 0.019568015 0.01519826
-0.036448054 -0.036089428 -0.008683013 -0.03920559 -0.04676243 0.004828895 -0.004236828 -0.023249067
0.023292435 -0.00061001856 -0.022423184 0.0042237877 0.03596756 0.018021144 -0.047173355 -0.035368335
-0.030037384 0.009166547 -0.0060696155 0.014834339 0.016990239 0.027601436 -0.029001974 -0.03236065
-0.037046835 -0.005309941 -0.017714374 -0.045481045 -0.040560495 -0.021429067 -0.035885584 -0.019258678
00000000: f313 24bd ea14 80bc 7471 bfbc beff df3c
00000010: d190 cc3c d1ae 32bc d76f b43b 46c7 23bd
00000020: 909a 403c 45d8 223d d65d 7abc dbeb 05bd
00000030: 22e1 eb3c 80c5 06bd c0fb ebbb a097 303c
00000040: a6b7 62bc 400d 67bb 21bc e8ba 4bcb 40bd
00000050: 8d8f 3bbd be59 b4bc 52f4 dcbc d956 573c
00000060: 9df6 813c 6ee3 d6bc 89a4 8b3b 2c0f 8c3c
00000070: 19cb 183d 34ff 9b3c 2bda 5dbc bd6a b43c
00000080: a8d9 0dbd f7cb 203c 8a5f 713b d58e 69ba
00000090: d9da 16bc 6793 bd3c 5c1b 9cbc 2470 0a3b
000000a0: 5065 60bb 546e d0bc f4cb d2bc 78e0 9cbc
000000b0: 8302 ccbc 00c4 12bd 789a a3bb b4e2 393c
000000c0: 1391 eebc 0f7c 20bd f7b0 02bd 006c e7bb
000000d0: 7852 f5bc 462a a83c 0079 6fbc 3081 24bc
000000e0: da17 6abc bbb5 d8bb 0b6d 0fbd 77f1 08bd
000000f0: 6623 4abd ba47 01ba 5b7d 32bd ecdb c5bc
00000100: 7fb4 bdbc 130a 053d f3cb 283c dd35 073d
00000110: 0d64 1b3c 2249 eebc 4875 d8bc f465 36bb
00000120: 53e9 133d 4626 d83c da5c 673c 58db 013d
00000130: 6c80 09bd 9bbb e3ba 4563 193d 6ec5 35bc
00000140: 6324 df3c 1162 513c 7510 0ebd 0709 a93a
00000150: 974d a2bc da7d beba 74ba 46bd 72df fdbc
00000160: 5d45 483c 9302 a8bc 7e59 053d 2f7a 1cbb
00000170: d0d4 76bb adb9 c43c d3a5 31bd 85ad 153d
00000180: f09f 203b a0ad c73b 8037 d13b e349 44bc
00000190: 39d6 33bc ded0 d5bc 4325 83bc 459a 3abd
000001a0: 1ce8 dfbc 2cf4 253c f575 8a3c eac0 06bd
000001b0: 21d2 12bd e190 ba3c 3c26 d93c 8213 4fbd
000001c0: bace 5ebc d8ef 7fbc 3a21 c7bc 6069 783c
000001d0: efbf d1bc 6726 1bbd af04 05bd 2da5 143d
000001e0: 6e7e 98ba bb1c 84bc a0e1 113c 90cf 543b
000001f0: 6c82 6f3c 76e1 ccbc 5359 b93c 6bfc e93c
00000200: 281d 70bb 04e0 47bc 06cf 233c d256 ba3b
00000210: 36fe e43b 555f 403c d1bb 87bc 19c2 23bd
00000220: d914 b7bb d73b f93b aa73 23bd 63ef d9bc
00000230: c769 e2bc fe8e 36bd 85e7 3cbd 0ead 703c
00000240: 7775 f83b c06a 173c 8716 53bd 948e 3dbd
00000250: 3a83 443c 6968 b73c 0bab 2cbb f3a4 25bd
00000260: fc11 9dbc 7585 22bc 1147 23bd e693 90bc
00000270: 2e40 cbbc f80b b73b a486 09bc e03c 833a
00000280: f346 13bd 1e28 db3c 17fd eb3c f230 c53c
00000290: 27e6 0d3d c95b 073d f889 d43b d4bf 373c
000002a0: 00eb 6f3b f3d4 99bc 12b4 22bd 382d 0ebd
000002b0: 367a 443c 7a1a c6bc 893a 2ebd a645 c03c
000002c0: 3435 f23c 5015 bc3c 2276 66bb e8dc 07bc
000002d0: 43b7 b0bc 5e7f 98bc e786 f53c 4db7 d63c
000002e0: 7caf a63c d39c 11bd 6301 e03c 7c9b 0d3d
000002f0: 922c fbbc 231e a73c adf7 493c 801c 0d3d
00000300: 2435 183d b9f6 ee3c afe5 c63b 82aa ecbc
00000310: b688 0d3c c969 2fbd aed8 24bd e76a 173d
00000320: 1f37 dbbc d3c0 9e3b 13d4 933c 82be b4bc
00000330: 2923 053d 1dbe c4bc 4af3 50bb 9cb5 0b3d
00000340: 8b4c 1cbd 5c3a bc3a ca9a 50bc 0d25 d9bc
00000350: ab00 c8bc cee3 2abd 26c5 653c a065 783c
00000360: ac06 8abb f784 56bc 5d48 f5bb 6687 33bc
00000370: 8438 06bd cf70 59bd 1a4d a03c 1f02 793c
00000380: 8e4a 15bd 82d2 13bd 3243 0ebc 0a96 20bd
00000390: f689 3fbd b53b 9e3b 17d5 8abb d474 bebc
000003a0: c7cf be3c a7e9 1fba d3b0 b7bc b367 8a3b
000003b0: b852 133d 14a1 933c d938 41bd 63de 10bd
000003c0: f610 f6bc 492f 163c a0e3 c6bb ba0b 733c
000003d0: 1d2f 8b3c 681c e23c 8c95 edbc 9a8c 04bd
000003e0: 6cbe 17bd 03ff adbb bc1d 91bc 554a 3abd
000003f0: c322 26bd 038c afbc c3fc 12bd 60c4 9dbc

goal_map_encoder.block.4.bias f4 [32]
0.004634229 0.030106505 -0.022104982 0.02966854 -0.03981332 0.01933048 -0.034241285 0.035177674
-0.036402937 0.038250487 0.030363752 -0.018142555 -0.015557428 0.012038622 -0.0046277787 -0.028633371
0.008562651 -0.00093651866 0.025906216 -0.032939076 0.0060931416 -0.013326581 0.029463517 -0.011057965
0.0026382357 -0.005101486 0.049378466 0.026826002 -0.048286688 0.024726827 -0.026730496 0.009621718
00000000: bbda 973b eba1 f63c 8215 b5bc 700b f33c
00000010: 4b13 23bd f45a 9e3c 9740 0cbd 7716 103d
00000020: 3f1b 15bd 8bac 1c3d 67bd f83c b29f 94bc
00000030: 95e4 7ebc a43d 453c 9fa4 97bb 8890 eabc
00000040: 5d4a 0c3c b480 75ba 4639 d43c 20eb 06bd
00000050: faa8 c73b bb57 5abc 795d f13c 782c 35bc
00000060: 40e6 2c3b 5e2a a7bb 1341 4a3d 34c2 db3c
00000070: 43c8 45bd ea8f ca3c eaf9 dabc 69a4 1d3c
