project/ckpt/actor_0.ckpt (torch, 731951 bytes, 24 tensors)

map_encoder.block.0.weight f4 [32, 1, 8, 8]
0.028492913 -0.020861074 0.06497063 0.113773555 0.09525587 -0.015634194 -0.12483257 0.020675704
0.04735139 -0.11945371 -0.046492234 0.076712295 0.048851535 0.053018406 0.0019074231 0.06995015
-0.030403376 0.07393587 -0.030698866 -0.09745595 0.09774159 0.07457939 -0.11843404 0.03404817
0.124271244 -0.10959166 0.12197761 0.056198478 0.040805995 0.092071414 0.10016133 0.10005839
-0.030360773 -0.025016174 -0.034096166 -0.024098262 -0.10359673 -0.06664601 -0.041991845 0.062411413
0.05297254 0.024576232 0.11809583 -0.06072466 -0.121198 0.057291076 -0.11522049 -0.047277853
-0.0631392 -0.007801518 0.051219583 0.08726248 0.05169426 -0.00420399 0.04548858 0.010380477
-0.028428063 0.10671374 0.121414155 0.085037485 0.09228581 0.039014474 -0.08785975 0.05213511
0.037841722 0.0076006353 -0.065978914 0.11906828 0.09105565 0.029367492 0.06147018 -0.048938647
-0.009587914 -0.09295569 0.07327853 0.118419215 0.01591976 -0.004957527 0.0067052394 -0.0946026
-0.10745436 -0.04601954 -0.049381673 -0.08607288 0.0035866946 -0.04977137 0.0884043 -0.10894778
-0.10048345 0.009390414 0.029984549 0.11438647 0.05560966 0.11114974 -0.023396567 0.035205394
-0.053016037 -0.030596197 0.057565764 -0.11371218 -0.080284104 0.06061609 0.026917696 0.111169934
0.018891841 0.027637362 -0.07949838 0.049859926 0.0069853812 -0.061077103 0.058699146 -0.045560166
0.0068339407 0.12396599 0.056745395 -0.0027043372 0.042333245 0.06968382 -0.05542527 -0.014032111
-0.03847316 0.05844909 0.026432276 0.035476267 0.11319046 0.009171262 0.10289942 -0.12335479
-0.12036428 -0.11411545 0.07942422 -0.11473183 0.037871346 0.07543726 -0.027354494 -0.043569773
-0.027834997 -0.0054216236 0.10061328 -0.12486036 -0.0076467246 0.038486823 -0.07481399 0.04201998
-0.05942066 0.104714975 0.093703955 -0.05716598 -0.09379037 -0.107423976 -0.099527955 -0.1188339
-0.0560818 -0.021267965 -0.015929699 -0.05573657 0.02112636 -0.0729219 -0.06966396 -0.11060895
0.010684639 -0.12106125 -0.0465592 0.10048486 -0.106546044 0.013415441 -0.09552272 -0.11007221
-0.08378141 0.12236881 -0.042834878 -0.07026127 0.07172783 0.03522758 0.030592635 0.06846407
-0.031351447 0.0020899773 0.12401532 -0.06769256 -0.06507349 -0.10114935 -0.10214938 -0.07277943
0.045667425 0.12394293 0.10640828 0.07273969 -0.070125 0.02345319 -0.09001747 0.11022116
-0.06433207 0.052396312 -0.088786036 0.04292704 -0.045516253 -0.05891019 -0.07058531 0.119090945
-0.015362546 -0.04808657 0.11963357 -0.057871968 -0.069633454 0.051210254 -0.074939296 0.10436034
-0.09413141 -0.10539973 0.056810662 -0.0723882 -0.007215336 0.002115503 -0.096646294 -0.10671553
-0.011036843 -0.00058820844 0.013177991 -0.05089563 0.03435497 0.049249023 -0.010491818 0.057650626
0.11972819 0.11699493 -0.047684237 0.10094568 0.078911155 0.002550304 -0.107516035 0.035992846
-0.021265954 0.09275861 -0.0019273013 -0.076254874 -0.00475356 -0.10024811 -0.07907784 0.08748025
-0.009201914 0.09632318 0.033374637 -0.001917392 0.082529396 -0.116622806 0.08636886 -0.05290909
-0.080842674 -0.100325674 0.0850876 -0.062232688 -0.076483965 0.025794879 -0.11494306 -0.08174868
00000000: f869 e93c d8e4 aabc 520f 853d 1c02 e93d
00000010: 8215 c33d 4813 80bc 38a8 ffbd 1860 a93c
00000020: 88f3 413d 26a4 f4bd a46e 3ebd 561b 9d3d
00000030: 8c18 483d d429 593d 8002 fa3a 0642 8f3d
00000040: 8010 f9bc b06b 973d 307c fbbc fc96 c7bd
00000050: be2c c83d 14bd 983d 8c8d f2bd 1876 0b3d
00000060: ec81 fe3d 9871 e0bd 66cf f93d 6030 663d
00000070: 3024 273d f08f bc3d 6221 cd3d 6aeb cc3d
00000080: 28b7 f8bc b8ee ccbc 6ca8 0bbd b869 c5bc
00000090: 862a d4bd b47d 88bd a4ff 2bbd 1ca3 7f3d
000000a0: bcf9 583d 1854 c93c 3adc f13d 6cba 78bd
000000b0: a836 f8bd 0caa 6a3d b8f8 ebbd 6ca6 41bd
000000c0: 204f 81bd e0a3 ffbb a0cb 513d acb6 b23d
000000d0: 5cbd 533d a0c1 89bb 3c52 3a3d e012 2a3c
000000e0: f8e1 e8bc bc8c da3d fca7 f83d 2228 ae3d
000000f0: 5800 bd3d a4cd 1f3d d0ef b3bd a08b 553d
00000100: ecff 1a3d c00e f93b f41f 87bd 12da f33d
00000110: 627b ba3d 1894 f03c 28c8 7b3d e473 48bd
00000120: a016 1dbc 8e5f bebd 0e13 963d c685 f23d
00000130: 286a 823c c072 a2bb a0b7 db3b 02bf c1bd
00000140: 0811 dcbd fc7e 3cbd 7044 4abd fa46 b0bd
00000150: c00e 6b3b 10dd 4bbd 500d b53d 0420 dfbd
00000160: 44ca cdbd 40da 193c 28a2 f53c 7443 ea3d
00000170: f4c6 633d 7aa2 e33d 28aa bfbc 8833 103d
00000180: 5827 59bd e0a4 fabc 14ca 6b3d eee1 e8bd
00000190: fe6b a4bd 9448 783d 8082 dc3c 10ad e33d
000001a0: 10c3 9a3c c067 e23c 0cd0 a2bd ec39 4c3d
000001b0: a0e5 e43b fc2b 7abd 846e 703d 4c9d 3abd
000001c0: 40ef df3b e2e1 fd3d dc6d 683d 403b 31bb
000001d0: a065 2d3d 64b6 8e3d 9c05 63bd f0e6 65bc
000001e0: 0896 1dbd 5068 6f3d 8088 d83c 904f 113d
000001f0: 66d0 e73d 1043 163c eebc d23d 70a1 fcbd
00000200: 8c81 f6bd 5cb5 e9bd 2aa9 a23d 86f8 eabd
00000210: fc1e 1b3d da7e 9a3d 8816 e0bc 3876 32bd
00000220: 3806 e4bc e0a7 b1bb 560e ce3d cab6 ffbd
00000230: 6091 fabb 5ca4 1d3d 1438 99bd 241d 2c3d
00000240: 1463 73bd ce74 d63d dce7 bf3d e026 6abd
00000250: 2a15 c0bd 1a01 dcbd 50d5 cbbd 305f f3bd
00000260: 08b6 65bd 283a aebc 007f 82bc 084c 64bd
00000270: 3011 ad3c 1458 95bd faab 8ebd f286 e2bd
00000280: a00e 2f3c f6ee f7bd dcb4 3ebd 02cb cd3d
00000290: d034 dabd 70cc 5b3c 6aa1 c3bd 8a6d e1bd
000002a0: 9695 abbd 809c fa3d a073 2fbd 24e5 8fbd
000002b0: 0ae6 923d cc4a 103d 689d fa3c e436 8c3d
000002c0: 606a 00bd 00f8 083b befb fd3d 66a2 8abd
000002d0: 4045 85bd 6427 cfbd b233 d1bd 620d 95bd
000002e0: c40d 3b3d cad5 fd3d 96ec d93d 8cf8 943d
000002f0: b29d 8fbd e820 c03c 145b b8bd a2bb e13d
00000300: 88c0 83bd 849d 563d 74d5 b5bd 44d4 2f3d
00000310: 406f 3abd d04b 71bd 088f 90bd f4e5 f33d
00000320: 30b3 7bbc 6cf6 44bd 7202 f53d 280b 6dbd
00000330: fc9b 8ebd d8c1 513d c679 99bd e0ba d53d
00000340: f8c7 c0bd d0db d7bd 4cb2 683d 4440 94bd
00000350: a06e ecbb 40a4 0a3b 7eee c5bd ac8d dabd
00000360: e0d3 34bc 0032 1aba 80e8 573c f077 50bd
00000370: ccb7 0c3d 58b9 493d e0e5 2bbc 1023 6c3d
00000380: 0e34 f53d 0a9b ef3d 8c50 43bd 9cbc ce3d
00000390: 2c9c a13d 0023 273b 5e31 dcbd 3c6d 133d
000003a0: f035 aebc 3af8 bd3d 809d fcba 842b 9cbd
000003b0: c0c3 9bbb e24e cdbd 90f3 a1bd d828 b33d
000003c0: a0c3 16bc 1645 c53d d8b3 083d 0051 fbba
000003d0: 2c05 a93d f0d7 eebd 28e2 b03d 34b7 58bd
000003e0: d890 a5bd 8c77 cdbd 6842 ae3d b4e7 7ebd
000003f0: a0a3 9cbd c84f d33c 4467 ebbd da6b a7bd

map_encoder.block.0.bias f4 [32]
-0.05059217 -0.042696953 -0.040474385 0.029486716 0.106409654 0.042801544 -0.07183261 0.0020445585
0.038420126 0.079182416 -0.04346004 -0.048047855 0.080171555 0.06638341 0.020339683 -0.1191767
0.034727618 0.033472672 0.12402041 -0.015768081 -0.045825645 0.09988937 0.017423153 0.11604573
0.11739285 -0.05491008 -0.10869835 0.056997865 0.02058597 -0.057345808 -0.008713886 0.052459925
00000000: bc39 4fbd 00e3 2ebd 78c8 25bd 208e f13c
00000010: 4eed d93d ac50 2f3d fa1c 93bd 00fe 053b
00000020: 6c5e 1d3d 642a a23d 2803 32bd d4cd 44bd
00000030: fc30 a43d 06f4 873d 689f a63c ea12 f4bd
00000040: 8c3e 0e3d a41a 093d 6afe fd3d 102c 81bc
00000050: acb3 3bbd cc92 cc3d 00bb 8e3c 62a9 ed3d
00000060: aa6b f03d 64e9 60bd 3e9d debd 9876 693d
00000070: e8a3 a83c 70e3 6abd b0c4 0ebc 38e0 563d

map_encoder.block.2.weight f4 [64, 32, 4, 4]
-0.02217557 -0.017152572 -0.013752384 0.035919275 0.03656521 -0.00023851544 -0.024689792 0.03624412
-0.015515309 0.039631654 0.005222544 0.027087007 -0.007620707 -0.03345029 0.007097166 -0.011619382
-0.016278414 -0.010215063 -0.0016953833 -0.037098404 -0.0010495409 -0.031048223 -0.027281327 0.008228533
0.03927764 0.015171852 -0.042572748 0.012158986 0.037060943 -0.0113559365 -0.03359505 0.02015378
-0.023093928 0.027930055 0.016905986 -0.023176856 0.014008921 0.026273716 0.0010501891 0.028340261
0.028856996 0.02249341 -0.021987215 0.042679723 -0.003861051 0.028958637 0.021670442 -0.029369958
-0.013088873 -0.0166439 -0.026457088 0.038097974 -0.009855412 -0.016859798 -0.012827747 -0.0072405823
-0.033767186 -0.018614903 0.04304306 0.0260459 -0.040785108 -0.006929744 -0.007512551 -0.0039600804
-0.01486955 0.02591518 0.01281593 0.033759605 0.006175857 0.023612801 0.009561438 -0.013879426
-0.00352161 0.022254433 0.014308564 -0.028185004 -0.036145344 -0.010749705 -0.032397386 -0.003862884
0.0021427236 0.013474222 -0.02322452 -0.023918757 0.018389542 -0.031727094 -0.02018442 0.013902202
-0.030635348 -0.042298198 0.019881707 -0.035044678 0.021355916 0.044029366 -0.032072037 -0.038761232
-0.018172055 -0.032928362 0.003137175 0.006764196 -0.004449304 -0.01988041 -0.03629332 5.2984804e-05
0.035315406 0.04154147 -0.041753016 0.002013132 -0.031825785 0.0022159815 -0.03724057 -0.04189422
-0.027366228 -0.028156012 0.043712813 0.041171562 -0.026995888 0.016015746 0.012896482 -0.039444685
0.039126117 0.03680261 0.008002929 0.023597922 0.008949276 0.03545608 -0.023070753 0.033361126
0.029483747 0.014541697 0.010571778 0.030338798 0.0070669204 0.03759164 0.008134957 -0.03207522
-0.027751317 0.0001363568 0.012685653 0.0033697449 -0.023616064 0.017283373 0.024095017 0.008692533
-0.00543068 -0.044011645 0.022328999 0.04256181 0.042137798 -0.036186595 0.04278667 0.029171523
-0.013314685 0.023590837 -0.0010269806 -0.010554124 0.00025059283 -0.024251554 -0.040319536 0.010246515
-0.027751008 0.009380471 -0.020488683 0.031953666 -0.013735067 0.024240877 -0.010307286 -0.01545682
0.021908518 -0.023575028 0.024857696 0.018756207 0.036305886 0.02054688 -0.021117609 -0.00096969306
0.032241967 0.01250888 -0.040050965 -0.032889158 -0.040504362 0.03609551 0.03857157 -0.03121031
0.006104037 0.03245983 0.027509253 -0.037508868 0.03742354 0.03885005 0.019737672 -0.010386031
-0.035362992 0.008448236 0.017628297 0.024660323 -0.033390846 0.030154604 0.007807862 0.008528329
0.039787214 0.03683802 0.016852926 -0.005832609 -0.038350586 -0.02712087 -0.023253253 0.023117933
-0.007162895 0.04336108 0.031727847 0.04245578 -0.03999678 -0.0070708506 0.011650678 0.018610422
0.035201807 0.03242072 0.013692874 0.0018926561 0.039157916 -0.015994087 0.032143813 -0.023490867
0.0076999404 0.003650453 -0.042042192 0.0053446256 0.0048759915 -0.02168617 0.028936159 0.013280131
-0.034716938 0.0100361705 0.008218441 -0.011562452 0.02422573 -0.02137166 0.035548378 -0.018453345
0.03827906 0.0061202534 0.011935506 -0.028788347 0.027473938 -0.040239256 -0.030408017 0.021745969
0.012634788 -0.02582048 0.020391565 0.027105052 -0.026476176 0.043527532 0.006340049 0.028370779
00000000: 8aa9 b5bc 8d83 8cbc ae51 61bc 1720 133d
00000010: 67c5 153d 001a 7ab9 3f42 cabc b774 143d
00000020: ec33 7ebc cd54 223d e021 ab3b 92e5 dd3c
00000030: 20b7 f9bb 2c03 09bd 588f e83b 385f 3ebc
00000040: 4f5a 85bc 145d 27bc a037 deba 7ff4 17bd
00000050: c090 89ba d858 febc 177d dfbc f8d0 063c
00000060: 97e1 203d 5c93 783c c360 2ebd 7c36 473c
00000070: 37cd 173d 400e 3abc f79a 09bd 8a19 a53c
00000080: 7a2f bdbc 92cd e43c 6c7e 8a3c 64dd bdbc
00000090: ac85 653c fa3b d73c 80a6 893a d629 e83c
000000a0: 8265 ec3c 1a44 b83c 881e b4bc efd0 2e3d
000000b0: b009 7dbb aa3a ed3c 3686 b13c 4499 f0bc
000000c0: b672 56bc ca58 88bc 89bc d8bc 9f0c 1c3d
000000d0: 9878 21bc 8f1d 8abc 782b 52bc 6842 edbb
000000e0: 764f 0abd 487e 98bc eb4d 303d 365e d53c
000000f0: 490e 27bd e812 e3bb d82b f6bb 90c3 81bb
00000100: 6a9f 73bc 124c d43c e8f9 513c 8347 0a3d
00000110: d85e ca3b a26f c13c 94a7 1c3c 8866 63bc
00000120: d0ca 66bb ee4e b63c 786e 6a3c 3de4 e6bc
00000130: 240d 14bd 881f 30bc 1fb3 04bd 7028 7dbb
00000140: f06c 0c3b fcc2 5c3c 5941 bebc 45f1 c3bc
00000150: aaa5 963c 45f4 01bd cc59 a5bc 10c6 633c
00000160: fbf6 fabc e040 2dbd f6de a23c 028b 0fbd
00000170: 9af2 ae3c 2358 343d f85d 03bd 19c4 1ebd
00000180: 90dd 94bc e4df 06bd 1099 4d3b 30a6 dd3b
00000190: 78cb 91bb 3edc a2bc 4ea8 14bd 003c 5e38
000001a0: e3a6 103d 6327 2a3d 3605 2bbd c0ee 033b
000001b0: c15b 02bd 003a 113b 9189 18bd 4699 2bbd
000001c0: 242f e0bc 70a7 e6bc 350c 333d 83a3 283d
000001d0: 7b26 ddbc 7433 833c c44b 533c c090 21bd
000001e0: b542 203d 55be 163d b81e 033c 6e50 c13c
000001f0: fc9f 123c 653a 113d e0fe bcbc ada5 083d
00000200: e687 f13c 4c40 6e3c 4035 2d3c 1289 f83c
00000210: a091 e73b b1f9 193d 7c48 053c 4e61 03bd
00000220: bb56 e3bc 00fb 0e39 7cd7 4f3c f0d6 5c3b
00000230: 7a76 c1bc dc95 8d3c ea62 c53c 206b 0e3c
00000240: d8f3 b1bb 8e45 34bd 4eeb b63c 4b55 2e3d
00000250: af98 2c3d 6538 14bd 1341 2f3d 1ef9 ee3c
00000260: d625 5abc 9241 c13c c09b 86ba 34eb 2cbc
00000270: 0062 8339 32ab c6bc 1926 25bd 00e1 273c
00000280: 1556 e3bc 8cb0 193c e2d7 a7bc d9e1 023d
00000290: 0c09 61bc ce94 c63c e4df 28bc 9a3e 7dbc
000002a0: 7e79 b33c 6b20 c1bc 5ea2 cb3c 9ea6 993c
000002b0: 7bb5 143d ee51 a83c d6fe acbc 0033 7eba
000002c0: 2710 043d 0cf2 4c3c 7b0c 24bd c8b6 06bd
000002d0: e7e7 25bd e3d8 133d 39fd 1d3d c4ac ffbc
000002e0: 6004 c83b 99f4 043d 165b e13c e6a2 19bd
000002f0: 6d49 193d 3b21 1f3d e6b0 a13c 2c2a 2abc
00000300: c9d8 10bd 786a 0a3c 3869 903c 7204 ca3c
00000310: d7c4 08bd ca06 f73c 18d9 ff3b 68ba 0b3c
00000320: ebf7 223d 77e3 163d 260f 8a3c 781f bfbb
00000330: 8115 1dbd 962c debc 9b7d bebc d261 bd3c
00000340: b8b6 eabb 639b 313d 0ff5 013d 1de6 2d3d
00000350: aad3 23bd 98b2 e7bb 7ce2 3e3c e274 983c
00000360: c52f 103d 97cb 043d 1458 603c 0013 f83a
00000370: 0d64 203d 0806 83bc 3ba9 033d eb6f c0bc
00000380: c84f fc3b 703c 6f3b 6f34 2cbd f821 af3b
00000390: c8c6 9f3b 32a7 b1bc 860b ed3c e894 593c
000003a0: 5933 0ebd c06e 243c a4a6 063c 7070 3dbc
000003b0: 0a75 c63c 9f13 afbc 2d9b 113d 782b 97bc
000003c0: 81ca 1c3d 688c c83b 248d 433c 8ad5 ebbc
000003d0: 0611 e13c ebd1 24bd 3c1a f9bc 9a24 b23c
000003e0: 2402 4f3c 7985 d3bc 360c a73c 6a0b de3c
000003f0: 91e4 d8bc ed49 323d 30c0 cf3b d669 e83c

map_encoder.block.2.bias f4 [64]
-0.03355299 -0.020917991 0.0026894212 -0.013757316 0.032288115 -0.0028020553 0.0185397 -0.022179099
-0.034256846 -0.0018981658 0.0047054887 0.019517165 0.03898361 0.019319918 -0.020737609 -0.0036716275
0.042773772 0.03235017 0.028705213 -0.007788811 -0.03752584 -0.020095259 -0.041168872 -0.030456077
-0.007469002 0.0018228628 0.011645295 -0.01078219 -0.028787177 0.025039013 -0.025710957 0.03262053
0.032844435 -0.0068723448 -0.028138984 0.041929822 0.0069667995 0.03314479 -0.013045704 0.021217715
-0.009434272 0.01709206 -0.010658748 -0.02220102 0.0004842393 -0.021133514 -0.008214109 0.019672107
0.04097991 0.0023302883 -0.02236631 0.03456373 0.00835719 0.030156467 0.015986059 -0.024078963
-0.028365381 -0.031547487 0.0040447637 0.0038270801 0.033179644 0.011167064 -0.020630013 0.012746852
00000000: dc6e 09bd 355c abbc 0041 303b 5e66 61bc
00000010: 8b40 043d b0a2 37bb 92e0 973c f1b0 b5bc
00000020: e850 0cbd e0cb f8ba 8030 9a3b 76e2 9f3c
00000030: 47ad 1f3d ce44 9e3c ebe1 a9bc b09f 70bb
00000040: 8d33 2f3d 9d81 043d 3227 eb3c 4839 ffbb
00000050: b2b4 19bd d09e a4bc b1a0 28bd 067f f9bc
00000060: 88be f4bb 20ed ee3a e8cb 3e3c c8a7 30bc
00000070: 16d3 ebbc 9e1e cd3c c99f d2bc 1b9d 053d
00000080: e387 063d 6831 e1bb ba83 e6bc 9bbe 2b3d
00000090: c049 e43b d5c2 073d a6bd 55bc c6d0 ad3c
000000a0: 3492 1abc a604 8c3c 08a2 2ebc eade b5bc
000000b0: 80e1 fd39 3120 adbc 7894 06bc 6627 a13c
000000c0: 8dda 273d c0b7 183b 8d39 b7bc b392 0d3d
000000d0: 98ec 083c b20a f73c 32f5 823c 3f41 c5bc
000000e0: 845e e8bc f037 01bd f089 843b c0cf 7a3b
000000f0: 61e7 073d 10f6 363c 4600 a9bc 2cd8 503c

map_encoder.block.4.weight f4 [32, 64, 3, 3]
0.011452582 -0.01562351 0.041207265 0.03237306 0.00729182 0.03863195 -0.026412517 0.023456145
-0.0059609525 0.039945412 0.027573373 -0.0009898357 -0.03398799 -0.0016610958 -0.0178277 0.032549027
0.016252484 0.03180969 -0.019634362 0.038664583 -0.01645945 0.015840571 0.020728294 -0.032767497
-0.029192543 -0.03587624 0.018878404 -0.029768204 -0.008212503 0.03142867 0.039274942 -0.0013508163
-0.03378944 0.013733119 0.0059258454 0.0072669946 0.025249418 -0.03669418 0.006661698 -0.035226725
-0.0134876575 -0.0054805726 0.0041481443 0.02556004 0.00895657 -0.041356973 0.03617544 0.021366153
0.030436862 0.026888084 0.025300723 0.035042826 0.038689908 0.0059410892 -0.007561084 0.027518522
0.011229772 0.010840848 -0.0070801824 -0.033120316 0.025563989 0.03947479 0.017953891 -0.028063392
0.008134887 0.009518266 -0.028461521 -0.031954613 0.028336275 -0.01845352 -0.03980745 -0.017132163
-0.025783336 0.034944747 0.00787529 0.018711954 -0.017340135 -0.015940022 -0.011454638 0.023695607
0.008368228 0.028627206 -0.03664229 0.02015933 -0.02300325 -0.008347649 -0.027359497 0.027752887
0.040277537 -0.024049005 0.035048474 -0.023695877 0.0055462234 -0.03168188 -0.040397786 -0.0036791973
-0.03114517 -0.00038979575 -0.00013369694 -0.027318215 -0.033965632 -0.041242413 0.021841142 -0.0012711622
0.03174435 -0.029485788 0.007788863 -0.024761086 -0.033345964 0.03253909 -0.018609732 0.026121233
0.0018454529 -0.013499742 -0.015004506 0.0130448975 -0.0006146431 0.0065581165 -0.03573846 0.023564618
0.032256115 0.011341486 -0.024256274 -0.003045518 0.018723458 0.025057364 -0.03852675 0.038768847
0.00785093 -0.009521514 -0.026335865 -0.027874839 -0.018912738 -0.010312598 0.027069423 0.02841561
-0.009112582 0.026153062 0.030703757 -0.009294957 0.006471187 -0.038352937 -0.034805603 0.019219216
0.0071080886 0.005906049 0.030480105 0.0056024604 -0.026240265 0.020051267 -0.0145717915 -0.023709252
0.029759187 -0.03276707 -0.037730988 0.01788463 -0.011357283 0.0049557276 -0.016306972 0.015064258
0.010681804 -0.032155707 0.036383282 -0.037860073 -0.027501797 0.0008321516 -0.03815113 0.038729835
0.021280829 -0.038665608 -0.006567251 -0.03887136 0.01945446 0.0136359185 -0.0075280517 -0.014956191
-0.026732838 0.02796023 -0.037088223 0.011617128 -0.022810593 0.013687905 -0.03083088 -0.029273814
-0.025673643 0.016640108 -0.004658904 0.028831478 -0.01654455 0.025385287 0.03751279 -0.0050488226
0.030309234 0.005351696 -0.016962469 0.015627354 0.0071248002 0.01486389 -0.0010374039 -0.033331625
-0.014832601 -0.009442881 -0.015975833 -0.013432598 -0.024572864 -0.035537016 0.008225072 -0.030539896
0.024745222 -0.0067831837 -0.025328448 0.033324603 0.027111564 -0.031958714 -0.03508709 -0.022886291
0.016577765 -0.022569856 -0.027134886 0.016054366 -0.018037071 0.021002498 0.021801922 0.03629366
-0.03323514 -0.025319993 -0.022621002 0.039597068 0.04118811 -0.007198725 -0.0032366924 -0.029699579
0.008358981 0.019571107 0.016082156 -0.007458195 0.027328636 -0.010340661 0.026802469 -0.028749099
-0.0065315403 -0.0068390407 0.034614723 0.0014500953 0.032057088 -0.009399559 0.009279519 -0.020559674
-0.04162824 -0.021866491 0.04116534 -0.006837804 -0.016149089 0.025641095 0.02641936 0.012773424
00000000: 9ca3 3b3c c0f9 7fbc f3c8 283d 9d99 043d
00000010: 38f0 ee3b 893c 1e3d 105f d8bc 1a27 c03c
00000020: 1854 c3bb cd9d 233d 8ee1 e13c 60bd 81ba
00000030: fe36 0bbd 20b9 d9ba 660b 92bc 2152 053d
00000040: ee23 853c e14a 023d 3ed8 a0bc c15e 1e3d
00000050: f8d5 86bc 16c4 813c 62ce a93c 3637 06bd
00000060: 3325 efbc f7f2 12bd e2a6 9a3c 73dc f3bc
00000070: bc8d 06bc 59bb 003d c3de 203d e00d b1ba
00000080: cc66 0abd e000 613c 982d c23b f81f ee3b
00000090: ded7 ce3c a34c 16bd 604a da3b e649 10bd
000000a0: 56fb 5cbc 6096 b3bb 28ed 873b 4a63 d13c
000000b0: 94be 123c ee65 29bd b32c 143d 1208 af3c
000000c0: ba56 f93c 6644 dc3c 7643 cf3c 1189 0f3d
000000d0: 4f79 1e3d 78ad c23b f8c2 f7bb 866e e13c
000000e0: 14fd 373c d09d 313c e000 e8bb 2ba9 07bd
000000f0: 926b d13c 51b0 213d 0a14 933c 33e5 e5bc
00000100: 3048 053c 80f2 1b3c 2328 e9bc d7e2 02bd
00000110: 7a21 e83c d62b 97bc 230d 23bd c058 8cbc
00000120: 9337 d3bc 3922 0f3d 5c07 013c d049 993c
00000130: e60c 8ebc a694 82bc 3cac 3bbc 4a1d c23c
00000140: e41a 093c 9a83 ea3c 3a16 16bd 2e25 a53c
00000150: 5071 bcbc 94c4 08bc 0621 e0bc 065a e33c
00000160: 0ffa 243d 6b02 c5bc fd8e 0f3d db1d c2bc
00000170: 18bd b53b dcc4 01bd 2678 25bd b01e 71bb
00000180: 2824 ffbc 805d ccb9 0031 0cb9 73ca dfbc
00000190: 8c1f 0bbd ceed 28bd 32ec b23c 209d a6ba
000001a0: 5d06 023d 2e8c f1bc b839 ff3b c3d7 cabc
000001b0: c795 08bd b547 053d 7073 98bc 32fc d53c
000001c0: 20e3 f13a 062e 5dbc 76d5 75bc 44ba 553c
000001d0: 0020 21ba 78e5 d63b 7e62 12bd 960a c13c
000001e0: fd1e 043d a4d1 393c 18b5 c6bc 5097 47bb
000001f0: f061 993c 1a45 cd3c 3ace 1dbd 15cc 1e3d
00000200: 30a1 003c 2000 1cbc 50be d7bc c659 e4bc
00000210: e3ee 9abc 2cf6 28bc b2c0 dd3c dac7 e83c
00000220: f04c 15bc f23e d63c 7286 fb3c e049 18bc
00000230: 400c d43b f817 1dbd 5290 0ebd 9e71 9d3c
00000240: f8ea e83b 8887 c13b 6ab1 f93c d894 b73b
00000250: d3f5 d6bc 8e42 a43c 86be 6ebc e839 c2bc
00000260: 8ac9 f33c c336 06bd cf8b 1abd ca82 923c
00000270: e613 3abc a863 a23b 3396 85bc 14d0 763c
00000280: bc02 2f3c b4b5 03bd a306 153d 2a13 1bbd
00000290: 734b e1bc c024 5a3a 5c44 1cbd 2da3 1e3d
000002a0: 2255 ae3c d45f 1ebd 1832 d7bb 9337 1fbd
000002b0: f65e 9f3c 3069 5f3c e0ad f6bb d00a 75bc
000002c0: d3fe dabc da0c e53c d2e9 17bd c455 3e3c
000002d0: 48dd babc 3c43 603c 0b91 fcbc a3cf efbc
000002e0: 8851 d2bc d650 883c b8a9 98bb fe2f ec3c
000002f0: 7088 87bc cef4 cf3c 03a7 193d 9870 a5bb
00000300: 124b f83c 485d af3b e0f4 8abc f004 803c
00000310: 2877 e93b ac87 733c 80f9 87ba be86 08bd
00000320: 7004 73bc 50b6 1abc c0df 82bc 6614 5cbc
00000330: 084d c9bc 438f 11bd 74c2 063c ce2e fabc
00000340: 7eb6 ca3c 7845 debb 9b7d cfbc 617f 083d
00000350: 1219 de3c 24e7 02bd 7bb7 0fbd 087c bbbc
00000360: 18ce 873c 6be4 b8bc fb49 debc 7284 833c
00000370: 7bc2 93bc 6e0d ac3c f299 b23c a9a8 143d
00000380: 9221 08bd e06b cfbc ae4f b9bc 8930 223d
00000390: ddb4 283d 48e3 ebbb b01e 54bb 884c f3bc
000003a0: 1cf4 083c 9653 a03c babe 833c e063 f4bb
000003b0: 4ee0 df3c e06b 29bc da90 db3c 3b83 ebbc
000003c0: 8806 d6bb 081a e0bb 2bc8 0d3d 2011 be3a
000003d0: 4b4e 033d 9c00 1abc 2009 183c c36c a8bc
000003e0: 6082 2abd 5b21 b3bc fd9c 283d a80f e0bb
000003f0: 184b 84bc 460d d23c 6a6d d83c a047 513c

map_encoder.block.4.bias f4 [32]
0.036163185 -0.0029185824 0.03579176 0.016144305 -0.012652289 0.035693366 0.033603627 -0.03718981
0.027411375 0.0070075393 -0.031000048 -0.023275256 0.00076812506 -0.0270545 -0.022906452 0.00813356
-0.03890319 0.01990394 -0.02700772 0.040765192 0.033611935 0.033911813 -0.02825672 -0.03783404
0.0032985061 0.0349038 0.035705794 -0.00096746907 -0.029515073 -0.009358097 0.039855678 -0.01634714
00000000: d91f 143d b045 3fbb 619a 123d 1041 843c
00000010: 8c4b 4fbc 3533 123d f5a3 093d 5854 18bd
00000020: d28d e03c 809f e53b d0f3 fdbc c0ab bebc
00000030: 005c 493a 66a1 ddbc 50a6 bbbc a042 053c
00000040: f458 1fbd 960d a33c 4b3f ddbc 67f9 263d
00000050: abac 093d 1de7 0a3d a37a e7bc def7 1abd
00000060: c02b 583b 49f7 0e3d 3d40 123d c09d 7dba
00000070: 98c9 f1bc b452 19bc b53f 233d 70ea 85bc

goal_map_encoder.block.0.weight f4 [32, 1, 8, 8]
0.013183832 0.04578033 0.0837542 0.06566009 0.01815641 0.060000047 -0.07802835 0.006403625
0.035817787 0.03213702 0.038747057 -0.09059359 0.10304877 0.087272435 -0.076620266 -0.10307835
0.05381511 -0.06800656 -0.12239973 -0.046391174 -0.11975686 0.11489494 -0.00022251904 0.033395678
-0.0099333525 0.0901366 -0.0915893 -0.04448816 0.023241535 0.0509872 0.06333904 -0.00957039
-0.017266795 -0.0010941178 -0.0696024 0.06601527 -0.10884385 -0.02948916 0.023483321 -0.031104356
0.015346631 0.08071853 0.1238433 0.07259597 -0.12022953 0.0807755 0.11401941 -0.014945552
-0.09996933 0.03702922 0.010409027 0.07325278 0.04058431 0.07454796 -0.0612503 -0.08550091
-0.0955942 -0.013706252 0.095097885 0.0077607483 -0.017413363 0.08758806 -0.058142707 -0.022101894
0.07981451 -0.11346604 -0.029229388 0.08626118 0.064321205 0.050602898 0.030346155 -0.11830634
0.0051145256 -0.10656667 -0.048815995 0.057436258 0.073166415 0.121383086 0.12276243 -0.08251087
-0.09886171 0.015562624 -0.0075733215 -0.07286012 0.068391934 0.039697334 -0.023131922 -0.055875644
-0.049570218 -0.08784491 0.04150355 0.11575632 -0.057348907 -0.041315436 -0.053483292 -0.10717738
-0.04164061 -0.07286477 0.12236838 -0.100143716 -0.10784982 0.010001555 -0.0698535 -0.0057886094
-0.103283286 -0.0087578595 0.0732235 -0.12074481 -0.07184522 -0.08964652 0.03209816 0.024459615
-0.0043854266 -0.08590846 0.026860908 -0.08205615 -0.11876696 0.034640267 0.0010684282 -0.031750277
-0.03985846 0.075192645 -0.02115962 0.06300154 -0.09718835 0.079055965 0.06563419 0.0978702
-0.07122947 -0.021702364 0.043835446 -0.077598736 -0.023101881 -0.10123336 0.09577583 -0.06450175
-0.088777125 0.112065166 -0.02188915 -0.08858988 0.107259095 0.03238079 -0.021249518 -0.051243976
0.05727166 0.047245815 0.12046705 -0.08627656 0.046124443 -0.0553765 -0.027993292 0.04422638
-0.011409819 -0.020856768 0.031191632 -0.100292236 0.027577817 0.022610396 0.035924047 -0.012127906
-0.06355798 0.036318988 0.053285465 -0.04459633 0.09634854 0.0763583 0.036265135 -0.030339941
0.09583923 -0.10483214 -0.051457435 0.066942245 -0.061433837 -0.019629866 -0.012212694 -0.05953899
-0.06431475 0.04484406 0.033118993 -0.10819568 -0.01356177 0.02852036 -0.11176725 -0.032740816
0.09822862 0.03423205 -0.08781931 -0.021784976 0.049595967 0.006316662 -0.06011145 -0.0029588789
-0.06995529 0.057994947 0.11659694 -0.08258505 0.03373152 -0.011223316 -0.10439114 0.035452396
-0.004541397 0.123709664 0.1139202 0.047559887 -0.019189507 -0.07316013 0.064947754 -0.054298237
-0.05461003 -0.12443568 -0.04414931 0.044730127 -0.055696324 0.06783764 0.040674955 -0.10153106
0.11784451 -0.018140182 0.07955624 0.08750644 0.10982303 0.11018683 0.031577706 -0.011637092
-0.056346 0.12292911 -0.11822687 0.061675206 -0.109253824 -0.0002464652 0.07229893 -0.055939183
0.00426805 0.08953424 0.076704666 -0.035485968 0.073892266 0.09492725 -0.036637545 -0.036641046
0.07553853 -0.03949085 -0.017152458 0.028993279 0.110572636 0.060949937 0.09464647 0.12302779
-0.11900751 -0.021410108 0.09564769 0.11481412 0.09954198 0.08529532 0.10798335 0.081839874
00000000: 0001 583c 2884 3b3d 5287 ab3d cc78 863d
00000010: c0bc 943c 9cc2 753d 54cd 9fbd 80d5 d13b
00000020: acb5 123d 1ca2 033d 3cb5 1e3d 2289 b9bd
00000030: 3c0b d33d e4bb b23d 16eb 9cbd be1a d3bd
00000040: 3c6d 5c3d 0647 8bbd b6ac fabd ac04 3ebd
00000050: 1643 f5bd 0a4e eb3d 0054 69b9 e8c9 083d
00000060: 80bf 22bc 8a99 b83d 2c93 bbbd 3839 36bd
00000070: 0865 be3c f4d7 503d e6b7 813d 20cd 1cbc
00000080: 1873 8dbc 8068 8fba b48b 8ebd 0433 873d
00000090: 86e9 debd 4093 f1bc 1860 c03c 90ce febc
000000a0: 7070 7b3c c24f a53d 8ea1 fd3d 32ad 943d
000000b0: e63a f6bd a06d a53d 0283 e93d 30de 74bc
000000c0: b8bc ccbd f4ab 173d a08a 2a3c 8e05 963d
000000d0: bc3b 263d 9aac 983d 98e1 7abd 1a1b afbd
000000e0: e4c6 c3bd 3090 60bc aec2 c23d e04d fe3b
000000f0: 78a6 8ebc 5e61 b33d 0c27 6ebd 080f b5bc
00000100: ca75 a33d e260 e8bd 7872 efbc b4a9 b03d
00000110: d6ba 833d fc44 4f3d 8098 f83c 984a f2bd
00000120: c097 a73b a03f dabd 48f3 47bd 4842 6b3d
00000130: 46d8 953d b297 f83d de6a fb3d 76fb a8bd
00000140: 0278 cabd 60fa 7e3c a029 f8bb b037 95bd
00000150: 1211 8c3d ac99 223d 287f bdbc dcdd 64bd
00000160: 240a 4bbd 08e8 b3bd a0ff 293d a611 ed3d
00000170: b0e6 6abd 603a 29bd 4c11 5bbd d07f dbbd
00000180: 588f 2abd 203a 95bd 469c fa3d 2618 cdbd
00000190: 5ee0 dcbd 90dd 233c 5a0f 8fbd 60ae bdbb
000001a0: 3086 d3bd 207d 0fbc 34f6 953d 0e49 f7bd
000001b0: 9623 93bd 9898 b7bd 5c79 033d 885f c83c
000001c0: a0b3 8fbb c6f0 afbd 680b dc3c 0e0d a8bd
000001d0: 183c f3bd f4e2 0d3d 800a 8c3a 940c 02bd
000001e0: a042 23bd 9afe 993d f056 adbc f406 813d
000001f0: b00a c7bd 18e8 a13d 386b 863d 2c70 c83d
00000200: c2e0 91bd 28c9 b1bc cc8c 333d 16ec 9ebd
00000210: 2840 bdbc 7053 cfbd 1e26 c43d 7e19 84bd
00000220: c8d0 b5bd 6c82 e53d e050 b3bc 9c6e b5bd
00000230: a8aa db3d b8a1 043d 7813 aebc 34e5 51bd
00000240: b095 6a3d d484 413d 6eb7 f63d c4b1 b0bd
00000250: fcec 3c3d 78d2 62bd 3052 e5bc b826 353d
00000260: 40f0 3abc d0db aabc 9885 ff3c 0466 cdbd
00000270: e0ea e13c 7039 b93c 1825 133d 20b4 46bc
00000280: b02a 82bd 38c3 143d dc41 5a3d a4aa 36bd
00000290: 6252 c53d be61 9c3d c08a 143d 788b f8bc
000002a0: 5c47 c43d 3cb2 d6bd 08c5 52bd 0419 893d
000002b0: 0ca2 7bbd d0ce a0bc c017 48bc 28df 73bd
000002c0: 74b7 83bd 68ae 373d c8a7 073d b295 ddbd
000002d0: 3032 5ebc 88a3 e93c 3ae6 e4bd 3c1b 06bd
000002e0: 162c c93d e836 0c3d 9cda b3bd 6876 b2bc
000002f0: 2425 4b3d 00fc ce3b 6c37 76bd c0e9 41bb
00000300: b844 8fbd 1c8c 6d3d 60ca ee3d 5a22 a9bd
00000310: 102a 0a3d 00e2 37bc 06cb d5bd 8836 113d
00000320: 00d0 94bb 7e5b fd3d fe4e e93d 28ce 423d
00000330: 5033 9dbc fad4 95bd 5403 853d d467 5ebd
00000340: c4ae 5fbd 22d8 febd e8d5 34bd f036 373d
00000350: d421 64bd 76ee 8a3d c89a 263d 84ef cfbd
00000360: 7658 f13d b89a 94bc 62ee a23d 9436 b33d
00000370: e6ea e03d a2a9 e13d a057 013d 80a9 3ebc
00000380: 10cb 66bd 42c2 fb3d ee20 f2bd 249f 7c3d
00000390: 78c0 dfbd 0038 81b9 7611 943d 7c20 65bd
000003a0: 00db 8b3b ba5d b73d 5617 9d3d bc59 11bd
000003b0: d454 973d 3869 c23d 4011 16bd ec14 16bd
000003c0: f2b3 9a3d 28c1 21bd 5083 8cbc 5083 ed3c
000003d0: e873 e23d a4a6 793d 02d6 c13d fef5 fb3d
000003e0: 36ba f3bd 4064 afbc f0e2 c33d aa23 eb3d
000003f0: aadc cb3d 50af ae3d 6026 dd3d aa9b a73d

goal_map_encoder.block.0.bias f4 [32]
-0.11521365 -0.017945707 -0.09250794 0.030578643 -0.02449666 0.010213748 0.01644057 0.04653287
0.06610975 0.04064411 0.1062094 0.0782748 -0.022049725 -0.07463819 0.047453016 -0.058735684
0.03972903 -0.026305541 0.028303877 0.050748125 -0.09856899 0.11559585 0.047167614 0.099571556
-0.06007567 -0.059285045 0.020028695 0.049436107 0.066660225 0.04752992 0.0641737 -0.0056598783
00000000: 22f5 ebbd e002 93bc ce74 bdbd 1080 fa3c
00000010: 38ad c8bc 9057 273c 60ae 863c 4099 3e3d
00000020: 8c64 873d 707a 263d 5084 d93d 8a4e a03d
00000030: a0a1 b4bc e8db 98bd 185e 423d d494 70bd
00000040: e8ba 223d b87e d7bc 88dd e73c 44dd 4f3d
00000050: 8ade c9bd 84bd ec3d d432 413d 2cec cb3d
00000060: e811 76bd e0d4 72bd 3813 a43c 847d 4a3d
00000070: 2885 883d bcae 423d 806d 833d 8076 b9bb

goal_map_encoder.block.2.weight f4 [64, 32, 4, 4]
-0.00059989095 0.0323929 -0.00052953884 -0.041097254 -0.025119679 0.003779862 -0.013288522 -0.01250362
0.012913894 -0.02447636 -0.00022072345 -0.041179903 -0.033168714 0.03967556 0.04384559 -0.03798215
-0.018929873 0.042018097 -0.007582154 -0.01768368 -0.0046619885 -0.004983239 0.036571536 0.011061087
-0.030969404 0.038787495 -0.014095755 -0.009540699 -0.007981133 -0.021871211 0.034641284 -0.03994301
-0.010237686 -0.0056665577 0.029539417 -0.008125279 0.024488937 0.01012383 0.02635311 -0.005780913
-0.009994067 0.032237757 -0.0073532276 0.016543645 -0.012142684 0.018963251 0.012322053 -0.013942556
-0.0015272684 -0.03356912 0.03153265 0.0074739866 -0.021568455 -0.0062050745 -0.0063763186 0.03121892
-0.032374404 0.026558 0.030403528 -0.026840614 -0.013815895 -0.017351689 -0.019702049 0.011040356
0.021760594 -0.028932715 0.028695446 -0.005071368 0.010803144 0.037134852 0.015456051 0.018934917
-0.02051973 0.011527974 -0.024390027 0.019599792 0.031830814 0.012459602 -0.0054267086 0.02254882
-0.0019752122 0.032105286 -0.006211914 -0.0156712 -0.0025403313 -0.004891414 -0.008116599 0.0110861175
-0.005169533 0.026730593 0.022988033 0.014983024 -0.012724213 -0.031756155 0.029360559 0.0028278232
0.017170895 -0.03971797 0.026941884 -0.0034249425 -0.041758586 -0.013785787 0.039925937 -0.0013840534
0.0040817223 -0.0065668263 0.035013843 0.006363593 0.031865176 0.0001773797 -0.031313997 0.006177973
0.043095466 -0.02729227 0.025520053 -0.03990891 -0.030818343 0.02595796 -0.007218644 -0.0027149208
0.03030191 -0.012031246 0.025697958 0.010431025 -0.023836313 0.022960808 0.021007452 -0.013543943
-0.0023853965 -0.013959574 0.0254202 0.019736517 -0.020394048 0.035247047 -0.0051230006 0.012888107
-0.001332283 0.030973125 0.039627004 0.038860817 -0.037482195 -0.04415973 0.039906804 0.036787648
-0.005939476 -0.01529213 -0.029899227 -0.03896221 0.029861312 -0.041387994 0.025119748 -0.027648227
0.034424666 -0.039304737 0.03901187 0.034306932 0.027472649 0.03432392 -0.011715639 0.033622112
-0.030410774 0.03910741 -0.040328797 0.00303353 0.036423977 -0.021318465 0.008481886 -0.026817217
0.010007881 0.008815434 -0.04182705 0.036743063 -0.03084625 -0.011540387 -0.025294177 -0.02862713
-0.0016676858 -0.019763816 0.021563794 -0.022083037 0.028562974 -0.027155451 -0.0075750723 -0.016078517
0.02173641 -0.027087495 0.027424823 0.0017003715 0.043044347 0.03519455 0.01807671 -0.025897384
0.036853623 0.019144837 0.0026168674 0.009988397 -0.020042302 0.003255371 -0.021173464 -0.042432033
0.040076744 -0.031184267 -0.017552434 -0.031130973 -0.034813873 -0.017136034 -0.014631541 0.034432914
-0.012330715 0.024948362 0.037373673 0.0032253303 -0.023557406 0.025710467 -0.04038681 0.04223864
0.010967314 -0.027680254 0.019757401 0.041376937 -0.038180824 0.036446635 -0.010322258 0.01653108
-0.007941384 -0.037711155 -0.03556578 -0.012887616 0.0052774027 0.0027194098 -0.02805624 -0.03869211
0.0278049 -0.017281635 -0.0044799 -0.024144912 0.015889142 0.0060725585 0.013935227 0.025407206
0.042239163 -0.004667841 -0.03428872 -0.036985464 -0.024186263 0.025959063 0.040860545 -0.007553175
0.017353155 0.032967385 -0.007998761 -0.034311138 -0.0011144504 0.016690083 0.007831562 -0.006327521
00000000: 0042 1dba 6bae 043d c0d0 0aba 9855 28bd
00000010: c9c7 cdbc 90b7 773b 1ab8 59bc fcdb 4cbc
00000020: cc94 533c a682 c8bc 0072 67b9 42ac 28bd
00000030: ebdb 07bd d782 223d 6f97 333d 2c93 1bbd
00000040: d212 9bbc 2b1b 2c3d b873 f8bb 5ddd 90bc
00000050: 98c3 98bb 704a a3bb 09cc 153d 9039 353c
00000060: 8cb3 fdbc a3df 1e3d e2f1 66bc 9850 1cbc
00000070: 4cc3 02bc 412b b3bc 05e4 0d3d 489b 23bd
00000080: f8bb 27bc 88ae b9bb a6fc f13c e41f 05bc
00000090: 069d c83c 6cde 253c 7ae2 d73c d06d bdbb
000000a0: 28be 23bc bd0b 043d 58f3 f0bb 8a86 873c
000000b0: 1cf2 46bc d258 9b3c 70e2 493c 526f 64bc
000000c0: a02e c8ba c67f 09bd 6128 013d 58e8 f43b
000000d0: 54b0 b0bc f053 cbbb 70f0 d0bb d2be ff3c
000000e0: 069b 04bd 2a90 d93c d210 f93c d9e0 dbbc
000000f0: 105c 62bc 2125 8ebc 3166 a1bc 9ce2 343c
00000100: 4643 b23c 4d04 edbc b612 eb3c b82d a6bb
00000110: acff 303c b71a 183d 603b 7d3c 661d 9b3c
00000120: fe18 a8bc d4df 3c3c 98cd c7bc be8f a03c
00000130: 0761 023d 5c23 4c3c 88d2 b1bb 4eb8 b83c
00000140: 9072 01bb d580 033d 508d cbbb e360 80bc
00000150: b07b 26bb 2848 a0bb 7cfb 04bc 8ca2 353c
00000160: 3065 a9bb 1efa da3c 6651 bc3c 5c7b 753c
00000170: 3879 50bc be12 02bd 8e85 f03c 0053 393b
00000180: faa9 8c3c 4faf 22bd 3ab5 dc3c 0075 60bb
00000190: 0d0b 2bbd c8dd 61bc 6189 233d 2069 b5ba
000001a0: f8bf 853b 882e d7bb ad6a 0f3d b085 d03b
000001b0: 0f85 023d 00ff 3939 1b43 00bd 9870 ca3b
000001c0: df84 303d 0a94 dfbc 6e0f d13c 8677 23bd
000001d0: c076 fcbc caa5 d43c 608a ecbb d0ec 31bb
000001e0: b63b f83c b41e 45bc 8684 d23c e4e6 2a3c
000001f0: 5f44 c3bc 4e18 bc3c d217 ac3c 6ae7 5dbc
00000200: 5054 1cbb b2b6 64bc 063e d03c 7aae a13c
00000210: 6b11 a7bc 355f 103d d8de a7bb a428 533c
00000220: 00a0 aeba 5abb fd3c ed4f 223d 852c 1f3d
00000230: ee86 19bd d5e0 34bd 5175 233d a5ae 163d
00000240: f09f c2bb d88b 7abc 39ef f4bc d796 1fbd
00000250: b69f f43c 7586 29bd eec7 cd3c 897e e2bc
00000260: e100 0d3d 01fe 20bd e9ca 1f3d 6d85 0c3d
00000270: 520e e13c 3d97 0c3d f4f2 3fbc 57b7 093d
00000280: 0420 f9bc 172f 203d cf2f 25bd 30ce 463b
00000290: 4f31 153d 10a4 aebc 9cf7 0a3c c8af dbbc
000002a0: 18f8 233c 9c6e 103c d752 2bbd e57f 163d
000002b0: 46b1 fcbc e413 3dbc bc35 cfbc 7183 eabc
000002c0: 4096 daba bae7 a1bc 8ea6 b03c 7ce7 b4bc
000002d0: e6fc e93c 1c75 debc 5038 f8bb 18b7 83bc
000002e0: 8e10 b23c 98e6 ddbc 06aa e03c 00df de3a
000002f0: 454f 303d 2928 103d 9c15 943c c026 d4bc
00000300: d3f3 163d a2d5 9c3c c07f 2b3b 60a6 233c
00000310: c12f a4bc 1058 553b f973 adbc 36cd 2dbd
00000320: 8327 243d 2676 ffbc 1fca 8fbc 6206 ffbc
00000330: fe98 0ebd de60 8cbc 22b9 6fbc 8709 0d3d
00000340: c406 4abc 8260 cc3c 2315 193d 1060 533b
00000350: 76fb c0bc c29e d23c a46c 25bd 6d02 2d3d
00000360: 40b0 333c b3c1 e2bc 46da a13c dd7a 293d
00000370: 7f63 1cbd 1149 153d b01e 29bc 306c 873c
00000380: 941c 02bc 0377 1abd 6cad 11bd 9426 53bc
00000390: 10ee ac3b 2038 323b 33d6 e5bc 9e7b 1ebd
000003a0: 1ac7 e33c 3792 8dbc 20cc 92bb 8dcb c5bc
000003b0: f229 823c 50fc c63b 9450 643c c622 d03c
000003c0: f902 2d3d b0f4 98bb 5472 0cbd 127e 17bd
000003d0: 4522 c6bc 1aa8 d43c 635d 273d a080 f7bb
000003e0: 3428 8e3c cf08 073d 3c0d 03bc d689 0cbd
000003f0: c012 92ba a4b9 883c f44f 003c 1857 cfbb

goal_map_encoder.block.2.bias f4 [64]
-0.026943153 -0.04031358 -0.026407713 0.042992238 0.043450262 -0.0114077255 -0.02614193 0.0033160448
0.04347958 -0.031528518 -0.008569736 -0.007808592 -0.0009646043 -0.040221922 -0.028614406 0.00211047
-0.019367652 -0.001564607 -0.02039409 -0.042060964 -0.024749989 0.019794751 -0.02975832 0.02439912
0.005808763 0.042320523 0.02661081 -0.037330046 -0.015027711 -0.0007300414 0.021672215 -0.0011248663
-0.015912337 0.03842273 -0.008659564 0.031521987 -0.0046398565 -0.030105613 0.00710243 -0.040189147
0.0038789324 -0.0020232908 -0.019173838 0.039478343 0.03740607 0.040767718 0.01976676 -0.0052878633
-0.035700373 -0.010935511 -0.04086011 -0.005952999 -0.043921717 -0.005762376 -0.026881685 0.033800397
0.032008108 0.009904202 -0.03556795 0.034787405 0.019134615 0.041124914 -0.0032403804 0.013866812
00000000: e3b7 dcbc da1f 25bd fd54 d8bc a118 303d
00000010: e7f8 313d 78e7 3abc 9a27 d6bc 0052 593b
00000020: a517 323d 0c24 01bd 1468 0cbc 38df ffbb
00000030: 80dd 7cba bebf 24bd c268 eabc d04f 0a3b
00000040: e9a8 9ebc 8013 cdba 8211 a7bc 1e48 2cbd
00000050: 7dc0 cabc 9a28 a23c b8c7 f3bc aae0 c73c
00000060: 7057 be3b 4958 2d3d eafe d93c 64e7 18bd
00000070: ca36 76bc 4060 3fba ee89 b13c 4070 93ba
00000080: 975a 82bc 2761 1d3d d8e0 0dbc 331d 013d
00000090: f009 98bb 0ca0 f6bc 80bb e83b 609d 24bd
000000a0: b035 7e3b 3099 04bb 7412 9dbc 0bb4 213d
000000b0: 1b37 193d 0dfc 263d e6ed a13c d045 adbb
000000c0: 8e3a 12bd dc2a 33bc ee5c 27bd 6011 c3bb
000000d0: 42e7 33bd 50d2 bcbb fb36 dcbc 4972 0a3d
000000e0: ef1a 033d 3c45 223c b3af 11bd 3d7d 0e3d
000000f0: 32c0 9c3c 9972 283d 905c 54bb a031 633c

goal_map_encoder.block.4.weight f4 [32, 64, 3, 3]
0.0045685284 0.0021579564 -0.022361632 0.030585859 0.009686094 -0.03154592 -0.018024277 -0.033744454
0.022875909 0.026372466 -0.02869994 0.009107541 -0.026265424 0.024694297 0.029353198 -0.031572424
-0.036881056 0.010547683 -0.0072972476 -0.012852337 0.0011603571 -0.04022894 0.0019520223 -0.004908204
-0.020021096 0.015817404 0.017920837 -0.016246399 -0.03607511 -0.015067771 0.0380031 0.040945325
-0.028223064 0.035267513 0.03326128 0.022347782 -0.014046948 -0.0027206726 0.011222795 -0.02029204
0.035593 0.03319831 -0.041011047 0.014609873 -0.0089136325 0.027018327 -0.038610186 -0.0015778393
0.025662858 0.035123933 -0.028961536 -0.020128658 -0.014120381 -0.023236454 -0.0062008314 -0.022669926
0.02965613 0.02362642 -0.01997007 0.035912294 -0.005249355 -0.031962838 0.02969024 -0.018593734
0.0046893246 -0.027271122 -0.034706444 0.0074786693 0.016313374 -0.026714772 -0.008845687 -0.005817417
0.020556014 -0.017776644 -0.013099398 0.010492165 -0.021344965 0.02676661 -0.015101379 -0.027770748
0.035528753 -0.00070843473 -0.023601573 -0.038096126 -0.004164759 -0.0016845949 -0.029053893 0.015430916
0.005902797 0.0034356378 -0.007788386 -0.0024845786 0.020112995 -0.021013454 -0.01115118 0.018929508
0.00019754097 -0.0002704747 0.01111852 -0.04103392 -0.0044512562 0.022731569 -0.03858603 0.01777104
-0.0173792 0.03928416 -0.01851004 -0.010250147 0.038207714 -0.00088205934 0.021128405 0.00689191
0.009884078 -0.009920511 -0.03927806 -0.032548815 0.037447345 -0.03834615 -0.02118747 -0.025326774
-0.013471862 -0.021207174 -0.0022569932 0.027942974 0.013841972 -0.03036515 -0.019225871 -0.032664396
0.026873302 0.028439488 -0.039058127 -0.020198232 0.04164398 -0.009867966 0.034797426 -0.0019226074
-0.041568965 -0.017908623 -0.032516874 -0.03456887 -0.019605106 -0.037905037 0.02743015 -0.0002421774
0.025634464 -0.0015134476 0.016274154 0.0145219825 0.031043846 -0.012542427 -0.02662386 0.023953926
-0.021255653 0.03292669 -0.036011763 0.020997647 0.0066375546 0.016556177 0.039400835 0.0068360604
-0.004108239 0.018211436 -0.0026414134 -0.01432327 0.03791548 -0.034368005 0.0054199845 -0.03387193
0.025062177 0.01868688 0.03463995 -0.024405977 -0.022922974 0.019643035 -0.019286534 -0.014133196
-0.03071559 0.012151659 0.029502515 0.017798346 -0.009681821 -0.0045088865 -0.03955458 0.019895319
-0.033740945 -0.00844742 0.034251627 -0.012820061 0.02802645 0.039081212 0.04062276 -0.032030042
0.035217654 0.030570496 -0.03932313 -0.018472861 0.030557673 -0.033542912 0.033561815 -0.023798874
-0.03342959 0.002312541 -0.03473469 -0.030633416 0.012736771 -0.011926811 0.006215837 0.0143039115
0.0028239228 -0.021796104 -0.004149448 -0.012210846 0.012918968 0.014620673 0.011312243 -0.021097045
0.04072037 -0.003270924 0.041337218 0.04014637 0.02795485 -0.018977504 0.017851528 -0.013909966
-0.016547274 0.010519143 -0.0005251318 0.02255888 -0.005416531 0.032054666 0.026526522 -0.022752633
-0.0084008165 -0.00979355 0.013192255 0.03697567 -0.0005824603 0.0008729361 -0.00979862 -0.038381156
0.019764345 -0.008490909 0.02568217 -0.030589893 -0.0189079 0.01327813 -0.03769529 -0.00021183863
-0.027516296 -0.007551331 -0.019612655 0.032147545 -0.036843605 -0.01021941 -0.0017426647 0.035606716
00000000: 98b3 953b 806c 0d3b be2f b7bc 328f fa3c
00000010: 6cb2 1e3c 4b36 01bd a6a7 93bc a037 0abd
00000020: 4266 bb3c 120b d83c 231c ebbc cc37 153c
00000030: 962a d7bc b24b ca3c 1e76 f03c 1652 01bd
00000040: 9710 17bd 30d0 2c3c c01d efbb 9c92 52bc
00000050: 2017 983a 1ac7 24bd 00db ff3a 00d5 a0bb
00000060: 4803 a4bc 8093 813c b8ce 923c 2b17 85bc
00000070: 7fc3 13bd d0de 76bc 23a9 1b3d 49b6 273d
00000080: 0e34 e7bc ab74 103d fb3c 083d b212 b73c
00000090: 2c25 66bc 504d 32bb d0df 373c 7e3b a6bc
000000a0: f7c9 113d f3fa 073d 33fb 27bd 405e 6f3c
000000b0: 7c0a 12bc 8a55 dd3c b725 1ebd 80cf ceba
000000c0: ea3a d23c 1dde 0f3d be40 edbc dbe4 a4bc
000000d0: 2c59 67bc 605a bebc 5830 cbbb 48b6 b9bc
000000e0: 6af1 f23c 328c c13c 4698 a3bc c518 133d
000000f0: c802 acbb 77eb 02bd f238 f33c e351 98bc
00000100: e8a8 993b b067 dfbc 5828 0ebd a00f f53b
00000110: a0a3 853c f0d8 dabc 80ed 10bc 08a0 bebb
00000120: 1665 a83c 53a0 91bc dc9e 56bc 54e7 2b3c
00000130: a3db aebc a645 db3c c66b 77bc 7b7f e3bc
00000140: 9986 113d 40b6 39ba 1658 c1bc af0a 1cbd
00000150: 8878 88bb a0cd dcba 6e02 eebc f4d1 7c3c
00000160: 406c c13b 7028 613b b835 ffbb 50d4 22bb
00000170: 02c4 a43c 6824 acbc 70b3 36bc 0e12 9b3c
00000180: 0023 4f39 80ce 8db9 742a 363c 2f13 28bd
00000190: d8db 91bb 8e37 ba3c 630c 1ebd 9294 913c
000001a0: d35e 8ebc 6de8 203d 5ea2 97bc 3cf0 27bc
000001b0: b17f 1c3d 003a 67ba 7a15 ad3c 88d5 e13b
000001c0: d4f0 213c a489 22bc 08e2 20bd e851 05bd
000001d0: 6362 193d da10 1dbd 5891 adbc 187a cfbc
000001e0: 16b9 5cbc abba adbc 10ea 13bb aae8 e43c
000001f0: 70c9 623c 56c0 f8bc 937f 9dbc 1acb 05bd
00000200: 6625 dc3c eef9 e83c 6afb 1fbd c376 a5bc
00000210: e192 2a3d 40ad 21bc bf87 0e3d 0000 fcba
00000220: 3844 2abd 1bb5 92bc 6a30 05bd 1698 0dbd
00000230: e39a a0bc 5042 1bbd 32b5 e03c 00f1 7db9
00000240: 5eff d13c e05e c6ba 6051 853c 9ced 6d3c
00000250: aa4f fe3c c07e 4dbc 481a dabc 063b c43c
00000260: 5620 aebc 23de 063d 1281 13bd 4203 ac3c
00000270: d87f d93b d2a0 873c c562 213d 0801 e03b
00000280: 689e 86bb 2630 953c 901b 2dbb 26ac 6abc
00000290: 434d 1b3d 77c5 0cbd 209a b13b 4bbd 0abd
000002a0: 324f cd3c 3a15 993c 9fe2 0d3d 0bef c7bc
000002b0: f6c8 bbbc 6eea a03c cbfe 9dbc ec8e 67bc
000002c0: 439f fbbc c017 473c 42af f13c d6cd 913c
000002d0: 80a0 1ebc 48bf 93bb fc03 22bd 82fb a23c
000002e0: f233 0abd 0c67 0abc 6f4b 0c3d 3c0b 52bc
000002f0: ba97 e53c 9f13 203d 0d64 263d ef31 03bd
00000300: 6340 103d fa6e fa3c 4a11 21bd 6654 97bc
00000310: 1654 fa3c 4b64 09bd 1d78 093d dbf5 c2bc
00000320: 77ed 08bd 008e 173b f645 0ebd eef2 fabc
00000330: e4ad 503c ac68 43bc 38ae cb3b f45a 6a3c
00000340: 9011 393b be8d b2bc 18f8 87bb 0010 48bc
00000350: 14aa 533c 8c8b 6f3c fc56 393c b6d3 acbc
00000360: 67ca 263d 005d 56bb 3751 293d 8570 243d
00000370: 9201 e53c b676 9bbc 5e3d 923c a0e6 63bc
00000380: 268e 87bc 7c58 2c3c 00a9 09ba 66cd b83c
00000390: 287d b1bb c14b 033d 264e d93c bb63 babc
000003a0: 94a3 09bc 2075 20bc 5424 583c cd73 173d
000003b0: 40b0 18ba c0d5 643a 648a 20bc 8f35 1dbd
000003c0: d6e8 a13c 741d 0bbc 6a63 d23c a897 fabc
000003d0: bee4 9abc 848c 593c 6066 1abd 0021 5eb9
000003e0: db69 e1bc 2871 f7bb b8aa a0bc 25ad 033d
000003f0: 52e9 16bd 506f 27bc 206a e4ba 59d8 113d

goal_map_encoder.block.4.bias f4 [32]
0.033944864 0.032168303 0.0040145665 -0.010116976 0.02755129 -0.028994 -0.022156104 0.036656845
0.010327499 0.036441576 0.021876398 -0.03735616 0.02364685 0.017801013 -0.029742047 0.035555605
-0.01398788 -0.034146436 -0.0072785877 -0.02239127 -0.024756413 0.0068780594 0.034280065 0.02309582
-0.019907907 -0.01972197 -0.02399185 0.032916214 0.016860481 -0.019851005 0.002967447 0.022716302
00000000: c509 0b3d e9c2 033d a08c 833b acc1 25bc
00000010: 3eb3 e13c d384 edbc b880 b5bc 7d25 163d
00000020: ac34 293c c343 153d 2236 b33c c602 19bd
00000030: 0ab7 c13c 6ed3 913c 98a5 f3bc c1a2 113d
00000040: 6c2d 65bc 22dd 0bbd 3881 eebb e66d b7bc
00000050: f6cd cabc 5861 e13b 4169 0c3d 7233 bd3c
00000060: e815 a3bc f88f a1bc 8e8a c4bc 27d3 063d
00000070: fe1e 8a3c 939e a2bc 8079 423b 8a17 ba3c
